xgb/IR_model.pth (torch, 281192 bytes, 49 tensors)

net.0.weight f4 [64, 3]
000000 cc 90 ee be 86 8d 8d be ae 9d fe be 58 91 5d 3e
       -0.46594846 -0.27647036 -0.49729675 0.21637475
000010 90 7a 36 3d 11 53 b1 be 9c b7 74 3e 81 b7 f7 3e
       0.04455048 -0.34633687 0.23898166 0.4838219
000020 e1 9a f7 3e 05 ee d2 3e f3 ac a2 3e 56 1e d3 3b
       0.4836035 0.4119722 0.31772575 0.0064428253
000030 65 0b 73 3e 4f 07 a8 3e 57 48 ff be d8 4a 05 3e
       0.23734815 0.32818076 -0.49859878 0.13016832
000040 12 48 fe 3e 69 dd 7a bd ce da a3 bd 16 7b 83 bd
       0.4966436 -0.06124631 -0.08000718 -0.06419961
000050 73 be 84 3e f1 f7 e9 3d 9d 32 f8 be c1 1e d6 3e
       0.2592655 0.11424244 -0.48476115 0.41820338
000060 65 3b b2 be 4b 5b ee be 3a 0a 07 bf 33 14 0e bf
       -0.3481094 -0.46554026 -0.5274998 -0.5549957
000070 50 39 8b 3d ac d8 12 bf 2e 55 b2 be f8 94 dc 3d
       0.06798041 -0.57361865 -0.34830612 0.10770601
000080 75 c5 50 be b8 92 cc 3c a2 b7 ee be ad f9 03 bf
       -0.20387824 0.024972305 -0.46624476 -0.5155285
000090 1b a9 86 3e 3e 8c 97 bd b4 85 a7 3e f6 85 d1 3e
       0.26300892 -0.07399796 0.32719195 0.40922517
0000a0 03 37 67 3e 9b 3e 7e be 90 3a 94 3d f6 ce d5 3e
       0.22579579 -0.2482857 0.072377324 0.4175946
0000b0 f4 06 ed be 12 72 bc 3e 8e 7b 98 3e 95 7c c9 3d
       -0.46294367 0.3680578 0.29781765 0.09838215
0000c0 38 e9 d0 be 9a 52 6b 3d ed cb b7 be 11 a3 b3 3d
       -0.40802932 0.057451822 -0.3589777 0.08771337
0000d0 48 d6 8f 3d 81 c7 a9 bd 1d c5 4f 3d 2c bc 97 be
       0.07023293 -0.082900055 0.05072509 -0.2963575
0000e0 7f 6b f0 3e bd 12 da 3d 89 2d c6 be d1 33 95 be
       0.46957013 0.10648105 -0.38706616 -0.29141095
0000f0 a0 1f 0d 3f ef 10 0f 3d 54 cb a5 3d 2f ff 5b be
       0.5512638 0.03492826 0.080954224 -0.21484064
000100 67 4b 1b 3d 90 9a 2c 3e 94 3a 46 3e 95 1c ff 3e
       0.037913706 0.16855836 0.19358283 0.49826494
000110 a7 07 04 be 5f af 17 3e e2 76 91 be 53 7b 87 be
       -0.12893544 0.14812993 -0.28411013 -0.26461276
000120 2a e3 5a 3e c9 2d a9 bd bc db 0e 3f c3 10 b3 be
       0.21375719 -0.08260686 0.5580404 -0.34973726
000130 74 ad f7 be 24 bc 85 3e f8 f7 76 bd bc 40 fb be
       -0.48374522 0.26120102 -0.060295075 -0.49072826
000140 67 41 0c bf 49 ec 50 3e 87 97 bd 3c ca 45 98 3d
       -0.54787296 0.20402636 0.023143543 0.07435186
000150 d4 38 2d 3e ae 7d 48 3e 9a da a5 be 62 07 d1 bd
       0.1691621 0.19579193 -0.32393342 -0.10206486
000160 cf 45 84 be c8 9d 0d bf 10 a6 e5 bd c4 ca 20 bc
       -0.2583451 -0.5531888 -0.112133145 -0.009813968
000170 e7 a7 9c bc 1e d5 9e be 15 79 be 3e 1c 98 2a be
       -0.01912303 -0.3102197 0.37201753 -0.16659588
000180 fa fb 31 3e 5a 72 d9 3e 4f 68 a1 be 69 50 0b bf
       0.17381278 0.42470056 -0.31524894 -0.5441957
000190 2d ff 84 be a7 40 3a 3e e3 69 2e 3d 13 8e 56 bd
       -0.25975934 0.18188725 0.04258145 -0.052381586
0001a0 d0 4e d2 3d 32 6b ef be 36 1a 92 3e 24 56 8b 3e
       0.102689385 -0.4676147 0.28535622 0.27214158
0001b0 0e 26 b4 bd 27 6e b8 be ca ce be 3d 6d 9b 83 be
       -0.08796321 -0.3602154 0.09316786 -0.25704518
0001c0 4b b2 f1 be dc bf 46 bc 4a d9 3d be 0f 70 b1 3e
       -0.4720634 -0.012130704 -0.1853992 0.34655806
0001d0 f5 0a 21 3e 93 65 e0 3e 07 9b b3 3e b1 34 d5 3e
       0.15726836 0.43827495 0.35079214 0.41641763
0001e0 ca 2e 0d 3f ac 0f 10 bf 4a bc ff 3e aa 3a 22 be
       0.5514952 -0.56273913 0.4994834 -0.15842691
0001f0 df 71 6e bd 0c d4 0b bf b6 14 bd 3e 43 e9 cf 3e
       -0.058214065 -0.5462043 0.36929864 0.40607652
000200 3f a6 ec be d0 7b 3b be be 5a a1 bd ae e7 b3 3e
       -0.46220586 -0.1830895 -0.07878636 0.35137695
000210 69 8e c1 be 23 d0 1a bd 27 a0 70 3e cc 73 83 3d
       -0.37803963 -0.03779615 0.23498593 0.06418571
000220 6f fa 89 3c 25 1c ca 3d bc 8b 95 3e d2 ea e7 be
       0.016843049 0.098686494 0.2920817 -0.4529634
000230 87 7a 1b 3d ad bc d7 be 15 ec e4 3c cc c1 08 bf
       0.037958648 -0.42136136 0.027944604 -0.5342071
000240 72 b2 d4 3d f3 58 f1 3e 28 00 5b be 47 22 7a bd
       0.10385598 0.47138175 -0.21386778 -0.061067846
000250 7b 92 12 be 4c 61 aa bd 8c 75 9a be 61 83 5c 3e
       -0.1431369 -0.08319339 -0.30167806 0.21534492
000260 bc a1 00 3f 28 e1 cb 3e 2a e9 c5 be 14 9a c6 3d
       0.5024679 0.39820218 -0.38654453 0.09697357
000270 2b 97 41 3e 8b 5c 4f 3d 1c c3 82 3e 33 f3 23 bd
       0.18905322 0.050625365 0.25539482 -0.040026855
000280 87 7e 62 be 8a 64 a3 be a1 f5 01 3e db 19 da be
       -0.22118579 -0.31912643 0.12691356 -0.4259785
000290 3d b1 cb be 47 d1 a0 3e d0 1d 20 be 01 dc 01 bf
       -0.3978366 0.31409666 -0.15636373 -0.50726324
0002a0 c5 66 01 bf 99 58 f5 3e b2 78 80 be 84 9d 07 bd
       -0.5054744 0.47919157 -0.25092083 -0.033109203
0002b0 b5 2c 4a bd 0a 3d 0a 3f 6c b3 27 3e 35 40 ea be
       -0.049359042 0.5399939 0.16377038 -0.4575211
0002c0 60 61 82 3e 39 91 00 bd 6d 72 02 3e a6 0f 96 3e
       0.25464916 -0.031388495 0.12738962 0.29308814
0002d0 2f 04 a4 be 35 57 9a be 62 c9 ba be 39 7c 32 3d
       -0.32034442 -0.3014466 -0.36481768 0.0435755
0002e0 7c 22 06 bc c7 6e 78 be 04 9a 87 3e 80 b2 08 3e
       -0.008186933 -0.24261008 0.26484692 0.13349342
0002f0 0c 21 8f be 79 bd 8f be c2 29 f1 3e 31 de 68 be
       -0.279549 -0.28074244 0.4710217 -0.2274101

net.0.bias f4 [64]
000000 b8 70 04 3f 06 6c 86 3e d6 72 79 3d cb 82 1d 3e
       0.51734495 0.2625429 0.06090053 0.15381925
000010 5a fd db 3e 4a a4 ad be da 32 f0 3e 99 26 93 3e
       0.4296673 -0.33914405 0.46913797 0.28740385
000020 c4 41 cc 3e 16 bd 81 3d 7e 10 0e 3f bc 31 e5 be
       0.39893925 0.063348934 0.55493915 -0.44764507
000030 69 3d 0e bf 7e a5 a6 bd 7e 5b f3 3e 8c 2e 2f 3d
       -0.55562454 -0.08137034 0.4753074 0.042769
000040 e8 86 09 3f 6d 91 95 be 3f 18 d3 be fe e7 ec 3e
       0.53721476 -0.29212514 -0.41229436 0.46270746
000050 35 b4 9a 3e ed 76 12 3f 08 ec 9c 3e e4 e3 4c be
       0.30215612 0.57212716 0.30648828 -0.20008808
000060 be 01 a7 3e c1 f4 10 3f 5c 4b 2f 3e 97 48 d1 bd
       0.32618517 0.56623465 0.17118591 -0.102189235
000070 1d d5 bd be f4 c9 94 be 21 f7 ec bd d1 d5 17 bc
       -0.37076655 -0.29060328 -0.115705736 -0.009267286
000080 61 ab 0b bf 12 8a 3f 3e fc c5 09 3f 28 f2 dd 3d
       -0.5455838 0.18705013 0.53817725 0.10837203
000090 46 b8 0c bf 1a 3d be be 2d ff 06 3f 3b 71 af bd
       -0.5496868 -0.37155992 0.5273312 -0.08566519
0000a0 42 b5 05 3f c8 ea 93 be 71 d0 ff 3e dd 05 fc 3e
       0.522297 -0.2889006 0.49963716 0.49223223
0000b0 f6 f8 a0 be b5 92 6e 3d ae c4 8f be 2b d1 05 bf
       -0.31439942 0.05824538 -0.28079742 -0.5227229
0000c0 20 01 08 bf 12 5d 05 bf fb 92 cb 3e 5b 29 a6 be
       -0.53126717 -0.5209514 0.39760575 -0.32453427
0000d0 b2 7a 89 3e 18 19 10 bf d2 fe 29 be 87 9e a4 3d
       0.26851422 -0.5628829 -0.16601112 0.08038049
0000e0 fe fe c3 be 45 40 0b 3f 96 0b d0 be 59 a5 26 bd
       -0.3828048 0.5439494 -0.4063384 -0.04068503
0000f0 22 1f c1 be 3f bc 83 be 5c 75 93 bd fc 08 a3 be
       -0.37719065 -0.25729558 -0.07200119 -0.31842792

net.2.weight f4 [32, 64]
000000 da c7 a9 3d a2 29 a2 3d 2e 20 86 bd 80 0a e5 ba
       0.08290072 0.07918097 -0.065491065 -0.0017474443
000010 24 88 ef 3d d8 b0 d1 bc 18 ff 8e bd a4 a7 21 3d
       0.11695889 -0.025597021 -0.06982249 0.039466515
000020 00 ef 7d 3a 20 e4 b3 3d e8 7c f4 bd 00 78 a0 3d
       0.0009686798 0.08783746 -0.119378865 0.07835388
000030 34 0a 6c bd 30 9b e9 3d c0 a8 4e 3c 3c 9b 93 bd
       -0.057626918 0.11406553 0.012613475 -0.07207343
000040 ca 99 aa 3d 26 4e 8b 3d be 61 e1 3d f2 52 be bd
       0.08330114 0.06802015 0.11004971 -0.09293164
000050 dc 0a 55 bd e8 9f b1 bd b6 4d 8b 3d 0c 4f 75 bd
       -0.05201231 -0.08673078 0.068019316 -0.059889838
000060 08 ea 23 3d 0c 4f 05 bd f4 5d 74 bd 3c e5 93 bd
       0.04001811 -0.032546088 -0.059659913 -0.07221457
000070 24 85 7b 3d bc b4 c3 bd e0 24 4d 3d 80 4f 3e 3b
       0.06140627 -0.09555957 0.050083995 0.0029039085
000080 3c 52 a5 3d 20 04 18 bd 00 f4 dc bd f0 dd 10 bc
       0.080723256 -0.03711331 -0.10788727 -0.0088419765
000090 16 59 99 3d 1c 02 a6 3d 90 74 12 3d ca 51 95 bd
       0.07487695 0.08105871 0.035755694 -0.07290991
0000a0 98 b5 fc 3d ec 85 80 bd e0 81 e2 bd 6c 6c 5f 3d
       0.12339324 -0.062755436 -0.11059928 0.05454676
0000b0 20 19 10 bd 80 15 96 3a a0 a7 8d bd 9a 11 86 3d
       -0.03518021 0.0011450499 -0.069167376 0.06546326
0000c0 00 c6 e1 3b 98 ae b3 bd 00 7e 00 ba 60 e4 d5 bd
       0.0068900585 -0.087735355 -0.0004901588 -0.1044395
0000d0 18 35 92 bd 00 e5 57 3c 40 af 5b 3b 50 a4 34 3d
       -0.07139033 0.013177156 0.0033521205 0.044102013
0000e0 e0 2a 27 3d f0 eb 27 bc d0 4b f2 bc 38 27 65 3d
       0.040812373 -0.010249123 -0.029577166 0.055945605
0000f0 04 fd dc 3d bc e6 b2 3d 2e 95 d0 bd f0 b3 44 3c
       0.107904464 0.08735415 -0.10184704 0.012005791
000100 76 18 db bd e0 d1 4e 3c a0 5e a9 3d 00 fe a3 3d
       -0.10698025 0.01262328 0.082700014 0.08007431
000110 36 3d bc bd 00 bb f7 bd a8 5e 97 bd a8 62 af 3c
       -0.091913626 -0.12096214 -0.07391101 0.021409348
000120 b8 65 ca 3c 86 52 ec bd 60 0a dc 3c 20 57 9b 3d
       0.024706706 -0.115391776 0.026860416 0.07584977
000130 c8 33 ca bc 48 6d b6 3c 68 0f ec 3c 66 ab 84 bd
       -0.024682894 0.022268906 0.02881594 -0.06478004
000140 d8 28 cc bc 56 ba cc 3d 80 4a ea ba 00 e8 6c bb
       -0.02492182 0.09996478 -0.0017874986 -0.0036149025
000150 3e da 8e 3d b8 24 2f bd b0 f3 37 bd 30 b7 14 bd
       0.0697522 -0.042759627 -0.044910133 -0.036307514
000160 40 fd ce 3c e6 b6 ca 3d 7c cd 0f 3d c6 0e c3 bd
       0.025267243 0.09898166 0.035108075 -0.09524302
000170 36 3e de 3d 36 72 bf 3d 9c dc d2 bd a0 6e a1 bb
       0.108517095 0.09347956 -0.10295984 -0.0049265176
000180 d0 88 86 3d 44 f8 d9 bd 78 41 18 bd a0 7a 84 3b
       0.06569064 -0.10643056 -0.03717181 0.0040429384
000190 b8 26 dd 3c 94 de 2d bd 18 16 e5 bd b8 08 a2 3d
       0.026996002 -0.042448595 -0.11185855 0.07911819
0001a0 08 fe 8a bc 7c f3 d4 3d 60 19 a2 bc 60 43 58 bd
       -0.016966835 0.103980035 -0.01978749 -0.05279863
0001b0 30 8c 01 bc b0 ea 2d 3d 38 5c 8d bc 2c 3a 56 bd
       -0.007906958 0.042460144 -0.017255887 -0.05230157
0001c0 28 cc cb 3c 3c 30 dd bd 34 88 c4 bd d0 17 22 bd
       0.024877623 -0.108002156 -0.09596291 -0.03957349
0001d0 34 3e ee bd d0 6c 11 3d 32 e5 b3 bd c8 ed 2e bd
       -0.11632958 0.035504162 -0.0878395 -0.042707235
0001e0 fa c6 d3 bd 34 f6 52 3d b0 19 99 bc c0 8f 0e bd
       -0.10340686 0.05150433 -0.018689007 -0.03480506
0001f0 28 8c 81 bd 62 5e 9c 3d c0 ec 91 3d e0 e3 85 bb
       -0.06325561 0.076351896 0.071252346 -0.0040860027
000200 20 52 7e bd f8 30 d7 3c 9a 63 d4 bd 60 e4 b3 3c
       -0.06209004 0.026268467 -0.1037056 0.021959484
000210 68 40 f7 3d 44 f1 4b 3d 20 30 c2 3d c6 a0 9e 3d
       0.120728314 0.049790636 0.09481835 0.07745509
000220 84 57 09 3d 38 a7 0b 3d 68 f3 fa 3d 00 3b fe bc
       0.033530727 0.03409502 0.12253457 -0.031033993
000230 3a 7b 8d bd 60 19 86 bc 14 c6 37 bd ac d4 0b 3d
       -0.06908269 -0.016369522 -0.044866636 0.034138367
000240 fe d6 a6 3d c0 10 25 bc e0 e4 cd 3b 20 e8 26 3d
       0.08146475 -0.010074794 0.0062833875 0.040748715
000250 88 ff c1 3d a8 e4 a2 bc ea fe af bd d8 ff 91 3c
       0.09472567 -0.019884422 -0.08593543 0.017822191
000260 18 83 fa 3c 1c 05 08 3d 1c 42 03 3d ac d2 cd 3d
       0.030580088 0.033207998 0.03204547 0.10049948
000270 8a 7e a3 bd 26 60 cb bd 30 dd 47 3c ec 30 6c 3d
       -0.0798312 -0.09930448 0.012198731 0.057663843
000280 c0 0f d8 3d 00 ab bb 3d f2 24 f6 bd 9c db 91 3d
       0.10549879 0.09163475 -0.120187655 0.07121965
000290 88 8d 82 bc 4c 1e ae bd 88 fb c7 bd 22 1b d0 3d
       -0.015936628 -0.085018724 -0.09764773 0.10161425
0002a0 e8 6c 35 3d c4 33 78 bd b2 2d d7 3d b8 d3 cc bc
       0.044293314 -0.060596243 0.105067626 -0.0250033
0002b0 5e 94 a2 3d ba 9c b5 bd fc 0c 11 3d e0 74 37 3d
       0.07938455 -0.08867784 0.035412773 0.044789195
0002c0 54 0f 11 bd 14 e9 ef bd 98 f2 f1 bd 58 35 d7 3c
       -0.03541501 -0.11714378 -0.11813849 0.026270553
0002d0 a0 1e 55 bc 40 be c1 3c c8 fb 8c 3c a6 60 a1 3d
       -0.01300779 0.023650289 0.017209902 0.07879762
0002e0 42 75 97 bd 32 23 fb 3d 2c 82 2f 3d 90 57 37 bd
       -0.07395412 0.12262572 0.04284875 -0.04476124
0002f0 80 6d 26 bb 7c 63 e6 bd f8 a0 19 bd c0 48 77 3d
       -0.0025394857 -0.11249444 -0.037507027 0.060372114
000300 74 bb 5c 3d 00 30 5e bd 28 de c8 bd 52 6c 94 3d
       0.053889707 -0.054244995 -0.09807998 0.07247223
000310 be 5e 89 bd 78 d9 f5 bc 58 ea 99 bd 22 7b 9a bd
       -0.06707524 -0.030010924 -0.07515401 -0.07543017
000320 30 8f 83 bd 16 39 ff 3d d6 04 eb 3d 40 e5 9e bb
       -0.06423795 0.1246206 0.11475532 -0.004849106
000330 60 40 ee bb 18 e1 39 3d 96 05 f1 bd 38 26 8b 3c
       -0.0072708577 0.04538068 -0.117686436 0.016985998
000340 84 9d 5e 3d 18 1d 9d 3d 78 a1 a6 3d 54 4b ff bd
       0.054349437 0.07671565 0.081362665 -0.124655396
000350 40 d7 dd bc 7a 90 91 bd c0 f1 22 3c 9c ed d3 3d
       -0.027080178 -0.07107635 0.009945333 0.10348055
000360 e8 38 2f bd 54 a3 ec bd 70 c7 49 bc f8 c2 3f bd
       -0.04277888 -0.1155459 -0.012315616 -0.046816796
000370 a0 66 0e bd d0 ef 34 bc ac ce f9 3d 04 84 46 3d
       -0.03476584 -0.011043504 0.12197623 0.048465744
000380 68 aa 3d bd e6 19 ca bd ac de 60 3d a0 e8 18 bd
       -0.04630509 -0.09868221 0.054899856 -0.037331223
000390 98 58 7f bd d0 31 ab 3d f6 43 90 bd b8 a0 e1 3c
       -0.06234035 0.0835911 -0.070442125 0.027542457
0003a0 ae 95 c9 3d 10 23 f8 bc 00 81 bc 3c 2e df a1 bd
       0.09843002 -0.030290157 0.02301073 -0.07903896
0003b0 2c c1 db 3d 40 f3 90 3b b2 3c ff bd f4 ab 8f bd
       0.10730204 0.004423529 -0.124627486 -0.07015219
0003c0 f0 29 e6 bc 88 75 fd bc 24 e0 38 3d 12 a7 86 3d
       -0.02809617 -0.030939832 0.045135632 0.06574835
0003d0 22 7d ce 3d 06 0e bc 3d 8c ed 2c 3d 0e b4 ac 3d
       0.10082461 0.09182362 0.04221873 0.0843278
0003e0 78 8a ad bd 22 77 98 bd 9a a8 ba bd ca 55 c8 bd
       -0.084736764 -0.07444598 -0.091141894 -0.09781988
0003f0 78 7a db 3c 80 a4 6d bb 42 04 d4 3d 18 49 bf bc
       0.026791796 -0.003626138 0.103523746 -0.023350284

net.2.bias f4 [32]
000000 48 bd 3a bd 18 dd a0 3d b8 d7 dc bc 2c 48 3d 3d
       -0.04559067 0.0785467 -0.026958331 0.046211407
000010 e8 c4 83 bd d2 37 cf bd dc 40 08 3d a0 bd 07 bc
       -0.06434041 -0.10118069 0.03326498 -0.008284956
000020 f0 48 00 3d 02 b6 ba bd bc 88 b2 3d 5e 06 c0 bd
       0.03131956 -0.091167465 0.08717486 -0.093762144
000030 38 94 fa bc 5a 6b c9 bd 58 84 24 3d 00 cc 4c 39
       -0.030588254 -0.09834929 0.040165275 0.00019530952
000040 e2 67 d3 bd 80 ff 36 3c e4 f6 d3 bd a8 d9 7e 3d
       -0.103225484 0.011169314 -0.10349825 0.062219292
000050 da 2b ad 3d f2 c0 db bd 80 51 20 3c 2e 0b dd bd
       0.0845563 -0.10730161 0.009785056 -0.10793148
000060 38 ba e4 bd 28 7b e4 bd 6a bf a4 bd 40 ab 8c bb
       -0.11168331 -0.11156303 -0.08044322 -0.0042928755
000070 18 13 dc bd 76 d8 f4 bd f0 da 41 3c 12 25 f7 3d
       -0.10745829 -0.11955349 0.011831984 0.120676175

net.4.weight f4 [1, 32]
000000 ce 80 24 bb db 7b 97 bd 27 05 86 bd c6 84 99 3d
       -0.0025101188 -0.073966704 -0.065439515 0.07496028
000010 80 a6 0b be 4e 47 db 3c 8a 99 28 3e ab 23 14 be
       -0.13637733 0.0267674 0.1646482 -0.14466731
000020 87 3a 00 3e 73 e1 32 bd 11 ab 95 3c 33 5e 70 3d
       0.12522326 -0.043672036 0.018270047 0.058683585
000030 21 04 29 3d 7b 36 bd 3d 80 d0 17 be a6 ed c7 bd
       0.041263703 0.09238907 -0.1482563 -0.09762125
000040 65 d9 33 3e 72 48 0d bd 86 cc f1 bd e1 5c 12 3e
       0.17563398 -0.034492917 -0.11806588 0.14293243
000050 d5 56 91 bd ec 41 77 3d c7 1d 18 3e 71 de ca 3d
       -0.0709664 0.060365602 0.14855109 0.099057086
000060 97 ee 85 bc 9e 09 23 3d 1c 4b 06 be 0c 05 2b 3e
       -0.01634912 0.039804094 -0.1311459 0.16701144
000070 5d 4e c2 bd e8 18 31 be 0d 19 58 3d 96 4a 28 3e
       -0.09487603 -0.17294657 0.052758265 0.16434702

net3.0.weight f4 [128, 3]
000000 1b d1 9d be c2 b9 2a be 0f de db bd 99 00 99 be
       -0.30823597 -0.16672423 -0.10735714 -0.29883268
000010 61 25 11 bf 73 d8 d5 be ac fb a6 3e a4 fc df be
       -0.5669766 -0.417667 0.32613885 -0.43747437
000020 42 65 b9 be 2c c1 83 3e 30 81 f7 3e e2 01 b9 bd
       -0.36210066 0.25733316 0.4834075 -0.09033562
000030 3c 46 f8 3e c1 6e bf be d5 79 3f be c5 ac b8 3e
       0.48491085 -0.37389186 -0.18698819 0.36069313
000040 2d 46 d9 bd b2 af b3 3d a1 5d 0f bf ab 34 f6 3e
       -0.10609088 0.087737456 -0.5600224 0.48087057
000050 97 59 25 be 8b 78 0f 3f 40 ee 9b 3d 34 3a 05 3f
       -0.16147457 0.5604331 0.07613802 0.52041936
000060 7a 43 2f be 0c 4f f4 3e 50 d1 fa be 1f b0 5a be
       -0.17115584 0.47716558 -0.48987818 -0.21356247
000070 32 af 88 3e e1 91 23 be 0f 24 01 3f 8d 81 03 bf
       0.26696163 -0.15973617 0.50445646 -0.51369554
000080 63 1b b0 be c9 a2 bc 3e c8 dd a2 bc fb af 48 be
       -0.34395894 0.36842945 -0.019881144 -0.19598381
000090 59 44 b6 be 7a a2 ae be d4 21 19 be e8 fa 81 3e
       -0.3559902 -0.34108335 -0.1495431 0.2538674
0000a0 9f 5f 2b 3d 14 ef 7e be 82 6f 97 3e 9c 42 e2 3e
       0.04183924 -0.24895889 0.2957726 0.44191444
0000b0 7f 57 f3 3e 16 ae 2b 3e 43 4c f8 be 6a 98 59 be
       0.47527692 0.16765627 -0.48495683 -0.21249548
0000c0 28 42 a0 3e 2c 11 d1 be 13 05 68 3d 59 88 01 bf
       0.31300473 -0.40833414 0.056645464 -0.50598675
0000d0 5e e1 ff bd b2 d9 a4 be 65 79 13 3f 63 14 89 3e
       -0.12494157 -0.32197338 0.5760711 0.26773366
0000e0 cb 2f e2 3e 09 2e b0 3e 0e c2 40 bd b9 d2 55 bd
       0.44177088 0.34410122 -0.047060065 -0.052202914
0000f0 34 03 9b be 14 64 48 be 38 6c 03 3d fb ab 84 3e
       -0.3027588 -0.19569427 0.032085627 0.2591246
000100 ec ad 06 bf c1 bd 39 3e 9e 15 ce bd b2 16 46 3d
       -0.52609134 0.18138792 -0.10062717 0.048361488
000110 6b be e7 bd 12 6f b2 be 5b 50 f6 be d5 59 05 bf
       -0.11315616 -0.34850365 -0.4810818 -0.520902
000120 3b b8 a8 3e 6a 05 9a 3d 71 88 93 be dc b8 fe 3d
       0.32953057 0.07520564 -0.28815034 0.12437603
000130 36 ea d0 3e 7b 67 88 3e 47 c2 e3 bd 6d 74 19 bd
       0.4080369 0.2664145 -0.1112104 -0.037464548
000140 75 1a 56 3e ea be b0 3e aa 53 0f bf c9 8f 8a be
       0.2090853 0.34520656 -0.55987036 -0.27062824
000150 de 3f 17 3e 15 34 c5 3c 66 41 dd 3e b3 93 00 bf
       0.14770457 0.024072686 0.43213958 -0.5022537
000160 8c e7 80 3e a9 38 6c be a0 8c d0 bd 94 1d 54 3e
       0.25176656 -0.23068489 -0.10183072 0.20714408
000170 44 40 ef be 58 61 a3 be 13 70 13 3e b1 41 95 3e
       -0.46728718 -0.31910205 0.14398222 0.2915168
000180 12 bf 84 be 3a 16 49 be 33 64 cb 3e dd d8 88 3e
       -0.25927025 -0.19637385 0.39724883 0.26727954
000190 de 5a d6 bd a4 34 9e be c1 d4 fb 3e 4c 81 88 be
       -0.1046655 -0.30899537 0.49185756 -0.26661146
0001a0 e7 bf 11 bf c6 fb e9 be db 15 d2 be 32 d5 6e 3e
       -0.56933445 -0.456999 -0.410323 0.23323515
0001b0 eb f2 97 be 70 68 3e 3e 20 dc 71 3d d4 b4 56 3e
       -0.2967752 0.18594527 0.05904782 0.20967418
0001c0 92 11 9e be af 7f 11 bf 6c 92 10 bf a0 cd 31 3e
       -0.3087278 -0.56835455 -0.5647342 0.17363596
0001d0 b6 85 34 3c b4 fd f4 3e 2f 8a ad be 2d bf e2 3e
       0.011018207 0.4784981 -0.33894488 0.4428648
0001e0 f7 9a d5 be a9 ea 51 be 10 02 fa 3e d4 f9 78 be
       -0.4171979 -0.20499672 0.488297 -0.24314052
0001f0 cf f1 95 3e d5 ba 90 be f8 34 2d 3e 46 a3 ca be
       0.29286048 -0.28267542 0.16914737 -0.39577693
000200 85 aa 35 be 8d 58 8a 3e 26 03 ee 3e a9 6b e6 bd
       -0.1774083 0.27020684 0.46486777 -0.11251003
000210 9f df d1 be 7f 2f ef 3e 0c d2 fc 3d 04 6e e7 3e
       -0.40990922 0.46715924 0.12344751 0.45201123
000220 8b 88 b3 3b 13 4c 12 3f dc a2 3e be 28 46 e1 3e
       0.0054789237 0.5714733 -0.18616813 0.43998837
000230 79 c4 a5 3e 2a dd 01 be 3b 93 d2 3e 86 cc 13 bf
       0.3237646 -0.12682024 0.41127953 -0.57733953
000240 dc af ce be 2e 72 a4 3e fb 36 0e 3f c6 03 c2 3e
       -0.40368545 0.32118362 0.55552644 0.37893504
000250 fa fb e3 be ca 45 9c 3d 4e 53 36 bc 30 b3 a9 be
       -0.4452818 0.07630499 -0.01112826 -0.33144522
000260 8b 85 db bd 3c 51 c7 3e 61 c1 03 3c f5 ea 81 3e
       -0.10718831 0.38929164 0.008041711 0.2537457
000270 38 ed 7f be 96 f4 ac be ad 0a db be 54 39 01 3f
       -0.24992836 -0.33780354 -0.42781582 0.504781
000280 b3 b8 8c be 95 6b 5e 3e 5b ac 2e bd 4b 81 a9 be
       -0.27484664 0.21720727 -0.04264484 -0.33106455
000290 01 f8 ab be 19 ad 7e be f3 6a db 3e dd c2 ed 3e
       -0.3358765 -0.24870719 0.42855033 0.4643773
0002a0 6e 03 cc be 97 71 79 3e 86 ae b2 bd a5 84 7b 3e
       -0.39846367 0.24359737 -0.08724694 0.24562319
0002b0 37 3f 0c bf 8c 23 11 3f c3 21 93 3e 1b 6b b9 bd
       -0.5478396 0.56694865 0.28736696 -0.09053632
0002c0 d8 fe b8 be d8 1e 13 bf c1 0b 0b 3f 62 19 88 be
       -0.3613193 -0.5746894 0.5431481 -0.26581866
0002d0 d1 5a 0b 3e f0 e3 a7 3d 4a 35 09 3f c7 3e a3 3e
       0.13608862 0.081977725 0.5359694 0.31883833
0002e0 a8 75 da 3e 00 1c 7a 3e da 37 c2 3e 54 50 c6 be
       0.4266789 0.24424744 0.37933236 -0.3873316
0002f0 bd 4f 0c 3e 5c 0b 99 be f2 dc a5 be 05 34 82 3c
       0.13702293 -0.2989148 -0.3239513 0.015893945
000300 eb ca c9 be 3e a9 22 3d ac c1 bb 3d ae 90 fc be
       -0.39412627 0.039712183 0.09167799 -0.49329132
000310 04 b7 78 be 25 9c 09 3e b0 e3 90 bd 79 6d 70 be
       -0.24288565 0.1343847 -0.07074678 -0.2347926
000320 e2 6b 13 bf c0 2f 82 be fe d5 82 be 94 c1 9f be
       -0.5758649 -0.25427055 -0.25553888 -0.31202376
000330 4b c5 cf be 44 77 b9 be 4a 42 c1 be e0 83 51 3e
       -0.4058021 -0.36223805 -0.37745887 0.20460463
000340 dd 0c ee 3e 63 bf 2b bd 4e d8 c8 be 58 71 0d bf
       0.4649419 -0.041930567 -0.39227527 -0.55251074
000350 29 3c 97 3e 07 f7 a8 3e 4c 98 a9 be 60 2e 97 3e
       0.29538086 0.33000967 -0.33124006 0.2952757
000360 57 6b 04 bf 24 9c aa be 0e 6b a6 be a8 6e 37 3e
       -0.5172629 -0.3332225 -0.3250355 0.17913306
000370 79 d9 fd 3e e3 55 50 3e 86 0d a4 be 49 e1 ce be
       0.4957998 0.20345263 -0.32041568 -0.40406254
000380 15 67 00 bf 79 98 06 bf 9c 48 c6 3e ff 04 00 3f
       -0.5015729 -0.52576405 0.38727272 0.50007623
000390 08 51 36 be 02 55 26 3e d0 cf 01 3f 7d 11 ea be
       -0.17804348 0.16243365 0.5070772 -0.45716467
0003a0 bf 2b bf 3e 3b 6e 0e 3f 1c ee 3b be 65 dc d9 be
       0.37338063 0.5563695 -0.1835255 -0.4255096
0003b0 68 93 d8 be a3 89 13 bf 2a 27 83 be ea 65 c3 be
       -0.42299962 -0.5763189 -0.25615817 -0.38163692
0003c0 a5 da 26 3e 73 d6 a5 be 5a 4f 9d be 93 1e 9c be
       0.16294344 -0.32390174 -0.30724603 -0.30492076
0003d0 9d 95 ec be 4f d0 f4 bd d3 8a 95 be eb 31 b6 be
       -0.46207896 -0.11953794 -0.29207477 -0.3558496
0003e0 8a a4 0e be 2d 94 43 3e c5 11 63 be 19 f8 7b bd
       -0.13929954 0.19099493 -0.22174747 -0.0615159
0003f0 72 79 82 3c bb 20 02 bf 1e e2 cd be 94 6b c2 3e
       0.01592705 -0.5083119 -0.40211576 0.379727

net3.0.bias f4 [128]
000000 3f 5a fc 3e 5d a4 be 3e db 58 10 bf 09 c3 ef be
       0.49287602 0.37234774 -0.5638558 -0.46828488
000010 ce 47 ab be f5 a8 bf 3b 5d b2 bd be 85 35 d2 3c
       -0.3345322 0.0058489987 -0.37050143 0.025660286
000020 26 cd 89 3e b8 1d 8e 3e fa 1d 97 be f7 fe 12 3f
       0.26914328 0.2775705 -0.29515058 0.57420295
000030 0a 93 5e be a6 61 93 be 7d 3a b8 3e b7 53 ca 3e
       -0.21735778 -0.28785437 0.35982123 0.39516994
000040 f6 cd 72 3e 2d 09 f2 be 41 36 e4 be c7 8c f3 bc
       0.2371138 -0.47272626 -0.44572642 -0.029730214
000050 d2 e3 66 3d 5a c1 10 bf ab 6d d7 3e f3 cd 95 3d
       0.05636961 -0.5654503 0.42075858 0.07314672
000060 38 9c 89 be b8 57 0e bf a8 3a cb 3d 7d 1b e6 3e
       -0.26876998 -0.556026 0.09923297 0.44942847
000070 76 0c 0f bf 4f 6d 8b 3d 2a 49 cd bd 33 59 4a 3e
       -0.5587839 0.06807958 -0.100237206 0.1976059
000080 fc b4 04 3e 47 a9 86 be 4a 31 2e be 32 1c 2a be
       0.12959665 -0.26301023 -0.1701099 -0.16612318
000090 9a 80 ee be 3e 0f c3 3e 95 9b 6c 3e 9a a3 91 3e
       -0.4658249 0.38097566 0.23106225 0.2844513
0000a0 5d 44 65 be 90 3a 86 be 0e 6a 02 be 7c 40 18 be
       -0.2238936 -0.26216555 -0.12735769 -0.14868349
0000b0 86 4a 8e be df 58 12 be 0c 5d e8 bd 80 9d 8e be
       -0.27791232 -0.14291714 -0.11345872 -0.27854538
0000c0 1e 4b 0a bc 74 c1 1d be b7 a0 08 3f 92 ba 78 be
       -0.008440761 -0.15405828 0.5337023 -0.24289921
0000d0 bd 82 db be 10 8e ed be 63 11 f6 be d5 e1 11 3f
       -0.42873183 -0.46397448 -0.4806014 0.5698522
0000e0 57 5f c3 3e 45 c2 f0 3d 55 d9 ad bd be bb 86 3e
       0.38158676 0.11755804 -0.084887184 0.2631511
0000f0 2d e6 dd 3e 61 8e 6e 3e b1 f6 e3 be 7c a5 a6 be
       0.43339673 0.232965 -0.44524148 -0.3254813
000100 f6 f9 1d 3e be bc 67 3e 09 bd 57 bc 09 05 13 bf
       0.15427384 0.22630593 -0.013167628 -0.5742956
000110 67 bd 42 bd 76 6b e8 3e c5 3d 80 be f3 94 f2 3b
       -0.04754391 0.45394486 -0.25047126 0.00740301
000120 d8 7a 04 bf c6 7c c0 3d e5 cf c1 3d 8a 3c 89 3e
       -0.51749945 0.09398799 0.09463481 0.26804
000130 f1 a4 89 3e fa 91 9f 3e 0a 9e ca 3e 2a 63 9e 3e
       0.26883653 0.3116606 0.395737 0.3093503
000140 a8 0b 98 be f5 5e 4b 3e ea 7d 86 3e e0 77 8f be
       -0.29696393 0.19860442 0.2626794 -0.28021145
000150 79 6c cd 3e 2e 6b 97 be e8 d7 13 bc f7 ba 10 3e
       0.4012182 -0.2957396 -0.009023644 0.14133821
000160 26 39 13 bf 6b 64 b8 be b7 a2 26 3e 96 77 fe 3e
       -0.57509077 -0.36014113 0.16273008 0.49700612
000170 79 0d 8f 3d 97 00 9f 3e b0 86 0e bf 02 04 03 be
       0.069849916 0.31055138 -0.55674267 -0.12794498
000180 9c b1 81 3d 0b 7a 89 3d 95 15 b7 3e 1e ba 44 3e
       0.063327044 0.06712731 0.35758653 0.19211623
000190 9d b8 ab 3e 01 98 c8 3e 21 6a 21 be dd e8 73 3d
       0.33539286 0.3917847 -0.15763141 0.059548248
0001a0 14 e6 c4 be 53 5c 03 3f 35 55 e5 be 02 d0 fe be
       -0.38456786 0.5131275 -0.4479157 -0.49768072
0001b0 25 68 e9 3c 70 16 0e bd ca 4c 0b 3f 57 51 ad be
       0.028492043 -0.034689367 0.54414046 -0.3385112
0001c0 44 e8 bd be bf 00 f8 3e 7e d5 08 bf 9e de 40 be
       -0.37091267 0.4843807 -0.53450763 -0.18834922
0001d0 f0 62 76 3c 47 d2 aa bd 86 3b 1b 3d 1d 94 ea be
       0.015038237 -0.083408885 0.037898563 -0.45816126
0001e0 ac 87 92 3e 2e 7d 82 be 05 08 bf be 4b e8 33 3e
       0.28619134 -0.2548613 -0.37310806 0.17569081
0001f0 aa 36 9e be a6 c2 f1 bd 45 70 28 bc ea 07 f6 3e
       -0.3090108 -0.11804704 -0.010280673 0.48052913

net3.1.weight f4 [128]
000000 00 00 80 3f 00 00 80 3f 00 00 80 3f 00 00 80 3f
       1.0 1.0 1.0 1.0
000010 00 00 80 3f 00 00 80 3f 00 00 80 3f 00 00 80 3f
       1.0 1.0 1.0 1.0
000020 00 00 80 3f 00 00 80 3f 00 00 80 3f 00 00 80 3f
       1.0 1.0 1.0 1.0
000030 00 00 80 3f 00 00 80 3f 00 00 80 3f 00 00 80 3f
       1.0 1.0 1.0 1.0
000040 00 00 80 3f 00 00 80 3f 00 00 80 3f 00 00 80 3f
       1.0 1.0 1.0 1.0
000050 00 00 80 3f 00 00 80 3f 00 00 80 3f 00 00 80 3f
       1.0 1.0 1.0 1.0
000060 00 00 80 3f 00 00 80 3f 00 00 80 3f 00 00 80 3f
       1.0 1.0 1.0 1.0
000070 00 00 80 3f 00 00 80 3f 00 00 80 3f 00 00 80 3f
       1.0 1.0 1.0 1.0
000080 00 00 80 3f 00 00 80 3f 00 00 80 3f 00 00 80 3f
       1.0 1.0 1.0 1.0
000090 00 00 80 3f 00 00 80 3f 00 00 80 3f 00 00 80 3f
       1.0 1.0 1.0 1.0
0000a0 00 00 80 3f 00 00 80 3f 00 00 80 3f 00 00 80 3f
       1.0 1.0 1.0 1.0
0000b0 00 00 80 3f 00 00 80 3f 00 00 80 3f 00 00 80 3f
       1.0 1.0 1.0 1.0
0000c0 00 00 80 3f 00 00 80 3f 00 00 80 3f 00 00 80 3f
       1.0 1.0 1.0 1.0
0000d0 00 00 80 3f 00 00 80 3f 00 00 80 3f 00 00 80 3f
       1.0 1.0 1.0 1.0
0000e0 00 00 80 3f 00 00 80 3f 00 00 80 3f 00 00 80 3f
       1.0 1.0 1.0 1.0
0000f0 00 00 80 3f 00 00 80 3f 00 00 80 3f 00 00 80 3f
       1.0 1.0 1.0 1.0
000100 00 00 80 3f 00 00 80 3f 00 00 80 3f 00 00 80 3f
       1.0 1.0 1.0 1.0
000110 00 00 80 3f 00 00 80 3f 00 00 80 3f 00 00 80 3f
       1.0 1.0 1.0 1.0
000120 00 00 80 3f 00 00 80 3f 00 00 80 3f 00 00 80 3f
       1.0 1.0 1.0 1.0
000130 00 00 80 3f 00 00 80 3f 00 00 80 3f 00 00 80 3f
       1.0 1.0 1.0 1.0
000140 00 00 80 3f 00 00 80 3f 00 00 80 3f 00 00 80 3f
       1.0 1.0 1.0 1.0
000150 00 00 80 3f 00 00 80 3f 00 00 80 3f 00 00 80 3f
       1.0 1.0 1.0 1.0
000160 00 00 80 3f 00 00 80 3f 00 00 80 3f 00 00 80 3f
       1.0 1.0 1.0 1.0
000170 00 00 80 3f 00 00 80 3f 00 00 80 3f 00 00 80 3f
       1.0 1.0 1.0 1.0
000180 00 00 80 3f 00 00 80 3f 00 00 80 3f 00 00 80 3f
       1.0 1.0 1.0 1.0
000190 00 00 80 3f 00 00 80 3f 00 00 80 3f 00 00 80 3f
       1.0 1.0 1.0 1.0
0001a0 00 00 80 3f 00 00 80 3f 00 00 80 3f 00 00 80 3f
       1.0 1.0 1.0 1.0
0001b0 00 00 80 3f 00 00 80 3f 00 00 80 3f 00 00 80 3f
       1.0 1.0 1.0 1.0
0001c0 00 00 80 3f 00 00 80 3f 00 00 80 3f 00 00 80 3f
       1.0 1.0 1.0 1.0
0001d0 00 00 80 3f 00 00 80 3f 00 00 80 3f 00 00 80 3f
       1.0 1.0 1.0 1.0
0001e0 00 00 80 3f 00 00 80 3f 00 00 80 3f 00 00 80 3f
       1.0 1.0 1.0 1.0
0001f0 00 00 80 3f 00 00 80 3f 00 00 80 3f 00 00 80 3f
       1.0 1.0 1.0 1.0

net3.1.bias f4 [128]
000000 00 00 00 00 00 00 00 00 00 00 00 00 00 00 00 00
       0.0 0.0 0.0 0.0
000010 00 00 00 00 00 00 00 00 00 00 00 00 00 00 00 00
       0.0 0.0 0.0 0.0
000020 00 00 00 00 00 00 00 00 00 00 00 00 00 00 00 00
       0.0 0.0 0.0 0.0
000030 00 00 00 00 00 00 00 00 00 00 00 00 00 00 00 00
       0.0 0.0 0.0 0.0
000040 00 00 00 00 00 00 00 00 00 00 00 00 00 00 00 00
       0.0 0.0 0.0 0.0
000050 00 00 00 00 00 00 00 00 00 00 00 00 00 00 00 00
       0.0 0.0 0.0 0.0
000060 00 00 00 00 00 00 00 00 00 00 00 00 00 00 00 00
       0.0 0.0 0.0 0.0
000070 00 00 00 00 00 00 00 00 00 00 00 00 00 00 00 00
       0.0 0.0 0.0 0.0
000080 00 00 00 00 00 00 00 00 00 00 00 00 00 00 00 00
       0.0 0.0 0.0 0.0
000090 00 00 00 00 00 00 00 00 00 00 00 00 00 00 00 00
       0.0 0.0 0.0 0.0
0000a0 00 00 00 00 00 00 00 00 00 00 00 00 00 00 00 00
       0.0 0.0 0.0 0.0
0000b0 00 00 00 00 00 00 00 00 00 00 00 00 00 00 00 00
       0.0 0.0 0.0 0.0
0000c0 00 00 00 00 00 00 00 00 00 00 00 00 00 00 00 00
       0.0 0.0 0.0 0.0
0000d0 00 00 00 00 00 00 00 00 00 00 00 00 00 00 00 00
       0.0 0.0 0.0 0.0
0000e0 00 00 00 00 00 00 00 00 00 00 00 00 00 00 00 00
       0.0 0.0 0.0 0.0
0000f0 00 00 00 00 00 00 00 00 00 00 00 00 00 00 00 00
       0.0 0.0 0.0 0.0
000100 00 00 00 00 00 00 00 00 00 00 00 00 00 00 00 00
       0.0 0.0 0.0 0.0
000110 00 00 00 00 00 00 00 00 00 00 00 00 00 00 00 00
       0.0 0.0 0.0 0.0
000120 00 00 00 00 00 00 00 00 00 00 00 00 00 00 00 00
       0.0 0.0 0.0 0.0
000130 00 00 00 00 00 00 00 00 00 00 00 00 00 00 00 00
       0.0 0.0 0.0 0.0
000140 00 00 00 00 00 00 00 00 00 00 00 00 00 00 00 00
       0.0 0.0 0.0 0.0
000150 00 00 00 00 00 00 00 00 00 00 00 00 00 00 00 00
       0.0 0.0 0.0 0.0
000160 00 00 00 00 00 00 00 00 00 00 00 00 00 00 00 00
       0.0 0.0 0.0 0.0
000170 00 00 00 00 00 00 00 00 00 00 00 00 00 00 00 00
       0.0 0.0 0.0 0.0
000180 00 00 00 00 00 00 00 00 00 00 00 00 00 00 00 00
       0.0 0.0 0.0 0.0
000190 00 00 00 00 00 00 00 00 00 00 00 00 00 00 00 00
       0.0 0.0 0.0 0.0
0001a0 00 00 00 00 00 00 00 00 00 00 00 00 00 00 00 00
       0.0 0.0 0.0 0.0
0001b0 00 00 00 00 00 00 00 00 00 00 00 00 00 00 00 00
       0.0 0.0 0.0 0.0
0001c0 00 00 00 00 00 00 00 00 00 00 00 00 00 00 00 00
       0.0 0.0 0.0 0.0
0001d0 00 00 00 00 00 00 00 00 00 00 00 00 00 00 00 00
       0.0 0.0 0.0 0.0
0001e0 00 00 00 00 00 00 00 00 00 00 00 00 00 00 00 00
       0.0 0.0 0.0 0.0
0001f0 00 00 00 00 00 00 00 00 00 00 00 00 00 00 00 00
       0.0 0.0 0.0 0.0

net3.1.running_mean f4 [128]
000000 00 00 00 00 00 00 00 00 00 00 00 00 00 00 00 00
       0.0 0.0 0.0 0.0
000010 00 00 00 00 00 00 00 00 00 00 00 00 00 00 00 00
       0.0 0.0 0.0 0.0
000020 00 00 00 00 00 00 00 00 00 00 00 00 00 00 00 00
       0.0 0.0 0.0 0.0
000030 00 00 00 00 00 00 00 00 00 00 00 00 00 00 00 00
       0.0 0.0 0.0 0.0
000040 00 00 00 00 00 00 00 00 00 00 00 00 00 00 00 00
       0.0 0.0 0.0 0.0
000050 00 00 00 00 00 00 00 00 00 00 00 00 00 00 00 00
       0.0 0.0 0.0 0.0
000060 00 00 00 00 00 00 00 00 00 00 00 00 00 00 00 00
       0.0 0.0 0.0 0.0
000070 00 00 00 00 00 00 00 00 00 00 00 00 00 00 00 00
       0.0 0.0 0.0 0.0
000080 00 00 00 00 00 00 00 00 00 00 00 00 00 00 00 00
       0.0 0.0 0.0 0.0
000090 00 00 00 00 00 00 00 00 00 00 00 00 00 00 00 00
       0.0 0.0 0.0 0.0
0000a0 00 00 00 00 00 00 00 00 00 00 00 00 00 00 00 00
       0.0 0.0 0.0 0.0
0000b0 00 00 00 00 00 00 00 00 00 00 00 00 00 00 00 00
       0.0 0.0 0.0 0.0
0000c0 00 00 00 00 00 00 00 00 00 00 00 00 00 00 00 00
       0.0 0.0 0.0 0.0
0000d0 00 00 00 00 00 00 00 00 00 00 00 00 00 00 00 00
       0.0 0.0 0.0 0.0
0000e0 00 00 00 00 00 00 00 00 00 00 00 00 00 00 00 00
       0.0 0.0 0.0 0.0
0000f0 00 00 00 00 00 00 00 00 00 00 00 00 00 00 00 00
       0.0 0.0 0.0 0.0
000100 00 00 00 00 00 00 00 00 00 00 00 00 00 00 00 00
       0.0 0.0 0.0 0.0
000110 00 00 00 00 00 00 00 00 00 00 00 00 00 00 00 00
       0.0 0.0 0.0 0.0
000120 00 00 00 00 00 00 00 00 00 00 00 00 00 00 00 00
       0.0 0.0 0.0 0.0
000130 00 00 00 00 00 00 00 00 00 00 00 00 00 00 00 00
       0.0 0.0 0.0 0.0
000140 00 00 00 00 00 00 00 00 00 00 00 00 00 00 00 00
       0.0 0.0 0.0 0.0
000150 00 00 00 00 00 00 00 00 00 00 00 00 00 00 00 00
       0.0 0.0 0.0 0.0
000160 00 00 00 00 00 00 00 00 00 00 00 00 00 00 00 00
       0.0 0.0 0.0 0.0
000170 00 00 00 00 00 00 00 00 00 00 00 00 00 00 00 00
       0.0 0.0 0.0 0.0
000180 00 00 00 00 00 00 00 00 00 00 00 00 00 00 00 00
       0.0 0.0 0.0 0.0
000190 00 00 00 00 00 00 00 00 00 00 00 00 00 00 00 00
       0.0 0.0 0.0 0.0
0001a0 00 00 00 00 00 00 00 00 00 00 00 00 00 00 00 00
       0.0 0.0 0.0 0.0
0001b0 00 00 00 00 00 00 00 00 00 00 00 00 00 00 00 00
       0.0 0.0 0.0 0.0
0001c0 00 00 00 00 00 00 00 00 00 00 00 00 00 00 00 00
       0.0 0.0 0.0 0.0
0001d0 00 00 00 00 00 00 00 00 00 00 00 00 00 00 00 00
       0.0 0.0 0.0 0.0
0001e0 00 00 00 00 00 00 00 00 00 00 00 00 00 00 00 00
       0.0 0.0 0.0 0.0
0001f0 00 00 00 00 00 00 00 00 00 00 00 00 00 00 00 00
       0.0 0.0 0.0 0.0

net3.1.running_var f4 [128]
000000 00 00 80 3f 00 00 80 3f 00 00 80 3f 00 00 80 3f
       1.0 1.0 1.0 1.0
000010 00 00 80 3f 00 00 80 3f 00 00 80 3f 00 00 80 3f
       1.0 1.0 1.0 1.0
000020 00 00 80 3f 00 00 80 3f 00 00 80 3f 00 00 80 3f
       1.0 1.0 1.0 1.0
000030 00 00 80 3f 00 00 80 3f 00 00 80 3f 00 00 80 3f
       1.0 1.0 1.0 1.0
000040 00 00 80 3f 00 00 80 3f 00 00 80 3f 00 00 80 3f
       1.0 1.0 1.0 1.0
000050 00 00 80 3f 00 00 80 3f 00 00 80 3f 00 00 80 3f
       1.0 1.0 1.0 1.0
000060 00 00 80 3f 00 00 80 3f 00 00 80 3f 00 00 80 3f
       1.0 1.0 1.0 1.0
000070 00 00 80 3f 00 00 80 3f 00 00 80 3f 00 00 80 3f
       1.0 1.0 1.0 1.0
000080 00 00 80 3f 00 00 80 3f 00 00 80 3f 00 00 80 3f
       1.0 1.0 1.0 1.0
000090 00 00 80 3f 00 00 80 3f 00 00 80 3f 00 00 80 3f
       1.0 1.0 1.0 1.0
0000a0 00 00 80 3f 00 00 80 3f 00 00 80 3f 00 00 80 3f
       1.0 1.0 1.0 1.0
0000b0 00 00 80 3f 00 00 80 3f 00 00 80 3f 00 00 80 3f
       1.0 1.0 1.0 1.0
0000c0 00 00 80 3f 00 00 80 3f 00 00 80 3f 00 00 80 3f
       1.0 1.0 1.0 1.0
0000d0 00 00 80 3f 00 00 80 3f 00 00 80 3f 00 00 80 3f
       1.0 1.0 1.0 1.0
0000e0 00 00 80 3f 00 00 80 3f 00 00 80 3f 00 00 80 3f
       1.0 1.0 1.0 1.0
0000f0 00 00 80 3f 00 00 80 3f 00 00 80 3f 00 00 80 3f
       1.0 1.0 1.0 1.0
000100 00 00 80 3f 00 00 80 3f 00 00 80 3f 00 00 80 3f
       1.0 1.0 1.0 1.0
000110 00 00 80 3f 00 00 80 3f 00 00 80 3f 00 00 80 3f
       1.0 1.0 1.0 1.0
000120 00 00 80 3f 00 00 80 3f 00 00 80 3f 00 00 80 3f
       1.0 1.0 1.0 1.0
000130 00 00 80 3f 00 00 80 3f 00 00 80 3f 00 00 80 3f
       1.0 1.0 1.0 1.0
000140 00 00 80 3f 00 00 80 3f 00 00 80 3f 00 00 80 3f
       1.0 1.0 1.0 1.0
000150 00 00 80 3f 00 00 80 3f 00 00 80 3f 00 00 80 3f
       1.0 1.0 1.0 1.0
000160 00 00 80 3f 00 00 80 3f 00 00 80 3f 00 00 80 3f
       1.0 1.0 1.0 1.0
000170 00 00 80 3f 00 00 80 3f 00 00 80 3f 00 00 80 3f
       1.0 1.0 1.0 1.0
000180 00 00 80 3f 00 00 80 3f 00 00 80 3f 00 00 80 3f
       1.0 1.0 1.0 1.0
000190 00 00 80 3f 00 00 80 3f 00 00 80 3f 00 00 80 3f
       1.0 1.0 1.0 1.0
0001a0 00 00 80 3f 00 00 80 3f 00 00 80 3f 00 00 80 3f
       1.0 1.0 1.0 1.0
0001b0 00 00 80 3f 00 00 80 3f 00 00 80 3f 00 00 80 3f
       1.0 1.0 1.0 1.0
0001c0 00 00 80 3f 00 00 80 3f 00 00 80 3f 00 00 80 3f
       1.0 1.0 1.0 1.0
0001d0 00 00 80 3f 00 00 80 3f 00 00 80 3f 00 00 80 3f
       1.0 1.0 1.0 1.0
0001e0 00 00 80 3f 00 00 80 3f 00 00 80 3f 00 00 80 3f
       1.0 1.0 1.0 1.0
0001f0 00 00 80 3f 00 00 80 3f 00 00 80 3f 00 00 80 3f
       1.0 1.0 1.0 1.0

net3.4.weight f4 [64, 128]
000000 fc da 11 bd 50 23 ac 3c 86 d4 47 bc 91 9c 53 bd
       -0.03560923 0.021012932 -0.012196666 -0.051662985
000010 36 1c 99 bc 87 df 06 bd 11 bc c6 3b 62 44 e5 3c
       -0.01869021 -0.032928016 0.0060648997 0.027986709
000020 18 7f af bd 71 a3 5d bd 08 f6 ae 3d 72 0f 8e bd
       -0.08569163 -0.054110948 0.085430205 -0.0693654
000030 53 e1 8f bc 7a c9 95 3d 00 d1 53 3d ce 6b 9d 3c
       -0.017563498 0.07313819 0.05171299 0.019216444
000040 e0 ed 5d 3d e1 35 81 3c b2 31 33 3d 9c 92 90 3d
       0.054181933 0.015772762 0.043748565 0.070592135
000050 33 ad a8 bc e7 31 ae 3d dd 2b 5d bd a3 80 61 bc
       -0.0205904 0.08505612 -0.05399691 -0.01376358
000060 7b 6f 91 bd 2e 78 c7 bc c3 9b 42 3d cd 64 2e 3d
       -0.07101341 -0.024349298 0.047511827 0.0425766
000070 27 6f 71 bd 1d 8a 82 bd 74 c2 2d 3c 87 36 93 3d
       -0.058943894 -0.06373999 0.010605443 0.07188135
000080 28 67 a3 bc 54 ea d0 bc c3 db 0c 3d 9f 56 b2 3d
       -0.01994665 -0.025502361 0.03438927 0.08707928
000090 1c bd 50 3d b0 44 2b 3d a2 4d 01 3d fe fc 2c 3d
       0.0509616 0.041813552 0.031568177 0.04223346
0000a0 ea 1f e6 3c b4 13 aa bd ae bc e0 3b 23 aa a1 bd
       0.02809139 -0.08304539 0.00685843 -0.07893779
0000b0 4b 12 87 3c 0b 13 4f bd 03 57 30 3d 42 b4 81 3d
       0.016488215 -0.05055527 0.04305173 0.063332096
0000c0 7e 45 66 3d af bc b1 3c 58 f8 9d bd a6 af 68 bc
       0.056218617 0.021696417 -0.077133834 -0.014202034
0000d0 9a 5f 9a 3d cc 11 89 bd ab 07 a4 3c e6 d8 a0 bd
       0.07537766 -0.066928476 0.020023188 -0.0785387
0000e0 1c b6 6a 3d 82 cb 1b 3d df 66 89 bd bb 85 b3 3d
       0.05730258 0.038035877 -0.06709074 0.087657414
0000f0 4b 1e 9a bd 3b 06 0f 3d fa 57 40 bd d1 a8 5c bc
       -0.07525309 0.03491805 -0.0469589 -0.013467983
000100 9e 08 74 bd 6f b4 8e 3d 9d 22 2b 3c cc 47 69 3d
       -0.05957853 0.06968009 0.010445264 0.056953236
000110 49 fa 7e 3d 5a 65 1b bd 45 22 7f bd ab 93 04 3c
       0.06225041 -0.037938453 -0.06228854 0.008091847
000120 37 f5 34 3d e7 33 d3 bc ca bb 16 3c 3f 07 f4 3c
       0.044179168 -0.025781585 0.009200046 0.029788611
000130 20 91 88 3c f4 05 ac bd 20 c2 b0 bd b5 54 1a 3b
       0.016670763 -0.08399573 -0.086307764 0.0023549024
000140 f7 d2 aa 3d 13 62 ab bc bd 9e 83 3d e0 20 ed 3c
       0.083410196 -0.020920789 0.06426761 0.02894634
000150 26 f8 6c 3c 2e af 8f bd a4 74 7a bc 59 26 d9 3b
       0.01446346 -0.07015835 -0.015286598 0.006626886
000160 c9 f9 4a bc e5 cd c3 bc b9 24 1c 3d a1 82 15 bd
       -0.012388655 -0.02390189 0.03812096 -0.03650153
000170 be 59 5e 3d 29 49 87 3d af 61 dc 3c a3 a7 2d bd
       0.054284804 0.06605751 0.026902048 -0.0423962
000180 7b 25 7c bc 65 7a 8c 3d 51 a6 92 bd e0 6c 47 3d
       -0.015389795 0.068592824 -0.071606286 0.048687816
000190 6f 6c 1f 3b c6 0e 26 bc a9 3d ea bb 2d 92 34 3c
       0.0024326106 -0.010135358 -0.0071484637 0.011021179
0001a0 de 10 73 3b 15 82 42 bd 5b e5 9a 3c cd c4 84 3d
       0.003708891 -0.047487337 0.018908193 0.06482849
0001b0 20 8c 05 bd 9e 40 a7 bc 05 60 57 3d f8 0d 1f bd
       -0.032604337 -0.020416554 0.052581806 -0.03883168
0001c0 cc 9b 95 bd 3d 33 7d 3d c4 bd f9 38 80 71 48 bd
       -0.073051065 0.061816443 0.00011908592 -0.048936367
0001d0 a6 48 98 bd 9a 70 aa bd 54 5b 24 bc c7 e8 a5 3d
       -0.074357316 -0.08322258 -0.01003154 0.081010394
0001e0 51 e1 c3 3c 03 07 80 bd fc 9a 36 3d 03 f1 ce 3c
       0.02391115 -0.062513374 0.0445814 0.025261408
0001f0 14 8b 8b 3d 7b 36 6e 3b 75 89 67 3d 67 42 52 3d
       0.068136364 0.003634839 0.056527574 0.051332857
000200 e8 7b 9d 3d 88 30 80 3d 16 08 1e bd 7e 9c 92 3d
       0.07689649 0.062592566 -0.03858193 0.07158755
000210 b1 48 8c 3c 4a be 8f 3d d6 23 c7 bb 5c 45 92 3d
       0.017124506 0.07018717 -0.00607727 0.071421355
000220 20 b1 4b bd c1 b2 09 3d e9 0b 5b bd 6c b5 9f bd
       -0.049729466 0.03361774 -0.053478155 -0.07798275
000230 0e 62 8e 3d d2 ed a0 bd 47 88 da bc d5 35 1b 3d
       0.06952296 -0.078578606 -0.02667631 0.037893135
000240 92 76 57 bb 46 96 02 3d 8f c7 63 3c bc 64 0c 3c
       -0.003287707 0.031881593 0.013902559 0.008568939
000250 3a b5 01 3d d3 28 94 3d 27 de e1 bc d5 54 65 3d
       0.03166697 0.07234349 -0.02757175 0.055989105
000260 23 43 66 3d 48 77 c1 3c 6e e4 a4 3d fd 41 66 bd
       0.05621637 0.023616448 0.08051382 -0.056215275
000270 61 da 10 bd 51 09 76 bd f6 1d f9 3c af b9 91 bd
       -0.035364512 -0.06006748 0.030409794 -0.071154945
000280 da 08 78 3d 82 80 9d bc 9f 9c f9 bb fe ba 77 ba
       0.060555317 -0.019226316 -0.0076175476 -0.0009450166
000290 ec 9f 36 3d 16 9f 31 3d 04 13 02 bd 6b 59 1b 3d
       0.044586107 0.043364607 -0.031756416 0.037927072
0002a0 3f 6b 31 bd 11 a6 29 bd 26 5f 74 bc c6 f3 72 bd
       -0.04331517 -0.04141814 -0.014915263 -0.05931451
0002b0 92 6f 6b 3c 31 86 98 3d 72 e3 f8 bc 38 f2 4e bd
       0.014369862 0.0744747 -0.030381892 -0.050523967
0002c0 5d 35 76 bd 19 7d 38 3d bc 68 94 3d d0 ae e7 bc
       -0.060109485 0.045041177 0.07246539 -0.0282816
0002d0 5e a4 82 3d af 65 5a bd bd a4 a3 3c 3b 98 7e 3d
       0.06379007 -0.05331963 0.019976014 0.062156897
0002e0 01 f3 eb bb 33 6b 92 bc 29 94 db 3a 49 35 b3 3d
       -0.007200599 -0.017873382 0.0016752529 0.08750398
0002f0 3d 00 a1 bd 04 e8 40 bd fe 06 05 3d 8f 14 82 bd
       -0.078613736 -0.047096267 0.03247737 -0.063515775
000300 cd 23 af 3d 23 38 87 3d ae fa 90 3d fa 16 62 3d
       0.0855175 0.06602504 0.07079063 0.055197693
000310 8d b2 a5 3d 98 89 40 bd db 8e 40 3d 79 2a b0 bd
       0.080906965 -0.04700622 0.047011238 -0.08601851
000320 29 da 99 bd 44 90 9e 3d 46 5e 29 bd 0f 04 8a 3d
       -0.07512314 0.0774236 -0.04134967 0.06739055
000330 73 db 08 3d 8d 2a 43 bd 4d 3f 95 bc 4b 8f 0e bd
       0.033412408 -0.047648 -0.01821866 -0.034804624
000340 8e fd 1b 3d d0 3a e1 bc cd 46 83 bd b4 73 b1 bd
       0.038083605 -0.027493864 -0.064099886 -0.08664647
000350 91 88 49 bd c3 65 de bb c4 a6 c6 3b 80 d3 66 b9
       -0.049202505 -0.0067870333 0.0060623605 -0.00022013299
000360 d3 dd 95 3d 6a 95 a3 3d f9 0f 01 bd 71 fa 45 bd
       0.073177 0.07987483 -0.031509373 -0.048334543
000370 16 21 7b 3b 10 10 7b 3d d8 6f 0d 3c bb 3e ae 3d
       0.0038319281 0.061294615 0.008632623 0.08508059
000380 af 5e 99 bd 66 fd 95 bb 74 60 78 3d 00 5c 89 bd
       -0.074887626 -0.0045773266 0.06063886 -0.06707001
000390 c7 e4 3e bd 8a 66 46 bd 10 a3 a6 bd 5c 8f 9e 3d
       -0.046604898 -0.048437633 -0.081365705 0.077421874
0003a0 24 7c 1a bd f1 ce 7e bd ff b2 5b bd eb a5 95 3c
       -0.037716046 -0.062209073 -0.0536375 0.018267592
0003b0 c3 8b b2 bd a8 ec 2d bd 11 af 50 3d 1c 7a 74 bc
       -0.08718064 -0.04246202 0.050948206 -0.014921691
0003c0 e5 c5 47 3d c9 db 7f 3d 0a 9b 01 bb ba 2e bb 3c
       0.04877271 0.062465463 -0.0019776248 0.02284943
0003d0 b8 56 07 bd 4a ad a2 3d 24 d6 94 3d b1 f2 39 bc
       -0.033041686 0.079432085 0.072674066 -0.011349366
0003e0 03 f4 43 bd 78 0f 52 bc 74 90 2c 3c 1b 3f 55 3d
       -0.04784013 -0.012821071 0.010532487 0.052062135
0003f0 0b 1c a4 bd fd 2e 8d bc 12 b6 a5 bd 62 11 fe bc
       -0.08013161 -0.01723432 -0.08091368 -0.031014148

net3.4.bias f4 [64]
000000 54 57 b2 3d 4f 1a 84 bc 09 65 8e 3d 11 13 77 3d
       0.08708063 -0.016125826 0.06952865 0.060320918
000010 d2 bc 24 3d 09 42 c8 bb ae fd a8 bd 2a 3c 8d bd
       0.040219136 -0.0061113876 -0.082515106 -0.06896241
000020 85 1d 8d bd 31 5b 97 3d f9 b9 a0 3d 8d dd 4d 3c
       -0.06890396 0.0739044 0.078479715 0.012565029
000030 33 be 0d bd 6e 62 1e bd 22 62 07 bc 70 8d 6f 3d
       -0.034605216 -0.03866809 -0.008263143 0.058484495
000040 bb c3 81 3d f4 bf 55 3d bb 8f 1c bd ed ae 6f bc
       0.06336161 0.052185014 -0.03822301 -0.014629108
000050 69 c4 a6 3c f9 cc 9c bd f0 48 a1 3c 64 4c 0b 3d
       0.020357328 -0.07656283 0.0196881 0.0340084
000060 b3 42 59 bd 6b b3 95 3b 5e 8b 33 bd 9c 70 7c bc
       -0.053042125 0.0045685074 -0.043834083 -0.015407708
000070 6a c7 9e bb 67 da 32 3b 30 44 ad 3c 20 c7 7b bd
       -0.0048455494 0.0027290822 0.021150678 -0.061469197
000080 4d b8 bb 3c 07 da 91 3d 25 33 ab 3d d9 ca 98 bb
       0.02291503 0.071216635 0.083593644 -0.004662853
000090 b7 c4 90 3d bb f7 0d 3d c7 c5 92 bd df 5a 46 bd
       0.070687704 0.034660082 -0.07166629 -0.048426505
0000a0 93 37 bd 3c 8a 7d 27 3b f1 12 38 3d 1c 49 ad bd
       0.023097789 0.0025557005 0.04493994 -0.0846121
0000b0 4e fd 4f bd 3a 12 14 bd 26 93 af 3d 26 01 07 3d
       -0.05077868 -0.036150195 0.08572988 0.03296008
0000c0 93 7e c5 bb c9 21 0f 3d fb bc 8e 3b 57 a7 31 bd
       -0.0060270517 0.03494433 0.0043560243 -0.04337248
0000d0 7a cb 3e 3d fa 89 41 3d d2 0a 36 bd c3 72 65 3d
       0.04658077 0.047250725 -0.044443913 0.05601765
0000e0 bb c3 45 bd f0 00 c4 3c 3b 65 a2 3d 5f 7d 99 3d
       -0.048282366 0.023926228 0.079294644 0.07494616
0000f0 e8 a9 43 3d ad 54 df bc e6 9e fd ba e4 91 88 3d
       0.047769457 -0.027262056 -0.0019349724 0.066684514

net3.5.weight f4 [64]
000000 00 00 80 3f 00 00 80 3f 00 00 80 3f 00 00 80 3f
       1.0 1.0 1.0 1.0
000010 00 00 80 3f 00 00 80 3f 00 00 80 3f 00 00 80 3f
       1.0 1.0 1.0 1.0
000020 00 00 80 3f 00 00 80 3f 00 00 80 3f 00 00 80 3f
       1.0 1.0 1.0 1.0
000030 00 00 80 3f 00 00 80 3f 00 00 80 3f 00 00 80 3f
       1.0 1.0 1.0 1.0
000040 00 00 80 3f 00 00 80 3f 00 00 80 3f 00 00 80 3f
       1.0 1.0 1.0 1.0
000050 00 00 80 3f 00 00 80 3f 00 00 80 3f 00 00 80 3f
       1.0 1.0 1.0 1.0
000060 00 00 80 3f 00 00 80 3f 00 00 80 3f 00 00 80 3f
       1.0 1.0 1.0 1.0
000070 00 00 80 3f 00 00 80 3f 00 00 80 3f 00 00 80 3f
       1.0 1.0 1.0 1.0
000080 00 00 80 3f 00 00 80 3f 00 00 80 3f 00 00 80 3f
       1.0 1.0 1.0 1.0
000090 00 00 80 3f 00 00 80 3f 00 00 80 3f 00 00 80 3f
       1.0 1.0 1.0 1.0
0000a0 00 00 80 3f 00 00 80 3f 00 00 80 3f 00 00 80 3f
       1.0 1.0 1.0 1.0
0000b0 00 00 80 3f 00 00 80 3f 00 00 80 3f 00 00 80 3f
       1.0 1.0 1.0 1.0
0000c0 00 00 80 3f 00 00 80 3f 00 00 80 3f 00 00 80 3f
       1.0 1.0 1.0 1.0
0000d0 00 00 80 3f 00 00 80 3f 00 00 80 3f 00 00 80 3f
       1.0 1.0 1.0 1.0
0000e0 00 00 80 3f 00 00 80 3f 00 00 80 3f 00 00 80 3f
       1.0 1.0 1.0 1.0
0000f0 00 00 80 3f 00 00 80 3f 00 00 80 3f 00 00 80 3f
       1.0 1.0 1.0 1.0

net3.5.bias f4 [64]
000000 00 00 00 00 00 00 00 00 00 00 00 00 00 00 00 00
       0.0 0.0 0.0 0.0
000010 00 00 00 00 00 00 00 00 00 00 00 00 00 00 00 00
       0.0 0.0 0.0 0.0
000020 00 00 00 00 00 00 00 00 00 00 00 00 00 00 00 00
       0.0 0.0 0.0 0.0
000030 00 00 00 00 00 00 00 00 00 00 00 00 00 00 00 00
       0.0 0.0 0.0 0.0
000040 00 00 00 00 00 00 00 00 00 00 00 00 00 00 00 00
       0.0 0.0 0.0 0.0
000050 00 00 00 00 00 00 00 00 00 00 00 00 00 00 00 00
       0.0 0.0 0.0 0.0
000060 00 00 00 00 00 00 00 00 00 00 00 00 00 00 00 00
       0.0 0.0 0.0 0.0
000070 00 00 00 00 00 00 00 00 00 00 00 00 00 00 00 00
       0.0 0.0 0.0 0.0
000080 00 00 00 00 00 00 00 00 00 00 00 00 00 00 00 00
       0.0 0.0 0.0 0.0
000090 00 00 00 00 00 00 00 00 00 00 00 00 00 00 00 00
       0.0 0.0 0.0 0.0
0000a0 00 00 00 00 00 00 00 00 00 00 00 00 00 00 00 00
       0.0 0.0 0.0 0.0
0000b0 00 00 00 00 00 00 00 00 00 00 00 00 00 00 00 00
       0.0 0.0 0.0 0.0
0000c0 00 00 00 00 00 00 00 00 00 00 00 00 00 00 00 00
       0.0 0.0 0.0 0.0
0000d0 00 00 00 00 00 00 00 00 00 00 00 00 00 00 00 00
       0.0 0.0 0.0 0.0
0000e0 00 00 00 00 00 00 00 00 00 00 00 00 00 00 00 00
       0.0 0.0 0.0 0.0
0000f0 00 00 00 00 00 00 00 00 00 00 00 00 00 00 00 00
       0.0 0.0 0.0 0.0

net3.5.running_mean f4 [64]
000000 00 00 00 00 00 00 00 00 00 00 00 00 00 00 00 00
       0.0 0.0 0.0 0.0
000010 00 00 00 00 00 00 00 00 00 00 00 00 00 00 00 00
       0.0 0.0 0.0 0.0
000020 00 00 00 00 00 00 00 00 00 00 00 00 00 00 00 00
       0.0 0.0 0.0 0.0
000030 00 00 00 00 00 00 00 00 00 00 00 00 00 00 00 00
       0.0 0.0 0.0 0.0
000040 00 00 00 00 00 00 00 00 00 00 00 00 00 00 00 00
       0.0 0.0 0.0 0.0
000050 00 00 00 00 00 00 00 00 00 00 00 00 00 00 00 00
       0.0 0.0 0.0 0.0
000060 00 00 00 00 00 00 00 00 00 00 00 00 00 00 00 00
       0.0 0.0 0.0 0.0
000070 00 00 00 00 00 00 00 00 00 00 00 00 00 00 00 00
       0.0 0.0 0.0 0.0
000080 00 00 00 00 00 00 00 00 00 00 00 00 00 00 00 00
       0.0 0.0 0.0 0.0
000090 00 00 00 00 00 00 00 00 00 00 00 00 00 00 00 00
       0.0 0.0 0.0 0.0
0000a0 00 00 00 00 00 00 00 00 00 00 00 00 00 00 00 00
       0.0 0.0 0.0 0.0
0000b0 00 00 00 00 00 00 00 00 00 00 00 00 00 00 00 00
       0.0 0.0 0.0 0.0
0000c0 00 00 00 00 00 00 00 00 00 00 00 00 00 00 00 00
       0.0 0.0 0.0 0.0
0000d0 00 00 00 00 00 00 00 00 00 00 00 00 00 00 00 00
       0.0 0.0 0.0 0.0
0000e0 00 00 00 00 00 00 00 00 00 00 00 00 00 00 00 00
       0.0 0.0 0.0 0.0
0000f0 00 00 00 00 00 00 00 00 00 00 00 00 00 00 00 00
       0.0 0.0 0.0 0.0

net3.5.running_var f4 [64]
000000 00 00 80 3f 00 00 80 3f 00 00 80 3f 00 00 80 3f
       1.0 1.0 1.0 1.0
000010 00 00 80 3f 00 00 80 3f 00 00 80 3f 00 00 80 3f
       1.0 1.0 1.0 1.0
000020 00 00 80 3f 00 00 80 3f 00 00 80 3f 00 00 80 3f
       1.0 1.0 1.0 1.0
000030 00 00 80 3f 00 00 80 3f 00 00 80 3f 00 00 80 3f
       1.0 1.0 1.0 1.0
000040 00 00 80 3f 00 00 80 3f 00 00 80 3f 00 00 80 3f
       1.0 1.0 1.0 1.0
000050 00 00 80 3f 00 00 80 3f 00 00 80 3f 00 00 80 3f
       1.0 1.0 1.0 1.0
000060 00 00 80 3f 00 00 80 3f 00 00 80 3f 00 00 80 3f
       1.0 1.0 1.0 1.0
000070 00 00 80 3f 00 00 80 3f 00 00 80 3f 00 00 80 3f
       1.0 1.0 1.0 1.0
000080 00 00 80 3f 00 00 80 3f 00 00 80 3f 00 00 80 3f
       1.0 1.0 1.0 1.0
000090 00 00 80 3f 00 00 80 3f 00 00 80 3f 00 00 80 3f
       1.0 1.0 1.0 1.0
0000a0 00 00 80 3f 00 00 80 3f 00 00 80 3f 00 00 80 3f
       1.0 1.0 1.0 1.0
0000b0 00 00 80 3f 00 00 80 3f 00 00 80 3f 00 00 80 3f
       1.0 1.0 1.0 1.0
0000c0 00 00 80 3f 00 00 80 3f 00 00 80 3f 00 00 80 3f
       1.0 1.0 1.0 1.0
0000d0 00 00 80 3f 00 00 80 3f 00 00 80 3f 00 00 80 3f
       1.0 1.0 1.0 1.0
0000e0 00 00 80 3f 00 00 80 3f 00 00 80 3f 00 00 80 3f
       1.0 1.0 1.0 1.0
0000f0 00 00 80 3f 00 00 80 3f 00 00 80 3f 00 00 80 3f
       1.0 1.0 1.0 1.0
