IR_model.pth (torch, 71900 bytes, 26 tensors)

net.0.weight f4 [64, 7]
000000 e6 2c 63 3e 70 ed 8c 3d 22 12 12 3e 54 40 90 be
       0.22185096 0.06881225 0.1426473 -0.28174078
000010 c5 4b 61 be 50 c3 9c 3c a7 33 b1 3e 75 0b 89 3e
       -0.2200156 0.019136101 0.3460972 0.26766554
000020 90 00 1d be 45 dc c0 3e 63 4a b6 be c9 44 8c 3e
       -0.15332246 0.37668052 -0.35603628 0.2739623
000030 06 b6 22 be 75 7c 95 3e f8 20 8f 3d 69 81 97 3e
       -0.15889749 0.29196516 0.0698871 0.2959092
000040 53 ad 9d be 54 81 ae 3d 9f 54 b1 3e 90 07 b7 bd
       -0.30796298 0.08520761 0.34634873 -0.08936989
000050 00 2d 4d bb d2 19 4a be 20 e4 bd be ff 3a 82 3e
       -0.003130734 -0.19736412 -0.37088108 0.25435635
000060 6e c2 5c 3e b8 03 bc bd 98 df 86 be 40 6f 8e bb
       0.21558544 -0.09180397 -0.26342463 -0.004346758
000070 c7 03 9a be f2 c1 94 be ce ba 11 be ed 91 ae 3e
       -0.30081007 -0.2905422 -0.14231417 0.34095708
000080 55 08 81 3e 51 4e a1 3e 1c 5f 87 be 05 ec 76 be
       0.2520167 0.31505063 -0.2643975 -0.24113472
000090 1f 01 53 be dc fa cd bd 8d ad aa 3e 6d c1 92 be
       -0.20605896 -0.10057613 0.33335534 -0.28663197
0000a0 ed 3b bc 3e e7 4c 44 be 7a d4 4e be d8 98 4a bd
       0.3676447 -0.19169961 -0.20198241 -0.04946217
0000b0 6c 36 d8 bd c8 8d 54 3d 71 11 80 3e 5e 5f 72 be
       -0.10557255 0.051893026 0.25013307 -0.23669192
0000c0 10 c0 92 be f4 9a 02 be 50 d8 34 bd 04 39 b9 bd
       -0.28662157 -0.12754422 -0.044151604 -0.09044078
0000d0 a3 86 ae be 4a b7 c0 be 7b 79 b3 be 59 38 9d 3e
       -0.34087095 -0.37639838 -0.3505362 0.30707052
0000e0 61 a9 b4 3e 5b 5b ad 3e a2 f0 3d 3e 90 5c fe 3c
       0.35285476 0.3385876 0.18548825 0.031049997
0000f0 fc 4d 9c 3d a0 a6 3d 3d 00 56 b2 bd 17 93 9e 3e
       0.07632062 0.046301484 -0.087078094 0.30971596
000100 84 e7 e8 bd 30 15 e8 bc a2 b5 72 3e 6c 41 fa 3d
       -0.11372283 -0.028330415 0.237021 0.122195095
000110 80 04 9e 3d 53 4f ab 3e 80 63 57 bc c0 11 ed bc
       0.07715702 0.33458957 -0.013146281 -0.028939128
000120 8e 97 0c 3e 06 84 74 3e 59 10 6d be 82 1b 4e 3e
       0.13729689 0.23878488 -0.23150767 0.20127681
000130 45 06 b8 3e 58 2e 9c be f9 af 09 be c3 c3 99 3e
       0.35942283 -0.30504107 -0.13446034 0.30032167
000140 90 83 85 bd 84 08 f6 3d 8c b3 b5 bd 44 af c3 bd
       -0.06519234 0.12013343 -0.088721365 -0.09554914
000150 92 b7 91 be da ea 25 3e 26 3e 14 3e be 72 1f 3e
       -0.28460366 0.1620287 0.14476833 0.15571114
000160 20 d5 76 3d 4b c2 81 be be 53 58 3e 40 d4 dc 3b
       0.060261846 -0.25343546 0.21125695 0.0067391694
000170 26 3d 70 be 84 47 40 be 6e 9a 3f 3e 31 bf 69 be
       -0.23460826 -0.18777281 0.18711254 -0.2282684
000180 43 18 6e be d4 3b d0 3d 80 ff 25 3b 6d 27 bb 3e
       -0.23251443 0.10167661 0.0025329292 0.36553517
000190 d6 37 24 3e b0 ba 16 3d 48 e6 03 be 95 85 99 3e
       0.16036925 0.036799133 -0.12880814 0.29984728
0001a0 c2 d2 25 3e 8c 28 29 be 86 70 90 be a9 af b5 3e
       0.16193679 -0.16519374 -0.2821085 0.3548558
0001b0 00 88 fa ba c1 23 be 3e 11 f4 99 be f0 f2 62 be
       -0.0019114017 0.37136653 -0.3006902 -0.22162986
0001c0 32 8e 5c 3e 88 bb a1 bd 0b 6b 27 be b0 51 63 bd
       0.21538618 -0.07897097 -0.16349427 -0.055497825
0001d0 b0 bb 8c bd 20 16 45 bc 34 19 40 be 3d de b2 3e
       -0.06871736 -0.012029201 -0.18759614 0.3493518
0001e0 3c d1 e6 3d 50 65 b7 be 66 81 1a 3e 76 da aa be
       0.11270377 -0.35819483 0.15088424 -0.33369797
0001f0 92 92 88 be f9 08 19 be ff ae 90 3e 95 81 bb be
       -0.26674324 -0.14944829 0.2825851 -0.366223
000200 ed 4c aa be 28 8f 64 bd 10 4b a6 bd 58 dc cc bd
       -0.33261815 -0.055800587 -0.08119786 -0.10002965
000210 d9 a9 53 be 5a c5 0b be 64 5a 91 3d f1 61 b7 3e
       -0.2067026 -0.13649502 0.07097319 0.3581691
000220 b4 2d dc 3d e0 4a 87 bc c7 f8 05 be 74 bc 84 3d
       0.10750905 -0.016515195 -0.13083182 0.06481257
000230 20 85 94 3d e1 1e 87 3e e4 13 32 be 80 f8 f9 bc
       0.07251954 0.26390746 -0.173904 -0.030514002
000240 0c fc e1 bd 64 1a 72 be e4 9e 6c be de d1 42 3e
       -0.11034402 -0.2364288 -0.23107487 0.1902537
000250 7a af 5b 3e 39 33 26 be 21 55 9c be b2 91 7b 3e
       0.21453658 -0.16230477 -0.30533698 0.24567297
000260 10 d5 53 bd d2 c3 4d be dd 95 a1 3e 54 74 99 3d
       -0.051716864 -0.20094231 0.3155965 0.07492891
000270 07 13 a8 be 78 44 d9 bd f6 6c 93 be da 41 6f 3e
       -0.32827017 -0.106087625 -0.28794068 0.23364964
000280 c0 96 42 3c 10 db c6 3d d8 ca 10 bd ff 9a 10 be
       0.011876762 0.097097516 -0.035349697 -0.14121626
000290 60 6d 7b bd 9d aa 96 3e f4 fb cf bd d6 4e 37 3e
       -0.061383605 0.29427043 -0.10155478 0.17901167
0002a0 54 d1 de 3d 3e 76 3b be ad 34 b5 3e ae 78 0c 3e
       0.1087977 -0.18306825 0.3539175 0.1371791
0002b0 fc 6a 08 be aa 1c 10 3e cc 46 b1 be f2 f5 8c be
       -0.13322061 0.14073434 -0.34624326 -0.2753139
0002c0 e8 fd 4c 3d 08 69 5e 3d d6 bd 30 3e 6b 9d 19 be
       0.05004683 0.054299384 0.17259917 -0.15001456
0002d0 a6 d2 7f be 48 6b a7 3d 20 9b 60 bd f6 0a 3a 3e
       -0.249827 0.08174759 -0.05483544 0.18168244
0002e0 32 04 75 be 0a 48 48 be f8 ba ea bd e6 75 7a 3e
       -0.23927382 -0.1955873 -0.11461443 0.24459037
0002f0 90 0c 21 3d 5f 14 80 be a1 ab 3c be aa 6e 0a 3e
       0.03931862 -0.25015542 -0.18424846 0.13518777
000300 a0 81 80 bd f3 14 07 be 89 c0 34 be 15 f9 71 be
       -0.06274724 -0.13191585 -0.17651571 -0.23630174
000310 98 c2 15 bd 5f f9 a6 3e 80 6d 81 3c 52 1b 5f 3e
       -0.036562532 0.3261213 0.015799284 0.21787766
000320 54 32 da 3d 5c 53 f8 3d 43 d8 0c be 8e c5 91 be
       0.106541306 0.121252745 -0.13754372 -0.28471035
000330 30 ac ac bc a4 01 8f be 38 50 3e 3d 10 fc b4 3d
       -0.0210782 -0.2793094 0.04646322 0.088371396
000340 0c 47 51 be 1b 0e 5f be 97 ef 18 be f1 e7 b5 3e
       -0.20437258 -0.21782725 -0.14935146 0.3552852
000350 a3 92 b0 be 0d b7 44 be c0 fc f2 bb 8b 68 90 3e
       -0.34486875 -0.19210453 -0.007415384 0.2820476
000360 8e db 35 3e d6 93 7a be 9a 94 9f be 5c 27 8f be
       0.17759535 -0.24470457 -0.31168061 -0.27959716
000370 b6 d8 7e 3e 40 07 01 3d 39 7d a5 3e 1e b6 bc be
       0.24887356 0.031501055 0.323221 -0.36857694
000380 8b 7f aa be ff e1 95 3e 6a 3f a9 be 9e bd 8c be
       -0.33300433 0.29273984 -0.33056194 -0.27488416
000390 09 40 a1 3e b9 fa 77 be a7 71 9a 3e f4 f8 c4 bd
       0.31494167 -0.24216737 0.30164835 -0.096177965
0003a0 3e 04 43 3e 8f 4e 8d 3e b0 9f ad be 8a 0a 11 3e
       0.19044587 0.27598998 -0.33910894 0.14164177
0003b0 cf 7f 8c be 31 e6 28 be 36 c1 0e 3e d1 2c bd be
       -0.2744126 -0.16494061 0.13940892 -0.36948255
0003c0 e8 70 a7 bd 64 10 27 be 78 93 83 bd 34 64 f1 bd
       -0.08175832 -0.16314846 -0.06424612 -0.1178669
0003d0 20 61 f1 bc fb 11 a4 be 11 c0 87 3e d0 64 be bd
       -0.029465258 -0.32044968 0.26513723 -0.09296572
0003e0 12 58 25 3e 7b f2 ad be 70 ce e2 bc 98 b9 c0 bd
       0.16146877 -0.3397406 -0.027686328 -0.09410399
0003f0 97 47 c1 3e cf 7b 8f 3e ab 72 87 be c2 9b 3c be
       0.3774993 0.28024146 -0.26454672 -0.18418792

net.0.bias f4 [64]
000000 3a c9 21 be 86 48 64 3e 92 0b 5b 3e d5 64 3e be
       -0.15799418 0.2229329 0.21391132 -0.18593152
000010 80 3c 4d 3c 9e d9 ae be e3 bf 31 be c6 8a 6f be
       0.012526631 -0.34150404 -0.17358355 -0.23392782
000020 d4 19 82 be 4e 79 09 3e 3b 7c 9f be 95 5e 92 3e
       -0.2541033 0.1342518 -0.31149468 0.28587785
000030 2e c5 4c 3e 66 df 29 be 0c 95 d7 bd c0 2d 4e 3c
       0.19997093 -0.16589126 -0.10526475 0.01258415
000040 e0 ce 3f bc b0 50 84 3c c4 b3 e4 3d a1 5d 96 3e
       -0.011707038 0.016151756 0.111671 0.29368308
000050 a7 c2 41 be 6c b2 55 be d0 37 89 be 2b c4 95 3e
       -0.1892191 -0.20868844 -0.26800394 0.29251227
000060 f1 af 24 be 90 92 ef 3c c7 07 a9 be 4e fd 4d 3e
       -0.16082741 0.029244691 -0.33013746 0.2011616
000070 b7 70 bc be 72 60 28 3e a2 51 4f 3e c2 53 55 3e
       -0.36804745 0.16443041 0.20245984 0.20832732
000080 0c 1e fe 3d d6 be a7 be 73 22 83 3e 86 e4 49 3e
       0.12408075 -0.32762784 0.2561222 0.19716081
000090 74 5e 28 be 19 bd 83 3e ec c2 d0 3d 69 cc b1 3e
       -0.16442281 0.25730208 0.101934284 0.34726265
0000a0 6f 76 90 3e 20 b4 d7 3c bd c5 9e be e0 67 3c bc
       0.28215358 0.026331007 -0.31010237 -0.011499375
0000b0 70 b8 6e be f1 0e 98 3e ac 2e bc 3d e0 e0 da bd
       -0.23312545 0.296989 0.091885895 -0.10687423
0000c0 0a 22 1b 3e a0 f4 95 bc c8 f1 56 be 16 72 3e 3e
       0.15149704 -0.018305123 -0.2099067 0.18598208
0000d0 ac 61 c8 bd 0a ba b8 be 03 66 1e be 5f 1e 97 be
       -0.097842544 -0.36079437 -0.15468602 -0.2951536
0000e0 43 14 ba be 91 b3 2c be 49 08 86 3e b0 c6 9d be
       -0.36343583 -0.16865374 0.26178196 -0.3081565
0000f0 75 e1 41 be f6 93 11 3e 98 91 7e 3d d7 15 bb be
       -0.18933661 0.14216599 0.062150568 -0.365401

net.2.weight f4 [32, 64]
000000 a6 3a 96 bd d6 c8 90 3d 3c 74 de 3d 88 35 10 3d
       -0.07335405 0.070695564 0.10862014 0.0352073
000010 7c be 8c bd bc f5 9f bd f0 d9 f9 3d f6 9a 91 3d
       -0.068722695 -0.07810542 0.121997714 0.071096346
000020 a0 1b 1e 3c 30 b5 f1 3d 64 73 38 bd 54 f0 ae 3d
       0.009650141 0.11802137 -0.04503192 0.08541933
000030 08 9c b1 bc 2a cb c5 3d 92 d2 89 bd 08 a8 c4 bc
       -0.021680847 0.09657891 -0.06729616 -0.024005905
000040 74 99 c4 3d 80 95 a9 bc 20 11 89 bd 94 0f af 3d
       0.09599581 -0.02070117 -0.066927195 0.08547893
000050 f8 d3 d5 3c 4c 86 e6 bd de 29 eb bd c2 98 d3 bd
       0.026102051 -0.11256084 -0.11482595 -0.103318706
000060 f0 0a 51 bc b4 3f 74 3d 68 a7 6d bd 68 3e f0 bc
       -0.012758955 0.059631065 -0.05802098 -0.029326633
000070 f0 55 79 bc c0 fe 80 3b a8 b8 b2 3d 90 83 12 bc
       -0.015218243 0.0039366186 0.08726627 -0.0089425
000080 44 8e 32 bd 50 37 59 3d 0c 78 1e bd 98 b3 81 bd
       -0.043592706 0.053031266 -0.038688704 -0.06333083
000090 b8 94 e5 bd 64 b2 ae 3d 54 29 8d bd 78 b9 dc bd
       -0.112100065 0.08530119 -0.06892648 -0.10777563
0000a0 d8 ac ba bd 90 cc e9 3d 84 cf 79 3d a2 a6 b2 bd
       -0.091149986 0.1141597 0.060988918 -0.08723189
0000b0 50 f0 cd bc ce 8a 84 3d c0 2d 3a 3c 78 3a 72 bd
       -0.025139004 0.064717874 0.011363447 -0.05913779
0000c0 74 f9 0f bd 5a 39 ea 3d 38 a4 d6 bd 36 bc f2 bd
       -0.035150006 0.1143672 -0.10480541 -0.11852305
0000d0 ac 53 41 bd d4 e0 83 3d f8 95 39 3d 9c 0c 6f bd
       -0.047198936 0.06439367 0.045309037 -0.058361635
0000e0 16 38 9f 3d 0c 6a 50 3d 70 74 9a 3d 78 67 7b bd
       0.077743694 0.050882384 0.0754174 -0.061377972
0000f0 44 c9 a6 3d e4 b4 f9 3d 44 9c 34 3d a4 c8 93 bd
       0.08143857 0.12192705 0.04409434 -0.072160035
000100 2c 37 b7 bd 5a 46 dd 3d 42 a3 93 bd 80 cc b0 3a
       -0.0894607 0.10804434 -0.07208873 0.001348868
000110 a8 5f d0 bc 80 3e b0 bd 54 e5 78 3d 66 84 af bd
       -0.025436237 -0.08605671 0.06076558 -0.08570175
000120 1c 78 6b 3d a8 41 fd 3d 2c be 88 3d f4 d6 f2 bd
       0.057487592 0.123660386 0.066768974 -0.11857405
000130 40 90 9e bc 6a 24 e7 bd 40 10 12 3d 84 6b 09 3d
       -0.019355893 -0.11286242 0.03566003 0.0335498
000140 44 0d b3 3d 00 c2 b6 3b 4c fb c8 3d 10 3a 23 3c
       0.087427646 0.005577326 0.09813556 0.009962574
000150 98 33 c2 bc 00 54 5a ba 52 85 89 bd 96 4c f0 bd
       -0.023706242 -0.0008328557 -0.06714882 -0.117333576
000160 96 1e e7 bd 44 4e 22 3d a0 ec ad bd 56 78 df 3d
       -0.11285131 0.03962542 -0.08492398 0.10911624
000170 a6 d4 a9 bd a0 33 f5 bc f8 10 87 3c 8a d4 dd bd
       -0.082925126 -0.029931843 0.016487584 -0.10831554
000180 70 c4 69 bc dc 74 87 bd 38 96 72 bd 00 a0 ce ba
       -0.014268026 -0.06614086 -0.05922529 -0.0015764236
000190 a2 7d a8 3d a4 3a 35 bd f0 c1 44 bd 20 e1 e8 3c
       0.082270876 -0.044245377 -0.048036516 0.02842766
0001a0 00 c6 a9 b9 cc 44 9c bd d0 95 a4 3d b2 a5 89 3d
       -0.00032381713 -0.076303095 0.08036387 0.06721057
0001b0 fa de f1 3d e8 bc b9 3d b0 a5 6e bc 18 87 e6 3d
       0.118101075 0.09069234 -0.01456587 0.11256236
0001c0 04 e6 a3 3d f8 4e 69 3d 38 6b a9 bc 00 68 fa bc
       0.080028564 0.056960076 -0.020681009 -0.03056717
0001d0 9e 7d a3 3d 78 e6 1f bd dc 6c 28 bd da 39 a1 bd
       0.07982944 -0.03903815 -0.04111944 -0.078723624
0001e0 d0 6a 7c bc ee b2 fc 3d 80 40 80 bc 84 61 2e bd
       -0.015406325 0.12338816 -0.015655756 -0.042573467
0001f0 80 a0 55 3c 9c 69 aa 3d 40 1b 70 bc c8 0c a5 bd
       0.013038754 0.08320925 -0.014654934 -0.080590785
000200 d8 a3 e7 3c 58 e4 b8 bd 38 d3 8f 3c d0 0a da 3d
       0.028276369 -0.09027928 0.017556772 0.106465936
000210 70 3a d0 bc ec 76 e7 3d 8a 82 a1 bd b0 f6 b6 3c
       -0.02541849 0.113019794 -0.078862265 0.022334427
000220 f6 fa e3 3d e8 98 bf 3d 58 e9 ba 3d ec 50 f3 bd
       0.111318514 0.093553364 0.09126538 -0.11880669
000230 b0 50 3c bc c4 c3 80 3d 90 a2 2c 3c da da e1 3d
       -0.011493847 0.06287339 0.010536805 0.11028071
000240 f8 0e 27 3d 1e 26 8c 3d 90 07 54 bc 48 b7 29 bd
       0.04078576 0.06843208 -0.012941256 -0.041434556
000250 7e bf 9b 3d 52 a1 bd bd 30 37 5a bc 9e 83 cb bd
       0.076048836 -0.09259285 -0.013318822 -0.09937213
000260 48 52 f2 3d 98 99 1e 3d 60 69 e3 3d 0c f6 6a bd
       0.118321 0.038720697 0.11104083 -0.057363555
000270 5c 63 bc bd f0 a3 45 3c bc 2c 4f 3d e2 89 f0 3d
       -0.09198639 0.0120630115 0.05057977 0.11745049
000280 d6 ed 8e bd 74 00 bd 3d c4 fb 82 3d d8 48 a5 3c
       -0.06978957 0.09228602 0.06395677 0.020176336
000290 10 3a e4 bd 08 d7 ae 3c 5a b4 8d bd c6 36 eb bd
       -0.11143887 0.02134277 -0.06919165 -0.114850566
0002a0 0a 18 c8 3d 8c f6 70 3d c0 66 7a 3c f6 a1 fb bd
       0.0977021 0.058828875 0.015283287 -0.12286751
0002b0 cc 9e 26 bd 08 67 81 3d 66 25 85 3d 26 38 e3 bd
       -0.040678784 0.0631848 0.06501274 -0.11094694
0002c0 e8 62 72 3d 98 c8 81 3c 14 be 73 bd a8 9f fb bc
       0.059176356 0.01584272 -0.059507445 -0.030715778
0002d0 d0 86 e6 3c e0 da c8 3d 1c f5 82 3d e0 31 b6 bb
       0.028140455 0.09807372 0.06394407 -0.005560145
0002e0 b4 3a 56 bd 50 d5 65 bc 10 8d fc bd a0 92 f9 3d
       -0.052302077 -0.014027908 -0.12331593 0.121861696
0002f0 16 6a c2 bd 6e 88 92 bd 80 9a d7 ba 3c a6 5a 3d
       -0.094928905 -0.07154928 -0.0016449243 0.05338119
000300 f2 73 f9 3d a8 c7 e8 3c e8 65 5d bd e0 b8 37 3c
       0.12180318 0.028415516 -0.054052263 0.011213511
000310 42 1a c7 3d b6 20 bb bd a4 02 78 3d b8 88 98 3d
       0.09721805 -0.091370985 0.060549393 0.07447952
000320 ac a9 00 bd bc 14 e5 3d 62 db 96 3d ca 8b a9 3d
       -0.03141181 0.111855954 0.07366063 0.08278616
000330 64 49 f5 3d b8 d3 fc 3c f8 95 ab bc 22 45 d7 3d
       0.11976889 0.030862674 -0.020945534 0.10511233
000340 80 44 d7 3c 84 dc 99 3d 20 a3 be 3b c4 23 38 3d
       0.02627778 0.07512763 0.005817786 0.044955984
000350 e6 db d1 bd 38 0a d3 3d 20 2f e9 bd 9c 14 e0 bd
       -0.102470204 0.103046834 -0.113859415 -0.10941431
000360 90 45 54 3c 94 69 13 bd 50 33 e5 bc b0 e5 40 3c
       0.012956038 -0.03598936 -0.02797857 0.011773512
000370 98 98 d4 3d 78 4b a3 3d ce 99 e8 bd d4 d2 ea 3d
       0.103806674 0.07973379 -0.11357461 0.114659935
000380 64 76 4d 3d 6c 87 a4 3d e0 d2 6a bd c0 4b 14 3d
       0.050161734 0.08033642 -0.057330012 0.036205053
000390 d0 29 c0 3d d0 58 f9 bd c0 87 c9 bd b8 4f 8b bd
       0.09382975 -0.12175143 -0.098403454 -0.068023145
0003a0 44 c2 ae 3d e0 83 ef bb 88 b3 b3 bc 24 7b 28 bd
       0.08533147 -0.007309422 -0.021936193 -0.04113306
0003b0 e8 e2 0c bd f8 65 18 3d 3c 5b 1d bd fc 34 e0 bd
       -0.034396082 0.03720662 -0.038417086 -0.10947606
0003c0 ee 6e b8 bd a6 0f 92 bd b2 5e fb bd f0 3f 4a bd
       -0.09005533 -0.07131891 -0.12273921 -0.04937738
0003d0 0c fd 97 bd 00 2c 4c bb 30 f4 59 3c a2 9b 86 bd
       -0.07421312 -0.0031154156 0.013302848 -0.06572653
0003e0 3c 43 14 3d e8 5e f6 bd a0 78 bb bc 68 7c f6 bd
       0.036196932 -0.12029821 -0.022884667 -0.12035447
0003f0 76 d7 b5 bd a0 91 50 bd 60 34 ea 3b b0 5c a8 bc
       -0.088789865 -0.05092013 0.007147357 -0.02055201

net.2.bias f4 [32]
000000 b8 75 a1 3c 92 8d 86 bd d0 62 ad 3d 32 72 97 bd
       0.019709453 -0.06569971 0.084661126 -0.07394828
000010 00 fe d4 3b 00 38 3c 3d a8 81 b8 3c 80 40 cc 3b
       0.0065000057 0.045951843 0.022522762 0.006233275
000020 60 5e d2 bb 22 10 ea bd b4 2a f4 3d 90 97 95 bd
       -0.006419942 -0.11428858 0.119222075 -0.07304299
000030 90 3d 43 3d 48 11 66 bd c0 82 55 bd 44 55 7d bd
       0.047666132 -0.056168824 -0.052126646 -0.061848894
000040 fe e0 d5 3d 00 68 78 3b c4 3e e7 3d 58 67 c8 3d
       0.104433045 0.0037903786 0.112912685 0.09785336
000050 40 20 71 3c 0c 84 2d bd 54 11 0f 3d 1c 17 ac 3d
       0.014717162 -0.042362258 0.034928635 0.08402845
000060 4c 3d 03 bd 5e 7d 81 bd 50 ef 90 bd 3c 51 c1 3d
       -0.03204088 -0.0632274 -0.07076895 0.09439322
000070 66 7e b7 3d 0c b1 de 3d 28 4a b4 bc 76 8f bf 3d
       0.089596555 0.10873613 -0.022008017 0.09353535

net.4.weight f4 [1, 32]
000000 da b1 a2 3d 33 b5 34 be 3a 20 2b be 54 49 50 bd
       0.07944079 -0.17647247 -0.16711512 -0.05085118
000010 fc af 12 bd 64 17 0e 3d 22 65 92 3d 72 ba 15 be
       -0.035812363 0.034690276 0.07148196 -0.14621904
000020 83 f3 2a be 34 99 2c bd 78 a3 df bc 3e ea d0 bd
       -0.16694455 -0.042138293 -0.027299628 -0.10200928
000030 08 8a dd 3c 32 45 f3 3d 72 58 19 be 97 fd 07 be
       0.027043357 0.11878432 -0.14975145 -0.1328033
000040 43 bb 18 3e 22 3a fd 3d c0 c4 39 bd b7 44 c9 bd
       0.14915185 0.123646036 -0.04535365 -0.098275594
000050 d8 f2 31 bd a4 59 b6 bd c8 e5 c5 bd 78 2b b7 3c
       -0.043444484 -0.08903816 -0.09662968 0.022359595
000060 60 51 eb bd b0 10 35 3d e1 cc 02 3e de 82 98 bd
       -0.114901304 0.044205368 0.12773468 -0.07446836
000070 f1 3e 33 be 37 f2 26 3e c1 ca 1e 3e 82 13 e9 3d
       -0.17504479 0.16303335 0.15507032 0.11380674

net3.0.weight f4 [128, 7]
000000 b8 0a df 3e 07 a9 8c be 48 94 2b 3e 79 a5 c8 3d
       0.43562865 -0.27472708 0.16755784 0.097971864
000010 0b bf 04 3e a2 30 02 be 54 c0 86 3e 03 9e ee 3e
       0.12963502 -0.12713864 0.2631861 0.46604928
000020 e5 22 19 3e 37 10 ec 3d c9 7c 94 be ff 51 98 3d
       0.14954717 0.1152653 -0.29001454 0.074375145
000030 ae 0f 45 be 6f 7e 91 3e 43 de 4b 3e 63 6a 88 be
       -0.19244263 0.28416774 0.19909005 -0.26643667
000040 d5 e2 8f be 92 15 5e 3e 94 d2 d6 3d 7b c0 8d be
       -0.28102747 0.21687916 0.10489383 -0.27685913
000050 b3 e3 7c 3e 64 ee a8 be 8e 30 c2 bd 71 92 0d 3e
       0.24696235 -0.32994378 -0.09481917 0.13825394
000060 eb 57 ad 3e 76 12 45 3e 17 ae db 3d 6c 92 45 be
       0.3385614 0.19245324 0.107265644 -0.19294137
000070 f1 ed 1e 3e 3e 22 9a bd b4 cc 9c bd c7 60 d9 3b
       0.15520455 -0.075260624 -0.076562315 0.006633851
000080 52 fd 13 3e 98 51 5f 3d 9b 0d 9b be 18 52 99 3d
       0.14452103 0.054521173 -0.30283818 0.07486361
000090 61 11 3b 3d 6c ac e8 be 6e a1 1e 3e 61 63 85 bd
       0.04567087 -0.45444047 0.15491268 -0.06513096
0000a0 88 1a 71 bd e2 aa e3 3d 10 81 99 3e 9a 30 dd be
       -0.058863193 0.11116578 0.2998128 -0.43201143
0000b0 50 dc 74 3e 9e f3 17 be cf 99 5a 3e 6b 7e 57 3d
       0.23912168 -0.14839026 0.21347736 0.052610796
0000c0 ef d5 9d 3d 00 3e bf 3d f0 3d 0c 3d d6 29 29 3e
       0.0770682 0.093379974 0.034238756 0.16519865
0000d0 8a 44 d3 be 34 cc 04 be bb 8f 5d be 9b 01 b7 bc
       -0.4126323 -0.12968522 -0.2163686 -0.022339633
0000e0 8e dc ef bd c9 2b ad 3e 0c 19 16 3e 2e 97 7f be
       -0.11711989 0.33822468 0.14657992 -0.24960014
0000f0 0a a4 b0 3e 37 b5 06 be d2 da 85 3e 65 47 bb be
       0.34500152 -0.13155065 0.2614351 -0.36577907
000100 74 12 f3 be 6f 56 23 3e 9d c1 2c be b0 e0 49 3d
       -0.47475016 0.1595094 -0.16870733 0.049286544
000110 10 52 b8 3d 0f 12 34 3e e8 bb 84 3e 78 00 d4 be
       0.09000027 0.17585014 0.2592461 -0.41406608
000120 13 a2 a9 3e 8a c5 df 3d e2 01 87 3e 0c f7 59 3e
       0.33131465 0.109263495 0.26368624 0.21285647
000130 3d d5 4a 3e ee 3c a9 bd 4e c9 bc 3d 50 94 96 3e
       0.19807906 -0.082635745 0.09218083 0.29410028
000140 d7 b0 6d 3e 66 04 3c 3d c1 8a 4b 3e bd af 64 be
       0.2321199 0.045902632 0.19877149 -0.22332664
000150 2d 8d e7 3d 82 e9 88 be 68 69 e2 bc b0 14 20 be
       0.11306224 -0.26740652 -0.027638152 -0.15632892
000160 4a 90 0e 3e 70 5a b6 3e ce 7d 31 3e a8 3d 80 be
       0.1392223 0.35615873 0.17333147 -0.2504704
000170 b0 ba c9 be 39 32 a8 be cc d2 13 be c0 e0 f7 3d
       -0.39400244 -0.32850817 -0.14435881 0.121034145
000180 bf 7c 04 be 44 3d b2 be 00 9f 63 3c 6a 7b d1 be
       -0.12938212 -0.34812367 0.013892889 -0.4091447
000190 1c 1a 85 3e 8b c6 ae bc 56 25 04 3d e9 95 89 be
       0.25996482 -0.021334907 0.03226217 -0.26872185
0001a0 a6 d0 4b 3e b0 7d 8c bc 80 0d 44 be dc 3c 86 be
       0.19903812 -0.017149776 -0.19145775 -0.26218307
0001b0 78 a6 d2 3d a9 43 af be c9 ac 46 be 24 35 31 be
       0.10285658 -0.34231308 -0.1940185 -0.17305428
0001c0 89 24 9a 3d c0 73 0b be 78 78 44 3e 84 da e5 3e
       0.075265 -0.13618374 0.1918658 0.44893277
0001d0 9f 48 68 be 6a 07 38 be 88 ac 99 3e 66 74 ef 3d
       -0.22683953 -0.17971578 0.30014443 0.11692123
0001e0 63 f0 bc be de 61 03 be 1f 2c 56 3c 7e c3 91 3e
       -0.3690215 -0.12830302 0.013072043 0.2846946
0001f0 bc 2c b5 3e f0 9c 48 be 55 a2 a0 3e b6 fa be be
       0.35385692 -0.19591117 0.3137385 -0.37300652
000200 3d fe 4e be 4b cd 73 bd f0 af d9 bd 2f 39 aa be
       -0.20214172 -0.059521955 -0.106292605 -0.33246753
000210 8c 25 3b 3e b7 d2 c9 3e b1 b5 72 be 2d 0d 77 be
       0.18276042 0.39418575 -0.23702122 -0.2412612
000220 ae 59 ad 3e ae 60 5f be 2d 32 9c 3e 56 45 55 be
       0.33857483 -0.21814224 0.3050703 -0.20827231
000230 22 e3 4e be 5c 75 54 be d1 d7 46 3e f5 e5 49 3e
       -0.20203832 -0.20747894 0.19418265 0.19716628
000240 7b 85 a3 be fd 0e 74 3e 20 14 36 3e 74 b1 ea 3e
       -0.31937775 0.23833843 0.17781115 0.4583851
000250 4b 6c de 3d 8c af 53 be 3b 25 b5 be af 16 60 3e
       0.10860499 -0.20672435 -0.35379967 0.21883653
000260 a3 41 5c be 66 90 87 3e 1f b2 84 3d ac a5 7c be
       -0.21509413 0.26477355 0.064792864 -0.24672574
000270 c8 50 0d be 9b 75 7e 3e 35 9a 61 be 8c 64 67 3e
       -0.13800347 0.2484955 -0.22031482 0.2259695
000280 0d a7 e7 be 51 06 d8 3e ce 83 c8 bd 16 79 0d be
       -0.45244637 0.4219232 -0.09790765 -0.13815722
000290 de d8 50 3e f9 45 76 be 33 0f 9d 3e 27 41 84 3e
       0.20395228 -0.2405013 0.3067566 0.25830957
0002a0 14 10 8c 3e 5d 5b 71 3e 27 b0 46 3c 60 34 ab be
       0.27356017 0.23570009 0.012126959 -0.33438396
0002b0 da 18 7c be 1c a0 68 be ae b4 a7 3c 0c 3c 9f 3e
       -0.24618855 -0.22717327 0.020471897 0.311005
0002c0 09 2d ee 3d ef a7 7e be 9b c4 20 be 8a 37 ae be
       0.116296835 -0.24868749 -0.15699999 -0.34026748
0002d0 fc 6b 1d be ce 35 39 be 23 59 6b be 2d a4 ce 3e
       -0.15373224 -0.18086931 -0.22983222 0.4035963
0002e0 37 b3 22 3e 46 fa df bd 9b b7 7e 3e e4 32 40 3e
       0.15888678 -0.10936408 0.24874727 0.18769413
0002f0 f3 ef a2 bc 19 21 bf 3e 53 90 70 3e 61 94 2a 3e
       -0.019889807 0.3732994 0.23492555 0.16658165
000300 7a 65 57 bc 71 14 b2 be 5f 63 9e 3e f9 5c 16 be
       -0.0131467525 -0.3478122 0.3093519 -0.14683904
000310 9a e2 56 bd ec 11 01 be ce ca 8f be a9 68 2c 3e
       -0.052462198 -0.12604493 -0.28084415 0.168368
000320 b1 ca 21 3e 81 c1 2a be b5 c2 a7 be 86 11 81 3e
       0.15799977 -0.16675378 -0.32765737 0.25208682
000330 80 a4 af be 88 29 73 3e e7 56 b0 3e b9 ba 1d be
       -0.3430519 0.23746312 0.344413 -0.1540326
000340 ae a9 a8 be 99 e6 83 be 03 65 17 3e d3 c9 34 be
       -0.32941955 -0.2576187 0.14784627 -0.17655115
000350 f7 6d 4c 3e 1f 6f 91 3d 54 50 b6 bc d0 c9 94 3d
       0.19963823 0.07101273 -0.0222551 0.07265055
000360 5f fa 66 be fd 0f f1 3c 06 89 e3 bd 2f 00 6b 3e
       -0.22556446 0.02942657 -0.111101195 0.22949289
000370 cd e4 d1 3d 1f 96 04 be 87 3c 3d be d2 8e 71 be
       0.102487184 -0.12947892 -0.1848012 -0.23589638
000380 c3 c2 1f 3c af 91 d6 3e ef eb 17 be ed 66 9e be
       0.009751025 0.41908023 -0.14836095 -0.309379
000390 bd c8 d7 3d 4d f1 7c bd 39 fd b9 3e 85 79 9e 3d
       0.10536335 -0.06175356 0.36326006 0.07738022
0003a0 c8 1b c0 3d 45 5c c5 3d 77 33 3d bd cd 6d a8 3e
       0.09380299 0.0963674 -0.04619166 0.3289627
0003b0 4a 6c e8 3d 27 2c 18 3e af 42 2c bd fb be 8f 3c
       0.113487795 0.14860593 -0.042055782 0.017547121
0003c0 d4 10 bb 3d 65 4f 18 be 03 d6 95 3e 17 bf 75 3e
       0.09134069 -0.14874037 0.2926484 0.23998676
0003d0 1f 01 37 3e 04 2d b1 bc 06 6e b3 be a1 04 95 3e
       0.17871521 -0.02162791 -0.3504488 0.29105094
0003e0 fb 0c d7 bc b9 31 b2 3c 48 10 2c be 6e cd a1 be
       -0.026251307 0.021752225 -0.16803086 -0.31602043
0003f0 70 b6 c4 3d b5 e9 cd 3e 4a 0e 28 3e de 42 27 be
       0.0960511 0.40217367 0.16411701 -0.16334102

net3.0.bias f4 [128]
000000 c1 e0 a0 3d 68 f5 a2 be cb f8 3c 3e 69 09 d0 be
       0.078553684 -0.31827855 0.18454282 -0.4063218
000010 e1 dd e2 bc 34 ae ce bd 49 a4 29 be c4 70 74 bd
       -0.02769369 -0.1009182 -0.16566576 -0.059677854
000020 71 f5 a0 3e 77 a4 c4 3e 7c 0b 89 3e 69 02 05 be
       0.31437257 0.38406727 0.26766574 -0.129892
000030 ab dc 6e 3e be 13 8e be 6b 85 ae 3e 7f b5 91 3e
       0.23326366 -0.27749437 0.34086165 0.28458783
000040 ba 4e a6 3e ba 0b a3 3e dd ba 55 3e 7d 11 cf 3d
       0.3248194 0.31844884 0.20872064 0.101107575
000050 9c 8a 84 bd 4a 6a 3e 3e 13 6b 66 be 16 d1 88 3e
       -0.0647175 0.18595234 -0.22501783 0.2672202
000060 cf 5e 4b be 1e 90 50 bd 88 38 d1 3d 26 92 12 be
       -0.19860385 -0.05091869 0.102158606 -0.14313564
000070 09 57 e0 be 33 bf 2e 3e 9c 1c 90 3e ae c1 2b bb
       -0.43816403 0.17065124 0.28146827 -0.0026207971
000080 2f fa 10 3e 21 e0 03 be e5 76 05 be 16 a4 7a bd
       0.14157937 -0.12878467 -0.13033636 -0.06119164
000090 cb 2e cc 3e a2 6c 84 3e f2 44 3f be 60 cc 18 be
       0.3987945 0.2586413 -0.18678644 -0.14921713
0000a0 e5 21 31 be aa 4a df be 29 0e 2e be d8 60 d9 3e
       -0.17298086 -0.43611652 -0.16997589 0.42456698
0000b0 31 ab 4c be 60 c7 ee bd 51 e5 d0 bc 2a 7c 0c be
       -0.1998718 -0.116591215 -0.025499972 -0.1371924
0000c0 35 f5 8f 3d 56 bc a0 be 13 e1 87 3e de f7 8c 3e
       0.070291914 -0.3139369 0.26538906 0.27532858
0000d0 9b d3 a4 3e b2 06 2d 3b 38 f5 4f 3d 74 e8 a3 3e
       0.32192692 0.0026401696 0.05077097 0.32013285
0000e0 08 74 72 3e 5c c6 06 3e 30 cd 63 3e aa ed 73 3e
       0.23677075 0.13161606 0.22246242 0.2382113
0000f0 e7 22 31 be af 91 cc 3e 9a 1f b3 be a7 a0 9e be
       -0.1729847 0.39954898 -0.34985048 -0.30981943
000100 73 b7 b1 be c6 61 69 3e ba cb 9d bd 3d 62 ac be
       -0.34710273 0.22791204 -0.077048734 -0.336687
000110 f2 64 c6 bd db a2 a4 bb 0d 01 87 3c 1b af 93 be
       -0.096872225 -0.0050242967 0.016479993 -0.28844532
000120 c4 da 2d be bc 53 33 3d 41 8b 58 be 86 3d 3a 3e
       -0.16977984 0.043781027 -0.21146871 0.18187532
000130 14 f4 3d 3e 11 be bb be 10 87 54 3e 88 f7 5d be
       0.1855014 -0.36668447 0.20754647 -0.21676457
000140 ca 5d 14 be d3 cf 9d be e5 cc 55 3e 6a 67 d0 be
       -0.14488903 -0.3082262 0.20878942 -0.407039
000150 ef d9 c2 be ef 13 06 be 30 66 5c be c7 28 a7 be
       -0.38056895 -0.13093542 -0.21523356 -0.32648298
000160 1f ea 39 3e a3 73 95 3e 28 26 3a be fa 4c 9f bd
       0.18155716 0.29189786 -0.18178618 -0.07778354
000170 51 a4 b0 be 82 7f a0 3d fc 09 32 be 7b 3d 4f be
       -0.34500363 0.0783682 -0.17386621 -0.20238297
000180 25 35 b3 3e 11 4f 9f be ea 4d 9b 3e 7f c0 7e be
       0.35001484 -0.3111501 0.3033288 -0.24878119
000190 ea b7 ab 3e 87 db 8f be bf 65 65 3e bb 92 42 be
       0.33538753 -0.28097174 0.22402094 -0.19001286
0001a0 0b 7c 34 3e 9f 2f 44 be 32 81 70 3e 40 e6 aa 3e
       0.17625444 -0.19158791 0.23486784 0.33378792
0001b0 7d 7d 81 bd ff c0 aa 3e c6 d4 7e 3e 91 fb 37 3e
       -0.06322763 0.3335037 0.24885854 0.17967059
0001c0 2d df 96 3c 3f 78 ca 3d e5 84 72 bd ba 26 a7 be
       0.018416965 0.09886216 -0.05920877 -0.32646734
0001d0 80 98 50 bd cd cc 81 3e 31 f8 ac 3e 30 82 71 3e
       -0.050926685 0.25351563 0.33783105 0.23584819
0001e0 d1 8d 28 be 5d 09 1b 3e ef 6b b8 be 5b 88 24 be
       -0.16460349 0.1514029 -0.36019847 -0.1606764
0001f0 ec 24 d9 3c e4 7b ef be 23 5b 35 3e 24 68 a9 3d
       0.026506864 -0.4677421 0.17710547 0.082718164

net3.1.weight f4 [128]
000000 27 37 7d 3f 93 e1 5f 3f c9 e9 84 3f f4 87 82 3f
       0.9891228 0.87453574 1.0383846 1.019774
000010 69 19 81 3f 38 da 8b 3f ca 10 7b 3f b5 ac 6c 3f
       1.008588 1.092597 0.98072493 0.9245103
000020 92 74 8a 3f 83 93 79 3f c2 38 7f 3f 9f c6 88 3f
       1.0816824 0.9749071 0.9969598 1.0685614
000030 d6 2f 7b 3f f4 f7 6d 3f c5 da 82 3f 14 36 8a 3f
       0.98119867 0.9295647 1.0223013 1.0797753
000040 ae ec 87 3f 46 7d 6f 3f f8 a9 83 3f 48 f1 5b 3f
       1.0619104 0.9355053 1.0286245 0.8591504
000050 7c 4b 81 3f 4a 06 89 3f bf c4 93 3f 30 cb 6d 3f
       1.0101161 1.0705044 1.1544417 0.92888165
000060 b4 c3 70 3f 8e 46 81 3f dd f9 83 3f 2f e1 84 3f
       0.9404862 1.0099657 1.0310627 1.038122
000070 87 07 81 3f 33 42 91 3f 8e 59 7a 3f de 78 83 3f
       1.0080422 1.1348327 0.977929 1.0271261
000080 7c e6 6b 3f b3 e1 6b 3f ad f8 6c 3f 5c 70 76 3f
       0.92148566 0.92141265 0.9256695 0.96265197
000090 84 76 94 3f fe d4 78 3f 6d c4 85 3f 1b cc 89 3f
       1.1598668 0.972 1.0450569 1.0765413
0000a0 35 a2 74 3f 2b 64 83 3f 35 9c 77 3f d8 03 88 3f
       0.9556001 1.0264944 0.9672273 1.0626173
0000b0 b7 7e 81 3f b1 70 82 3f 64 c7 6a 3f 5b 51 89 3f
       1.0116795 1.0190641 0.91710496 1.0727953
0000c0 71 b6 7e 3f 93 35 83 3f f5 5f 7d 3f c0 ee 71 3f
       0.99497133 1.0250725 0.98974544 0.9450493
0000d0 ac 8f 84 3f 73 84 82 3f 99 9b 7e 3f 38 3e 88 3f
       1.0356345 1.019667 0.99456173 1.0643988
0000e0 12 30 82 3f f4 33 8b 3f 6c 9d 79 3f 97 13 70 3f
       1.017092 1.087523 0.9750583 0.9377989
0000f0 a7 bc 94 3f d4 0d 81 3f 05 cb 70 3f 72 e7 7b 3f
       1.1620072 1.0082345 0.94059783 0.9840003
000100 25 69 6b 3f 1f dc 8e 3f a4 f0 7a 3f d9 93 91 3f
       0.9195731 1.1160926 0.9802344 1.1373245
000110 0b 41 89 3f 7e 18 75 3f 95 1c 72 3f df 59 6e 3f
       1.0722975 0.957405 0.9457486 0.9310588
000120 6e f7 79 3f 05 54 6f 3f 15 a5 64 3f 76 c1 70 3f
       0.9764317 0.9348758 0.89314395 0.940452
000130 eb 69 72 3f e8 35 88 3f d6 8f 85 3f 36 eb 6e 3f
       0.9469287 1.0641451 1.043452 0.93327653
000140 c7 e9 74 3f f4 4f 7e 3f 41 54 77 3f 89 6c 8d 3f
       0.95669216 0.9934075 0.96612936 1.1048747
000150 a4 70 83 3f 5a df 7a 3f 21 f9 80 3f 84 24 7d 3f
       1.026875 0.9799706 1.0076028 0.98883843
000160 f7 ff 57 3f a5 e7 7d 3f 23 57 51 3f 93 f3 84 3f
       0.84374946 0.99181587 0.81773585 1.0386833
000170 6a b8 8c 3f ce 74 6c 3f f3 d5 8d 3f 9f 4b 6e 3f
       1.0993779 0.9236573 1.1080917 0.9308414
000180 af 84 7a 3f a9 81 83 3f f0 e0 7c 3f 0b 6b 8b 3f
       0.9785871 1.0273944 0.9878073 1.0892042
000190 7d 70 7e 3f 70 81 8d 3f c7 60 85 3f 08 c2 7e 3f
       0.99390393 1.1055126 1.0420159 0.9951482
0001a0 8d cb 80 3f cc ee 8e 3f b6 6f 7a 3f 8f c9 87 3f
       1.0062119 1.1166625 0.9782671 1.0608386
0001b0 aa e3 82 3f 5c ed 8c 3f 2f 83 7a 3f f8 3a 87 3f
       1.0225728 1.1009936 0.9785642 1.0564871
0001c0 43 7b 78 3f d1 3d 7c 3f b5 16 8d 3f a7 7d 73 3f
       0.9706308 0.98531824 1.1022555 0.95113605
0001d0 10 21 84 3f 91 50 80 3f df e3 76 3f 48 3c 65 3f
       1.032259 1.0024587 0.96441454 0.89545107
0001e0 4f b1 72 3f 42 44 89 3f 19 16 70 3f 03 a2 85 3f
       0.948018 1.0723956 0.9378372 1.0440067
0001f0 64 07 82 3f e1 c7 81 3f 4e 14 81 3f e7 7f 75 3f
       1.0158505 1.0139123 1.0084321 0.9589829

net3.1.bias f4 [128]
000000 69 96 32 bd c1 d3 08 be 51 96 86 3d 65 e1 93 3d
       -0.043600474 -0.13362028 0.06571639 0.07220725
000010 36 ed 0e 3d 4e a9 aa bd e7 d9 60 bb a3 23 fc bd
       0.03489419 -0.083330736 -0.0034309567 -0.12311485
000020 c6 05 2b bd 2f 19 f7 bd 95 db 12 3d 52 c4 f8 bc
       -0.041753553 -0.1206535 0.03585394 -0.03036705
000030 58 fa 27 bd 14 5d d6 bd 98 16 6f bd 48 be cb bc
       -0.04101023 -0.10466972 -0.058371156 -0.024871007
000040 50 0c 05 bc 15 de ca bd 6d 9d cc 3d 86 ea e1 bd
       -0.008120611 -0.0990564 0.09990964 -0.1103106
000050 04 a4 eb 3d 31 60 75 3d d5 46 31 3e 94 15 9d bc
       0.11505893 0.05990619 0.17312177 -0.019175328
000060 a5 32 23 bd 5b 58 f3 bb fe f6 1b bd f9 63 67 3c
       -0.03984322 -0.0074263043 -0.038077347 0.014122956
000070 3f 26 88 bd d1 13 9c 3d 72 84 d3 bd d4 a3 ed bc
       -0.0664792 0.07620967 -0.10327996 -0.029008783
000080 bc cc d0 bd 47 a1 13 be 4c 16 3b bd 38 7a c9 bc
       -0.101953 -0.14416991 -0.04567556 -0.024594411
000090 92 84 7c bd ec 53 70 bd ad c7 b9 3d 75 e8 c7 bd
       -0.061649866 -0.058673784 0.09071288 -0.097611345
0000a0 ab f9 98 3b 87 39 b1 bb 2b 12 b4 3c 97 33 a1 3c
       0.0046684346 -0.005408469 0.02198132 0.01967792
0000b0 f4 41 68 3d ca 42 1c bd 9c ba 10 bd 4a 01 b7 3d
       0.056703523 -0.038149633 -0.035334215 0.08935793
0000c0 da 95 33 bc b9 0d 10 bd 46 55 7a bd a5 ae 82 bd
       -0.01096102 -0.035169337 -0.06111648 -0.06380967
0000d0 7c b6 e3 3d ac 9d 01 bc fa 64 09 3c 26 b8 a3 bc
       0.111187905 -0.007911127 0.008385891 -0.01998527
0000e0 7e d8 0f 3d 72 82 ad 3d ce be ce bb 6c f2 fa bd
       0.035118572 0.08472146 -0.006309367 -0.122532696
0000f0 5f 41 00 3d f8 41 28 3d 93 ae 87 bd 96 0c 22 bc
       0.031312343 0.041078538 -0.06625094 -0.009890696
000100 4f 20 98 bd c8 01 0e 3e ef ef 3e 3d be 2f 40 bd
       -0.074280374 0.13867867 0.046615537 -0.04692053
000110 0d 43 15 3e 66 9f d0 bd cd b2 9a 3b 54 41 4f bd
       0.14576359 -0.10186653 0.0047210217 -0.05059941
000120 af 1d 89 3d 5b 80 97 bd 9c 85 f2 bd d5 f8 2c be
       0.06695115 -0.07397529 -0.1184189 -0.16891797
000130 4a 8e f2 bc f4 3c 1c 3c a1 c3 83 bb 12 b5 c2 bc
       -0.029608864 0.009536017 -0.0040211235 -0.023767982
000140 24 f4 27 3d 85 6d f4 bb db 3f 58 bc 0a d4 76 3d
       0.041004315 -0.007459345 -0.013198818 0.06026081
000150 f7 4c 06 3d 7c 57 e9 bc 92 6f 00 bd b0 09 d4 bd
       0.032788243 -0.028484099 -0.0313564 -0.1035341
000160 56 7a 46 be 2d 08 a4 3d 66 32 f0 bd a6 20 c1 bc
       -0.19382605 0.08009372 -0.11728363 -0.023575138
000170 36 a2 38 bd 1d 51 77 bd 07 d7 d7 3d d6 2b 23 be
       -0.04507657 -0.06038009 0.1053906 -0.15934691
000180 48 f4 e5 bb 50 3a da 3d bf 5f 3e bd 1b 1d b6 3d
       -0.007017646 0.106556535 -0.04647803 0.0889227
000190 1c 48 d2 bc e5 a9 cf 3d da de 56 3c 26 1d 44 bd
       -0.02566915 0.10139827 0.013114655 -0.04787936
0001a0 00 cd 0f be f6 a4 31 3d 67 8d fc 3d 71 b9 07 3e
       -0.14043045 0.04337021 0.12331658 0.13254334
0001b0 64 aa 29 3d d4 ec 03 3d d1 82 61 3c c2 f9 15 3d
       0.041422263 0.03220828 0.013764099 0.03661514
0001c0 6d 7c a4 bd 41 78 28 bd cb 14 b2 bc f5 7b a3 3d
       -0.08031545 -0.041130308 -0.02173843 0.07982627
0001d0 2d 2f 2a 3b 65 ed b7 bd 04 14 cd b9 e4 b2 a3 bd
       0.002596806 -0.08980826 -0.0003911556 -0.07993105
0001e0 63 8e 8e 3d 94 64 d8 bb 6c d5 33 bd 02 44 c8 3c
       0.06960752 -0.0066037867 -0.043904707 0.024446491
0001f0 a1 7b bb bd 77 68 03 3d 4b 3d 09 bd 56 34 da 3c
       -0.0915444 0.032082047 -0.03350572 0.026636284

net3.1.running_mean f4 [128]
000000 86 5c b3 3d 17 42 b6 be c2 34 61 3e 60 bf b3 be
       0.08757882 -0.35597298 0.21992782 -0.35106945
000010 74 bd 36 3c 08 d5 d5 bd b9 06 1e be d6 88 92 bd
       0.011153568 -0.10441023 -0.15432252 -0.07155006
000020 49 5d 95 3e 8d 12 c2 3e 14 6e 89 3e ca 0f e5 bd
       0.29172733 0.37904778 0.26841795 -0.11184652
000030 0b 8e 40 3e 30 5b 4e be 34 bc be 3e 2a ea a1 3e
       0.18804185 -0.20151973 0.37252963 0.31623966
000040 a6 75 a9 3e 65 80 ae 3e d6 12 6a 3e 05 1a d5 3d
       0.3309757 0.34082332 0.22858748 0.104053535
000050 3d 6d d8 bd 9f 1f 24 3e 18 61 42 be b0 c1 4d 3e
       -0.105677105 0.16027687 -0.18982351 0.20093417
000060 70 b7 6b be 06 68 6a bd d1 72 9c 3d 89 16 4f be
       -0.23019195 -0.05722811 0.07639087 -0.2022344
000070 1c b5 b5 be bc d5 84 3e b7 74 9e 3e 06 b4 3c 3d
       -0.35489738 0.25944316 0.3094842 0.04607012
000080 44 a3 95 3d 84 6c 13 be 85 83 28 be a9 8c 4c 3c
       0.07306531 -0.14396864 -0.1645642 0.012484708
000090 06 16 c1 3e 57 0d a0 3e 65 ce 51 be a5 4e 49 be
       0.37712115 0.31260177 -0.2048889 -0.19658907
0000a0 6b 7f 4d be ca 34 d8 be 0b 68 ea bd f3 04 f6 3e
       -0.20068137 -0.42227775 -0.11445626 0.4805065
0000b0 4e dd 78 be a3 fe ca bd 52 98 d7 3c 06 f4 cf bd
       -0.24303171 -0.09911849 0.02631775 -0.10153966
0000c0 79 15 88 3d 7d 2c c6 be ef 24 41 3e 82 7d b7 3e
       0.066447206 -0.38705817 0.18861745 0.35837942
0000d0 b9 2c b0 3e d4 d7 58 3d 5f a8 49 3c 55 e0 ad 3e
       0.3440912 0.052940205 0.012308209 0.33960214
0000e0 3c d1 3f 3e de a4 73 3c a4 3e 1d 3e e8 a3 4d 3e
       0.1873216 0.01487085 0.15355927 0.20082057
0000f0 40 9d 18 be ee c7 d3 3e 7a 41 d7 be 33 d4 ac be
       -0.14903736 0.41363472 -0.42042142 -0.33755645
000100 08 03 8d be 86 26 51 3e 5c 68 91 bd 16 7a b3 be
       -0.27541375 0.20424852 -0.07099983 -0.35054082
000110 ed 5c 4a bd 4d 1b c1 bc 41 c0 63 bc d5 c9 ab be
       -0.049405027 -0.023572588 -0.013900817 -0.33552423
000120 90 2e 17 be 2c b6 37 bd 44 a6 6d be 41 c0 43 3e
       -0.14763856 -0.044851467 -0.23207957 0.19116308
000130 65 d7 f2 3d 7f 65 bf be ac 56 42 3e a9 61 68 be
       0.118574895 -0.37382123 0.18978375 -0.22693504
000140 3b 93 03 be 25 44 d7 be 4b 5d 62 3e 26 83 dc be
       -0.12849133 -0.42044178 0.22105901 -0.43068808
000150 d3 ba b7 be c5 20 69 bd f7 de 86 be f6 76 9f be
       -0.35884723 -0.056916017 -0.26341984 -0.31145447
000160 38 c0 5f 3e b7 3e 87 3e b3 b0 1f be 42 f6 c4 bd
       0.2185067 0.26415035 -0.15594749 -0.096172825
000170 e2 a9 bb be 07 1b d6 3d c5 80 31 be c8 74 61 be
       -0.36653048 0.10454374 -0.17334278 -0.22017205
000180 86 99 98 3e 0b 43 a8 be 7b 50 a1 3e e3 f2 91 be
       0.2980463 -0.3286365 0.31506714 -0.2850562
000190 12 15 94 3e 44 68 82 be 70 12 63 3e b4 cd e3 bd
       0.28922325 -0.25470173 0.22175002 -0.11123219
0001a0 c8 ec da 3d 7b 12 4d be b9 10 5a 3e 3a ad b2 3e
       0.10689694 -0.20026581 0.21295442 0.34897786
0001b0 14 46 df bd ef 01 a9 3e 9c c6 16 3e e0 bb 38 3e
       -0.10902038 0.33009288 0.14724201 0.18040419
0001c0 04 93 d1 3d 28 78 fa 3d ea ff d5 bd 1c 51 5a be
       0.10233119 0.12229949 -0.10449202 -0.21320003
0001d0 9c 22 b5 bd 1a b0 7e 3e f8 f6 9b 3e 56 77 58 3e
       -0.08844492 0.24871865 0.3046186 0.21139273
0001e0 80 31 15 be d2 7f 74 3d 3e 58 c4 be 78 29 52 be
       -0.14569664 0.05969221 -0.38348573 -0.20523632
0001f0 dd 14 e9 bc d3 85 ef be c4 52 75 3e d6 91 99 bc
       -0.028452331 -0.46781787 0.23957354 -0.018746298

net3.1.running_var f4 [128]
000000 47 05 bd 3e 0b ed cd 3e 9b ab cf 3e de 5a 12 3f
       0.3691809 0.40219912 0.40560612 0.571699
000010 af 7a 06 3e a3 be 74 3e 45 57 bc 3e 87 b6 cc 3e
       0.13132738 0.23900847 0.3678533 0.39983007
000020 8d 50 41 3e f4 ad de 3e a2 c5 36 3f c3 f8 2f 3e
       0.18878384 0.4349209 0.71395314 0.17184739
000030 ff f2 b3 3e 5c cf 13 3f 72 d2 7f 3e 80 cf 80 3e
       0.3514633 0.5773828 0.24982622 0.2515831
000040 a9 35 20 3e f5 6c c4 3e b3 d4 9f 3e 7d 5a b9 3e
       0.1564547 0.38364378 0.31216964 0.3620185
000050 0b 6c 9d 3e aa 47 be 3e 4a d4 2f 3e 6f 37 0b 3f
       0.30746493 0.3716405 0.17170826 0.5438146
000060 e9 66 2d 3f 3f 90 1a 3f cc 08 8e 3e e7 de 0b 3f
       0.67735153 0.6037635 0.27741086 0.54636997
000070 61 d5 10 3f 42 3c 27 3f 63 81 e8 3d 16 dc 5e 3e
       0.5657559 0.6532632 0.113528036 0.21763644
000080 20 39 e5 3e fa 53 02 3e 47 6d 45 3e c3 b1 d8 3e
       0.44770145 0.12727347 0.19279967 0.4232312
000090 24 cb 4f 3e 21 43 43 3f b3 b9 18 3f 2e a3 53 3e
       0.20292336 0.76274306 0.59658355 0.20667717
0000a0 8b 7e 94 3e ee b1 30 3e 43 10 dd 3e 73 5e e1 3e
       0.29002795 0.17255375 0.4317647 0.44017372
0000b0 65 4f b7 3e 84 46 dc 3e b9 47 3e 3e b3 b6 c5 3e
       0.3580276 0.4302255 0.18582048 0.3861595
0000c0 9a 38 20 3e 40 df 82 3f 39 e2 04 3f ae 90 38 3f
       0.15646592 1.022438 0.5190769 0.72095764
0000d0 d8 e4 a3 3e 9c 59 57 3e af 9e a5 3e ab 40 f0 3d
       0.3201053 0.21030277 0.32347628 0.117310844
0000e0 13 83 01 3f fa 21 80 3f d6 b3 f9 3e 06 e9 95 3e
       0.5059063 1.0010369 0.48770016 0.29279345
0000f0 fe 16 99 3e a6 cb 9e 3e c6 f0 e6 3e 0f b3 c4 3e
       0.29900354 0.31014746 0.4510557 0.3841786
000100 d3 2b e3 3e 2f ef d6 3e e9 ee 00 3f 77 a4 f7 3d
       0.44369373 0.41979358 0.5036455 0.12091916
000110 c5 7e a2 3e bb 24 5e 3e d0 f4 0a 3e 9e 34 e6 3e
       0.31737342 0.21693699 0.13569951 0.4496202
000120 2d 35 1e 3e b7 10 47 3f 4f a0 f2 3e b9 05 cb 3e
       0.15449972 0.7775988 0.4738793 0.39652804
000130 6c 61 0e 3f 14 4a a3 3e c1 87 8b 3e 0d 71 68 3e
       0.55617404 0.31892455 0.2725201 0.22699375
000140 fc f0 81 3e d5 8b 5c 3f cb eb 97 3e 60 0d 02 3f
       0.2537917 0.86150867 0.29672083 0.5080166
000150 8f 2d 71 3e 44 b7 c9 3e 7f 4b ac 3e bd 02 17 3e
       0.23552535 0.39397633 0.3365135 0.14747138
000160 59 dd 2f 3e 48 60 a9 3e bb 2b 90 3e 3e 9a 2e 3e
       0.17174281 0.3308127 0.28158364 0.17051026
000170 58 a3 13 3e 79 18 ad 3e 48 a4 f0 3d 01 a3 dc 3e
       0.1441778 0.33807734 0.11750084 0.43093112
000180 68 b7 e3 3e 60 4b 8b 3e 32 fc 0a 3e 73 3a 8d 3e
       0.44475865 0.27205944 0.13572767 0.27583656
000190 ae 61 f2 3e 63 f8 4c 3e 17 de 7f 3e 27 e9 f8 3e
       0.4734015 0.20016627 0.24987064 0.4861538
0001a0 5d db b7 3e 91 04 ae 3e 1b b4 47 3f b4 d4 da 3d
       0.35909548 0.3398786 0.78009194 0.10685101
0001b0 7f 17 9d 3e 12 a1 9b 3e 37 fb 41 3f 67 4e f0 3e
       0.3068199 0.30396324 0.7577395 0.46934816
0001c0 9a c3 23 3f c1 47 92 3e 7a 4b be 3e 69 7a 8e 3f
       0.6397034 0.2857037 0.3716696 1.1131107
0001d0 97 81 a1 3e 87 ab 4e 3e b5 dc 33 3e 36 f6 57 3e
       0.31544182 0.2018262 0.17564662 0.21090016
0001e0 94 29 d1 3e f0 7c 2e 3f 7c 32 1c 3f 62 c4 81 3e
       0.40852034 0.6815939 0.61014533 0.2534514
0001f0 59 3a f7 3e 33 9f 21 3e db 52 dc 3e fe bc 51 3f
       0.48286703 0.15783386 0.43031964 0.81929004

net3.4.weight f4 [64, 128]
000000 b1 fa ee bd e2 3b 6b bd 1f b2 43 be 4c d4 67 3d
       -0.11668909 -0.057430156 -0.19110917 0.056598946
000010 52 4c d3 bd 9b d7 3d bd d2 f8 34 3d c7 1d ce 3d
       -0.10317291 -0.046348196 0.044182606 0.10064273
000020 e6 9d 04 be 8f 22 97 3b f9 fd c6 bd e8 7f b2 bc
       -0.12950858 0.004612274 -0.0971641 -0.021789506
000030 13 e1 5f bd 2b ff 9d 3c 57 ef 6c bc a5 e5 77 3c
       -0.054658007 0.019286713 -0.01446136 0.015130435
000040 b9 a9 bb bc 0d 3c 23 be 9d 90 08 bd 6f ed bd bd
       -0.022908079 -0.15940876 -0.03334104 -0.092738025
000050 e8 2a f6 3d 83 b4 0b 3e 41 04 16 be 7b 19 cb bc
       0.120199025 0.13643079 -0.1465006 -0.024792423
000060 1e 2e 3b bd a2 1b 09 be 4e bd eb bd 82 a0 8c 3d
       -0.045698278 -0.13389447 -0.115107164 0.06866552
000070 66 71 a5 3c 61 fb 27 be fd 28 4c bd 54 16 6f bc
       0.020195674 -0.16404487 -0.049843777 -0.014592726
000080 14 09 00 3c 63 ad 1e be 31 c8 8c bd 24 3c 02 bd
       0.007814664 -0.1549583 -0.06874121 -0.031795636
000090 9f fc 36 bd c2 dc ab 3c c4 3f ef bd 1c e8 51 bd
       -0.044674512 0.020979289 -0.11682084 -0.051246747
0000a0 1b ea 32 be 38 0b cc 3d ed 8b ef 3a 00 c0 90 3d
       -0.17472117 0.09963077 0.0018275954 0.07067871
0000b0 a9 d7 d8 bd 0f 29 74 bd 55 35 9e bd ee 7f e9 bd
       -0.10588009 -0.05960947 -0.07725016 -0.11401354
0000c0 6b 8b fb bd d5 f7 4d bd d1 2e ee bc f7 f1 25 bd
       -0.12282451 -0.05028518 -0.029075058 -0.04051396
0000d0 aa 2d c9 bc 49 23 bd bd 74 b5 04 bd 6a 3f 41 bc
       -0.024557907 -0.09235246 -0.03239961 -0.011794904
0000e0 c0 86 1e 3e da 0d a0 3c a5 32 56 bd 8d 24 89 bd
       0.1548109 0.019537855 -0.052294392 -0.06696425
0000f0 f9 ab 2f bc af df 0d 3e e9 24 9b bb 1f 6e ca bd
       -0.010722154 0.1385486 -0.0047346246 -0.09884285
000100 23 a1 13 bd ef ca e1 bd 9c 34 5e b9 46 8f 3e 3c
       -0.036042344 -0.11025035 -0.00021191168 0.011630839
000110 51 22 04 be 0d ad 00 3d 42 fe 93 bd f8 01 02 be
       -0.12903716 0.031415034 -0.0722623 -0.12696064
000120 24 97 43 3b db 11 a9 3d 1e 69 35 3e e6 88 27 be
       0.0029844726 0.08255359 0.1771588 -0.16360816
000130 f9 36 3d be 8d ca 45 3d 88 1e b1 3d 3d ba 3e bb
       -0.18478002 0.04828887 0.086484015 -0.0029102706
000140 c6 61 f9 bc 53 25 c3 bd 73 2a f5 3c 16 6b 27 be
       -0.03044213 -0.095286034 0.029927468 -0.16349444
000150 ff af 28 3d 97 b7 ff 3b 97 13 fc bd dd ca 2b 3c
       0.041183468 0.007803868 -0.12308424 0.010485378
000160 c7 63 97 bd 47 bf da bd d4 1d e7 bd 1c 9a 05 be
       -0.07392078 -0.106810145 -0.11284986 -0.1304707
000170 bd 79 55 bc b2 42 0b be 29 1b 2e bd df b6 84 bc
       -0.013029513 -0.13599661 -0.04250637 -0.016200481
000180 c0 3f 77 bd 7c b1 52 be c2 f0 c4 3d 5f 05 c7 bd
       -0.06036353 -0.20575517 0.096162334 -0.09717821
000190 72 84 bc bd 8c dd 26 bd 11 39 cc 3d 15 2e ce bd
       -0.092049494 -0.040738627 0.09971822 -0.10067383
0001a0 c6 8c 59 3d 95 f6 0a bd 8d 56 6d 3d d6 72 cf bc
       0.053112768 -0.033926565 0.05794387 -0.025323313
0001b0 a8 1d 1d 3d 92 28 9b bd 20 76 f1 3c c7 14 b3 bd
       0.03835836 -0.075760975 0.029475272 -0.08744197
0001c0 eb 08 5e bd 12 fb f6 bd aa 29 32 3d 3c 2d 69 bc
       -0.054207724 -0.120596066 0.043496765 -0.014231976
0001d0 f9 5a f9 3a c1 7b 2a 3d b9 29 57 3c 80 fc d7 3c
       0.0019024304 0.041621927 0.013132506 0.026365519
0001e0 48 a1 ad bd 5c 07 df 3c e7 33 cb 3c 84 57 94 bd
       -0.084780276 0.027225189 0.024805022 -0.07243255
0001f0 32 bb c7 bd 31 12 21 be 15 93 0e bd 40 a4 81 bd
       -0.097525015 -0.15729596 -0.034808237 -0.06330156
000200 ad 89 35 3c d9 1a 83 bd cf 64 36 3d 21 32 ad bd
       0.011080188 -0.06401605 0.044529732 -0.08456827
000210 3a 75 92 bc ce 23 1d 3e bc 45 9a 3d f5 35 16 be
       -0.017878164 0.1534569 0.07532832 -0.1466902
000220 60 90 80 bc 17 89 c3 bc 3c ea af bd a8 fc 27 3d
       -0.015693843 -0.02386908 -0.085895985 0.041012436
000230 2e 07 27 bd 95 9a ae 3d 8c 94 34 3d b9 9e db 3d
       -0.04077833 0.08525578 0.044086978 0.10723633
000240 e6 a4 6a 3d 5f 0c 9c bd 4c fc 77 3c b4 69 69 3d
       0.057286166 -0.07619547 0.015135836 0.056985572
000250 04 12 cc 3d a6 3b 8b bd 27 24 8e 3d ea 59 15 3e
       0.09964374 -0.067984864 0.06940489 0.1458508
000260 25 6d 13 bd 44 1c 0a 3d 1f d3 3e bd 5f 6f 95 bd
       -0.03599276 0.033718362 -0.04658806 -0.07296633
000270 f7 f0 74 3d df 33 f8 3d 72 05 c1 3d 08 a1 9d 3c
       0.059800114 0.121192686 0.09424867 0.019241825
000280 b1 22 13 bb d0 b0 d6 bb c6 32 1c bc 97 90 cc bd
       -0.0022451098 -0.0065518394 -0.00953359 -0.09988516
000290 ba 4c 50 bd 16 f9 34 3d 10 ba 30 bd ad 7d df 3c
       -0.050854422 0.04418286 -0.043146193 0.027281607
0002a0 10 16 60 3d 00 e2 6f bd a7 35 80 bd d3 71 e8 bd
       0.05470854 -0.05856514 -0.06260233 -0.11349835
0002b0 09 10 2c 3d 00 5b bb bc a7 b3 33 3d 99 17 c8 3d
       0.04200748 -0.02287054 0.0438725 0.09770126
0002c0 30 08 01 be ad c6 2c 3c a3 3d 2b 3d 92 f1 13 bd
       -0.1260078 0.010545415 0.04180683 -0.03611905
0002d0 8e f4 c1 3d 6a 86 66 3b 97 d9 9a bd db 87 f0 3d
       0.09470473 0.0035175332 -0.07561033 0.117446624
0002e0 19 86 3b 3b 0c e6 73 bd 9e 84 84 3d ce c6 f6 3b
       0.0028613864 -0.05954556 0.06470607 0.0075310236
0002f0 ed 9c 43 be 35 5d 0f be 1e 36 a8 3c a7 78 92 3d
       -0.19102831 -0.140004 0.020533618 0.07151919
000300 8d 71 2e bc 60 21 b6 3d 04 79 67 3d ad 23 07 3e
       -0.01064719 0.088930845 0.056511894 0.13197203
000310 e5 3d 41 bd ca 6d 1c bc b4 f2 0c 3e 0b b1 cd bb
       -0.047178168 -0.00954766 0.13764459 -0.0062772087
000320 0e 48 9e bb 8c 83 27 be fd f5 f2 3c 31 75 30 3c
       -0.004830367 -0.16358775 0.029658312 0.010770128
000330 63 37 bf 3d 3f 54 a0 bd c0 64 00 3d ce be a5 3d
       0.09336736 -0.07828569 0.031346083 0.08093034
000340 28 bc 1e 3e 8f be 50 3d 8c 76 18 bd 6f c5 bd 3d
       0.15501463 0.05096298 -0.03722243 0.09266173
000350 d5 b4 a2 3d 41 91 3a 3d 70 2d 01 3e 67 c2 97 bd
       0.07944647 0.04554868 0.1261499 -0.07410126
000360 a4 d2 ed 3d 56 9c e7 bc 3a cb 4b 3c c9 7a ad 3d
       0.11612442 -0.028272789 0.01243859 0.08470685
000370 3f bf aa 3d ab 6b eb 3c 23 1a 74 bd 0f 9f 4e bd
       0.083372585 0.028737864 -0.05959524 -0.05044466
000380 81 60 d3 3d e4 98 72 3d bd 1a df 3c 8d 33 2c 3d
       0.10321141 0.05922784 0.02723443 0.04204135
000390 c1 ca 87 bd 35 cb fc bd e4 ef 08 be ed 35 d6 3d
       -0.06630469 -0.12343446 -0.13372761 0.10459504
0003a0 99 00 27 bd 27 8e ec bd 97 26 9d 3d d8 0f 10 3d
       -0.040772054 -0.11550551 0.07673376 0.03517136
0003b0 63 8b 34 be bd 39 b2 bb ee e0 cf 3d f4 52 84 bd
       -0.17631297 -0.005439012 0.10150324 -0.064611346
0003c0 f0 ee b7 3d 1c 6f 05 3e f4 71 d7 3d a6 dd 53 ba
       0.089811206 0.13030666 0.10519782 -0.00080820394
0003d0 c9 d9 c3 3d 7e 22 ea 3d 23 a9 d7 3d a1 ec ee 3c
       0.095630236 0.1143236 0.10530307 0.029165568
0003e0 01 d8 92 3c f4 f6 26 3c bb b9 52 3d be 30 6f 3d
       0.017925264 0.010190714 0.051446658 0.058396094
0003f0 75 a8 e1 3c 04 20 63 3d 09 04 ef 3c 52 ce 2e 3d
       0.027546147 0.055450454 0.029176729 0.04267723
