IR_model.pth (torch, 73552 bytes, 31 tensors)

net.0.weight f4 [64, 3]
000000 28 73 83 3e b8 8c 0a bf 9c 98 cd be 4e 1e 5b be
       0.25673795 -0.5412097 -0.40155494 -0.21398279
000010 f0 ad 94 3d a0 52 bb bc 10 0c c5 3e 6c cf ca 3e
       0.072597384 -0.022866547 0.38485765 0.39611375
000020 74 23 5d 3e 00 c1 9b bd 00 9e d9 bc 84 25 d5 3e
       0.21595556 -0.07605171 -0.026564598 0.41630185
000030 80 38 2e 3c 20 e8 13 3d ce 5d cf 3e 9a be be 3e
       0.010633588 0.036110044 0.40501255 0.37254792
000040 6e 63 c0 3e 54 b5 32 3e aa 56 00 bf 4c 98 09 3e
       0.3757586 0.17451984 -0.5013224 0.13437003
000050 64 c6 66 be ea e5 ab 3e 6c a7 12 bf 1b 90 9a be
       -0.22536618 0.33573848 -0.57286716 -0.3018807
000060 40 90 62 3c ec a0 07 3e 24 78 b6 bd 24 d9 51 3e
       0.013828337 0.1324498 -0.08909634 0.20492989
000070 8c 1f ae 3e c0 77 43 3d a0 1b c3 bc a8 3f 2b 3e
       0.34008443 0.047721624 -0.023816884 0.16723502
000080 eb bb e3 be c7 f5 a3 be dc 17 3e 3e e0 ad 42 3d
       -0.44479308 -0.3202345 0.18563789 0.0475291
000090 30 50 da bd 98 34 10 3f 50 2b 09 3f c0 68 8f 3e
       -0.10659826 0.5633025 0.53581715 0.28009605
0000a0 de e1 c2 be 72 9a 7f be 00 da ba bb 34 2c f8 3e
       -0.38062948 -0.2496126 -0.005702257 0.48471224
0000b0 8c d3 2a 3e 74 9b 35 3e 94 61 6e be d6 f2 0b bf
       0.16682261 0.17735082 -0.2327941 -0.54667413
0000c0 e4 6b a1 be bc 3f 06 3e f8 53 d2 bd e8 17 c3 3e
       -0.31527627 0.1311025 -0.10269922 0.38104177
0000d0 8e d6 2d be b0 75 0b 3d 30 23 04 be e7 a8 05 bf
       -0.16976377 0.034047782 -0.12904048 -0.5221085
0000e0 e0 93 27 3d 52 a1 ad 3e a0 e2 65 3e 7a 80 af be
       0.04091251 0.3391214 0.22449732 -0.34277707
0000f0 90 8c b4 3e 90 43 5e be fc 81 04 3e 48 54 c9 3e
       0.3526349 -0.2170546 0.1294021 0.39322114
000100 a0 47 ff bc da 12 13 be aa 5c e5 be b4 2d d9 be
       -0.031162083 -0.1436266 -0.4479726 -0.4241768
000110 44 a7 a1 be 2f cb 05 bf 26 ed 9e 3e a7 6a f9 be
       -0.31572926 -0.5226316 0.31040305 -0.48714182
000120 10 0e 1a 3d 46 f6 88 3e 94 b4 d6 3e d5 3f 0b bf
       0.037611067 0.26750392 0.41934645 -0.54394275
000130 a8 58 a8 3d 34 74 b6 be ba b0 df be 38 0d 89 bd
       0.08220035 -0.3563553 -0.4368952 -0.066919744
000140 d8 c4 ef bd e0 29 8b 3d 8e 2a 13 bf cc 6e d3 3e
       -0.11707467 0.067950964 -0.5748681 0.4129547
000150 f0 f1 ee be 50 5f 6d bd 44 8d 5c 3e 20 ce 11 3e
       -0.4666896 -0.057952225 0.21538264 0.14238787
000160 e4 a7 bc 3e b8 db 8a 3d 9e c2 95 3e aa e1 a8 3e
       0.3684684 0.06780189 0.29250044 0.32984668
000170 dc dd ea be 28 c1 f8 be ec 9d ec be c2 1b 5b be
       -0.4587239 -0.48584867 -0.46214235 -0.21397308
000180 68 b4 ea 3e d0 a9 61 be 9c 46 04 3e bc c7 0d be
       0.45840764 -0.22037435 0.1291756 -0.13845724
000190 42 16 83 3e 1a df 10 be f0 d8 d2 3e 94 08 47 3e
       0.2560292 -0.14147606 0.41181135 0.19436866
0001a0 20 d3 e1 3d c8 0f f4 be b0 74 82 3e a8 a4 c0 3e
       0.11026597 -0.4766829 0.2547965 0.37625623
0001b0 f3 da 88 be 80 b5 42 be 04 e7 c3 be 98 48 dd 3d
       -0.26729545 -0.1901455 -0.38262188 0.10804862
0001c0 a0 0a 1f bd 30 65 91 bd 6a bf 10 3f 08 fe 85 3e
       -0.038828492 -0.07099378 0.56542075 0.26170373
0001d0 8c 30 e7 3e 4e 0b 0d be 50 c4 ae 3d be 24 cb be
       0.45154226 -0.13773844 0.085335374 -0.3967647
0001e0 62 89 0a be 2c b3 a0 bd e0 3d af bc 76 aa fd be
       -0.1352897 -0.07846674 -0.021391809 -0.49544114
0001f0 ac d9 9d be 40 75 a9 3c 9d ad d9 be 2c 5a f4 3e
       -0.30830133 0.020685792 -0.4251527 0.47725046
000200 68 78 cd 3d 89 c3 10 bf 6a a1 27 be 4a 7d 6a be
       0.10032731 -0.5654836 -0.16370168 -0.22899356
000210 7e a7 54 be 4d 4d 0b bf 1c 60 2d 3e 73 01 b8 be
       -0.20767018 -0.54414827 0.16931194 -0.35938606
000220 60 6a da bc 26 97 03 3f f8 7d c3 3e 7c 28 72 3e
       -0.026662052 0.5140251 0.38182044 0.23648256
000230 42 45 cb 3e 40 81 e1 3c b3 af 0b bf 8e 19 c4 3e
       0.39701277 0.027527452 -0.5456497 0.38300747
000240 bc 6e e9 3e 74 1b d2 3e 32 f2 12 be 84 0d 20 be
       0.45592296 0.4103657 -0.14350203 -0.15630156
000250 e0 9c d7 3d 00 6f ea bc 98 77 dd 3d a6 39 9e 3e
       0.105279684 -0.028617382 0.10813826 0.30903357
000260 2c 35 a9 be 44 0b d5 be f8 a5 7d 3e 00 f5 e8 3e
       -0.3304838 -0.41610157 0.24770343 0.4549942
000270 00 10 b4 3e 10 1d e1 3e 32 10 75 be 40 3a b2 bc
       0.35168457 0.43967485 -0.2393196 -0.021756291
000280 12 07 09 3f 5f 7e dd be 5c 8d 77 3e 32 ce a3 3e
       0.53526413 -0.43260476 0.24175018 0.31993252
000290 8c c4 e7 bd ec a4 c3 3e b0 9e 42 3d e8 35 77 3e
       -0.11316785 0.38211763 0.047514617 0.24141657
0002a0 ce e9 d0 be 54 3c 5a be 7c 14 93 be 1a 3e fb be
       -0.4080338 -0.21312076 -0.28726566 -0.49070817
0002b0 94 e9 8e be 30 f3 70 3d 50 fe 06 3d a8 4c e9 be
       -0.2791258 0.05882567 0.032957375 -0.45566297
0002c0 40 1f 1d be 58 cc b8 3e 30 5e 69 bd 42 84 05 3f
       -0.15343952 0.36093402 -0.05697459 0.52154934
0002d0 78 2b 06 be 84 c3 f7 bd c0 ff 27 bd 94 84 d0 bd
       -0.1310252 -0.120978385 -0.041015387 -0.10181537
0002e0 3a 06 68 be cc 54 dc 3e 70 c1 8d 3e 92 2c 35 be
       -0.22658625 0.43033445 0.27686644 -0.17692783
0002f0 70 a4 8a 3d 8b 27 f5 be 1a 9a d1 3e 1f f5 fb be
       0.06769645 -0.4788173 0.40937883 -0.4921045

net.0.bias f4 [64]
000000 5e aa 8e 3e 6a c2 b5 be 66 1d a2 be a8 35 29 3e
       0.27864355 -0.3549989 -0.31663054 0.16524374
000010 77 5a 07 bf 43 82 86 be 20 eb bf bc 0c 7f f3 3e
       -0.52872413 -0.26271257 -0.023427546 0.47557867
000020 1e b7 98 3e 40 99 37 3e de 81 99 3e 34 d6 7f 3e
       0.29827207 0.17929554 0.29981893 0.24984056
000030 e6 4f 57 be bc e5 04 be 47 9b 09 bf 00 6b 1c bb
       -0.21026573 -0.12978262 -0.5375256 -0.0023867488
000040 a0 a4 a7 3c 60 ea 1e be 68 db 92 3e 6c 39 90 3e
       0.020464242 -0.15519094 0.2868302 0.2816881
000050 2d 32 04 bf ce fa 0e bf 40 48 97 3e 68 2f fa bd
       -0.5163906 -0.5585145 0.2954731 -0.12216073
000060 dc 9b 72 3e ee 3b bd 3e 8a 14 a3 be fc b3 63 3e
       0.23692268 0.36959785 -0.31851608 0.22236627
000070 d8 a1 67 be b0 d0 0b 3f 4e 92 7e be 2c 2e 3c 3e
       -0.22620332 0.54615307 -0.24860498 0.18376988
000080 80 d2 36 bc 4c ac 41 be d8 76 26 3e c6 af d3 3e
       -0.011158586 -0.18913382 0.16256273 0.41345042
000090 90 b7 af 3e b4 30 e0 be 90 e9 46 3d 94 d3 18 be
       0.34319735 -0.43787158 0.048562586 -0.1492446
0000a0 60 8c 62 bd 05 54 a1 be 1a 7b 92 3e 2c 63 dc 3e
       -0.055309653 -0.31509414 0.28609544 0.43044412
0000b0 c0 83 0b bf 83 78 bc be b4 6f 0e bf c8 ea cd 3d
       -0.5449791 -0.36810693 -0.55639195 0.100545466
0000c0 e8 23 3a 3e 3c 22 57 3e 81 a7 d8 be 3c cd 5b 3e
       0.1817776 0.21009153 -0.42315295 0.2146501
0000d0 f6 1f 12 3f 48 d3 d8 bd 06 f2 3e be 3c 4a 09 3f
       0.5708002 -0.10587174 -0.18647012 0.536289
0000e0 2c d7 fa bd 00 37 a6 3c af 50 97 be 8c fa f3 be
       -0.12248072 0.020289898 -0.29553744 -0.4765209
0000f0 38 25 da 3e 82 24 5b be e8 d9 68 3e 00 a9 65 bd
       0.4260652 -0.21400645 0.22739375 -0.056069374

net.2.weight f4 [32, 64]
000000 c0 36 5a 3d 90 b7 1d bd 30 65 d5 3d 24 6f 83 3d
       0.05327487 -0.038505137 0.104196906 0.06417683
000010 c0 cb 0b 3b 50 4c ff bc 62 21 a1 bd 5c e5 dc bd
       0.0021331161 -0.031164318 -0.078676954 -0.10785934
000020 38 db eb 3d d2 b3 8c 3d 80 73 ae 3b 5c ce fa 3d
       0.11516422 0.068702355 0.0053238273 0.12246391
000030 3c 6c 37 bd 1e 69 bf bd c4 30 6f 3d f0 4a 97 3d
       -0.044780955 -0.093462214 0.058396116 0.0738734
000040 d8 a3 fc bd 12 04 bf 3d bc e1 65 bd a0 91 e3 bc
       -0.12335938 0.09326948 -0.05612348 -0.0277794
000050 40 14 fd bb 10 aa f6 bc f4 ab 6a 3d b0 20 85 bd
       -0.0077233613 -0.030110389 0.057292894 -0.06500375
000060 6c 9c 70 bd 50 17 2e 3d c8 a9 1a bd 60 52 4f 3d
       -0.058742926 0.0425027 -0.037759572 0.05061567
000070 70 88 ed 3c ac 3e 89 3d a4 f7 87 bd 80 50 ec bb
       0.028995723 0.06701407 -0.066390306 -0.007211745
000080 fc d8 db 3d 12 55 e2 3d 64 69 ff 3d 48 1d c0 bc
       0.10734746 0.11051382 0.124712735 -0.023451462
000090 e0 8f 4e 3c 74 30 65 3d 58 e4 d7 bc aa 85 f8 3d
       0.012607545 0.05595441 -0.026354 0.121348694
0000a0 40 4b 7c bc a8 c4 27 bd e8 13 9f bc 0c ac 6a bd
       -0.0153988 -0.04095903 -0.019418672 -0.057292983
0000b0 9e e1 89 bd 74 df 1c 3d 08 71 e2 3c c0 c2 d3 bd
       -0.06732486 0.03829904 0.027641788 -0.1033988
0000c0 c0 ed 67 bd 60 49 f0 bb 90 07 b4 3d 50 c0 38 bd
       -0.05662322 -0.0073329657 0.08790505 -0.04510528
0000d0 ac 46 f7 3d 40 e8 88 3c 90 4a 59 bd 80 91 b3 bc
       0.120740265 0.016712308 -0.053049624 -0.021919966
0000e0 8a f6 ba bd 78 31 f4 bd 94 6b bb bd ac ec ce bd
       -0.09129055 -0.11923498 -0.09151378 -0.10103735
0000f0 c6 f3 fe 3d 8e 56 e8 3d 04 10 20 bd 74 ed ce bd
       0.1244884 0.11344634 -0.039077774 -0.10103884
000100 e0 42 ad 3d 74 a1 dc bd 6c 1f e8 bd 3a e2 c9 bd
       0.08460021 -0.10772982 -0.11334118 -0.098576024
000110 a0 9c 34 bc 68 65 4f 3d 20 d4 cf bc 38 69 14 bd
       -0.01102367 0.050633818 -0.025369704 -0.036233157
000120 c4 48 49 bd 20 b4 a3 bc 68 20 db 3d b6 cf e8 bd
       -0.04914166 -0.019983351 0.106995404 -0.11367743
000130 ca 15 98 bd 2a 83 c3 3d 48 e2 86 3d a8 7a b6 bd
       -0.07426031 0.09546502 0.065861285 -0.089101136
000140 a0 f3 76 3d b2 c9 e2 3d a4 87 1a bd 20 80 c0 bb
       0.060290933 0.110736266 -0.037727013 -0.0058746487
000150 6e 72 b9 3d 08 05 d6 bc 48 09 57 3d ac c5 e2 3d
       0.09055029 -0.026125446 0.052499086 0.11072859
000160 54 7e b4 bd b0 fb b5 3d 7c dd b1 3d 98 49 37 3d
       -0.08813158 0.08885896 0.08684823 0.04474792
000170 92 eb b7 bd 1c 3c fe bd 28 b8 ca 3d 36 81 9c 3d
       -0.08980478 -0.12413809 0.09898406 0.076418325
000180 40 e2 0e 3c f8 4f 8c 3d ac 09 14 3d 14 b5 7c 3d
       0.008720934 0.0685119 0.036142036 0.061696127
000190 00 64 a2 bb ac 1e 12 3d 20 22 af 3b 16 5a a2 3d
       -0.0049557686 0.035673782 0.005344644 0.07927339
0001a0 76 8e bc bd 40 41 45 bc 34 59 49 3d 46 51 e4 bd
       -0.0920686 -0.012039483 0.049157336 -0.11148314
0001b0 06 73 c6 bd 14 d0 92 bd be a2 d5 3d 58 99 80 3c
       -0.09689908 -0.07168594 0.10431431 0.01569812
0001c0 0c 30 07 bd 38 31 cc bc 64 60 d9 bd 08 73 3d 3d
       -0.033004805 -0.024925813 -0.10614088 0.04625228
0001d0 00 fc c4 bd fe f7 aa bd 76 bf 9d 3d 6e 02 9c 3d
       -0.09618378 -0.08348082 0.07702534 0.07617651
0001e0 b8 6f 9e 3d 68 6c 91 3c a6 8a 9e bd a0 e4 80 3c
       0.077361524 0.017751887 -0.07741289 0.015734017
0001f0 00 a8 f6 bc 84 97 41 bd 28 d3 d5 3c 94 b2 a3 3d
       -0.030109406 -0.047263637 0.026101664 0.079930454
000200 00 f2 7a 3c a8 f2 cb bc 40 c2 c8 bc 30 54 d5 3c
       0.015316486 -0.024895981 -0.024506688 0.02604112
000210 f6 cd ce 3d 52 19 9f 3d 3a 42 b3 bd ce f7 ab bd
       0.10097878 0.07768501 -0.08752866 -0.08396874
000220 7a 2b a3 3d c0 6a 94 3b d0 8c 2f 3c 28 29 f7 bd
       0.07967277 0.004529327 0.010714725 -0.12068397
000230 82 44 be 3d 70 9f 03 bd 90 3b 77 bc 60 cb 25 bc
       0.092904106 -0.032134473 -0.015089884 -0.010119289
000240 d2 73 fd bd 2c ce 54 bd 0c 4c d4 3d 60 f9 19 3d
       -0.123756066 -0.051954433 0.10366067 0.03759134
000250 c4 6e aa 3d 50 d3 b6 bc 30 c7 c3 3c 40 c6 4b 3b
       0.08321908 -0.022317559 0.023898691 0.0031093508
000260 18 ef 9d bd a0 87 e4 bb e2 2c 87 3d c0 0b 01 bb
       -0.07711619 -0.0069741756 0.066003576 -0.0019690841
000270 84 53 0f 3d 20 5c 58 bd c4 e8 30 3d f8 93 2a bd
       0.034991756 -0.052822232 0.043190733 -0.04164502
000280 40 e7 51 bd 66 35 bf bd c4 5b 9b bd 00 8c 19 bb
       -0.051245928 -0.09336357 -0.07585862 -0.0023429394
000290 98 69 df 3c 4c 72 6c 3d f4 4f 3a bd 8c d7 8b bd
       0.02727203 0.05772619 -0.045486405 -0.06828222
0002a0 04 9e f5 3d 60 1d 6d bc cc 89 7c 3d 00 5a 1e bb
       0.1199303 -0.014472336 0.06165485 -0.002416253
0002b0 a0 8d 73 bd c0 4d 62 3d 30 26 41 3c d0 f9 a6 bc
       -0.059461236 0.05524993 0.01178889 -0.020382792
0002c0 d4 9e cc bd 3e 71 ad 3d 8c b7 d9 3d 60 85 47 3d
       -0.099912316 0.08468865 0.10630712 0.04871118
0002d0 78 7f 3f bd 88 3a c7 3c e2 60 b1 3d 38 86 60 bd
       -0.046752423 0.024319902 0.08661057 -0.0548155
0002e0 00 ee 4b 3c de 31 d5 3d c0 3d 95 3b 12 c0 fd bd
       0.01244688 0.10409902 0.0045544803 -0.1239015
0002f0 80 0e 32 3b 40 4d 82 bd ac 5f 8e bd 78 51 e3 bd
       0.0027169287 -0.063623905 -0.06951842 -0.11099523
000300 20 9d b2 3c ac 5d fd bd 1c 24 74 bd ba 32 d8 bd
       0.021803439 -0.12371382 -0.05960475 -0.1055655
000310 e6 d6 da 3d 72 09 86 bd ec 5d 89 bd 46 cb c4 bd
       0.1068552 -0.0654477 -0.06707367 -0.09609084
000320 18 8c f8 3d 08 75 e0 bc 0e ac ef bd d6 65 b9 bd
       0.12136096 -0.027399555 -0.11702739 -0.09052627
000330 62 6e e1 bd ac 46 67 3d 60 42 ba 3c 1e ff 9b bd
       -0.11007382 0.056463882 0.022736728 -0.07617019
000340 68 ec 25 3d 34 af 85 3d 64 83 5f 3d aa d0 ef 3d
       0.040508658 0.06527558 0.054568663 0.117097214
000350 40 45 b8 3d a8 bc fe bd 8c c2 0a bd 8a 3a da 3d
       0.089975834 -0.12438327 -0.03387694 0.10655697
000360 2c 22 d6 3d f0 89 f6 bc bc 5d b6 bd 9c 66 1c bd
       0.104557365 -0.03009507 -0.08904597 -0.038183793
000370 b6 b8 9e 3d d2 b1 ba 3d aa 05 97 bd 0c ae 12 3d
       0.077500746 0.09115948 -0.07374127 0.035810515
000380 10 85 57 bd 7a b2 9f bd dc ef af bd b0 a6 30 3d
       -0.052617133 -0.077977136 -0.085906714 0.043127716
000390 a8 d5 ad bc a0 fd 17 3d fa 46 f9 bd b0 e8 4b bd
       -0.021220043 0.03710711 -0.12171741 -0.049782455
0003a0 68 3a 55 3d 8a 62 91 3d b0 7b 21 bd b6 6e 86 bd
       0.052057654 0.07098873 -0.0394246 -0.06564085
0003b0 90 26 5e bd f8 b4 35 3d 30 6e af bc d4 30 61 3d
       -0.054235995 0.04436204 -0.021414846 0.054978207
0003c0 48 93 a8 bc 5c 66 2d 3d 44 72 78 bd 50 31 18 bc
       -0.020578042 0.042333946 -0.060655847 -0.009289101
0003d0 de 04 93 3d 1c a7 53 bd 7e b2 fc 3d f6 ce f3 bd
       0.07178663 -0.05167304 0.12338732 -0.11904709
0003e0 80 7e fc ba 10 c0 dc bc 2c 56 5a 3d cc 94 01 3d
       -0.0019263774 -0.026947051 0.053304836 0.031636044
0003f0 38 07 b1 3c bc 21 ed bd d4 99 55 3d 18 e9 c1 3c
       0.021609887 -0.115787 0.052148655 0.023670718

net.2.bias f4 [32]
000000 f6 35 c7 bd 10 80 67 3d b0 3e f6 3c 6c 92 c6 bd
       -0.09727089 0.056518614 0.030059189 -0.096958965
000010 14 42 80 bd 44 8f f3 bd e8 79 cb 3d 30 52 b6 3c
       -0.062626034 -0.1189256 0.09935361 0.022255987
000020 00 5f e3 3b 40 69 af 3c 50 ed 79 3c f8 3a da bd
       0.006938815 0.021412492 0.015254334 -0.10655779
000030 86 1d b1 3d 6e 03 91 bd 30 e7 84 bd bc e8 bb 3d
       0.08648209 -0.07080732 -0.06489408 0.0917525
000040 b0 1d 9c 3d b0 9a 9d bc 7c 46 18 bd b4 e5 63 3d
       0.0762285 -0.0192388 -0.037176594 0.055638984
000050 50 8b c7 3d 30 b4 f4 3c 08 e7 e5 bc 5c c6 41 bd
       0.097433686 0.029871076 -0.028064266 -0.04730831
000060 3e d3 93 bd e2 df b7 bd 84 7b 52 3d b0 79 7d bc
       -0.072180256 -0.08978249 0.051387325 -0.015470907
000070 28 25 ca bd fc 19 fb bd 2c a9 68 3d 78 00 f6 3c
       -0.09870368 -0.122608155 0.05680196 0.03002952

net.4.weight f4 [1, 32]
000000 d3 a8 32 3e 90 9a 8a bc 3f ab 9f bd a5 80 2b be
       0.17447214 -0.016919404 -0.077963345 -0.16748293
000010 2c 2a 0e 3d c2 c7 9f 3d 77 73 04 3e fc 7e 6d bd
       0.034708187 0.07801773 0.12934671 -0.05798243
000020 93 8c b6 bd 00 76 b6 3b 39 cc b9 bd a6 a2 5c bd
       -0.08913531 0.005568266 -0.090721555 -0.05386605
000030 70 0d 1f be 98 a2 ff bc 70 1f 19 bc 12 8f 86 3d
       -0.1553247 -0.03120546 -0.009345874 0.06570257
000040 84 14 1d 3d b3 72 19 be 11 9b b9 bd be c5 bc 3d
       0.038349643 -0.1498516 -0.0906278 0.09217404
000050 bf f4 b3 bd 13 3e 31 3e cc 1d 1d be 5b f7 1d 3e
       -0.08786916 0.17308836 -0.15343398 0.1542639
000060 50 f2 a7 bd 3e 0a c3 3d d8 9a e1 bc 20 dc 36 bd
       -0.08200514 0.09523438 -0.027539656 -0.04464352
000070 fc d5 5b 3d b0 c9 e1 3c 4b d8 18 be 05 62 33 3e
       0.05367087 0.027561992 -0.14926259 0.1751786

net3.0.weight f4 [128, 3]
000000 3c df 1d be de d4 08 be 9f 43 fc bd a4 a7 7b 3e
       -0.15417188 -0.13362452 -0.12317585 0.24575669
000010 80 e6 d8 3e 76 76 3a 3d c0 a4 e4 3e f5 05 5f 3c
       0.42363358 0.04552313 0.44656944 0.01361226
000020 5d 76 fe be 6b 6f 58 3e b9 2c f7 be ba ef 58 3e
       -0.4969968 0.21136253 -0.48276308 0.21185198
000030 9c 42 f5 be e7 5e 32 be cb 10 0e be 9f 7d 61 be
       -0.4790238 -0.17419015 -0.13873594 -0.22020577
000040 2c 45 8e be 96 d8 85 be 5b 66 f8 3e 0a 77 24 3e
       -0.2778715 -0.26141804 0.4851559 0.16061035
000050 c1 17 09 bf 81 dc ed 3e d6 26 8e be 8d 8b 68 be
       -0.5355187 0.46457294 -0.27764004 -0.22709484
000060 35 e1 08 bf 4b 13 e5 3c e7 c0 1d bf ec 49 b1 be
       -0.5346864 0.027963301 -0.6162247 -0.3462671
000070 6a ee c5 3e 1c e1 e5 3e 94 2b d1 be f9 30 12 bf
       0.38658458 0.44898307 -0.4085356 -0.57105976
000080 6e 9c ba 3e 9d ff 1c be 7b 04 de 3e 52 c4 13 3f
       0.3644747 -0.15331884 0.43362793 0.57721436
000090 77 1f 2f 3e 4c df c0 be 22 eb e4 3e 3a 6f 94 3e
       0.17101847 -0.37670362 0.44710642 0.2899111
0000a0 30 ff 90 3e 00 0c 58 be ee 3c 9e be 0a aa d4 be
       0.28319693 -0.21098328 -0.3090586 -0.4153598
0000b0 c0 1f 86 3e 5e ba b6 be 2f ce 5b be 40 de 2a be
       0.26196098 -0.35689062 -0.21465372 -0.16686344
0000c0 93 7f 0a 3e cc 28 a2 3e 4a c5 1c bf e9 12 c8 bd
       0.13525228 0.3167175 -0.6123854 -0.09769232
0000d0 22 fe ef be 27 b2 b0 3d 85 98 f7 be 95 91 1c 3c
       -0.46873575 0.0862773 -0.4835855 0.009556194
0000e0 ba 97 84 3e 75 4c 08 3f 04 b0 9e 3c 8c df 2a 3e
       0.25897008 0.53241664 0.01937104 0.16686839
0000f0 58 34 03 3e 8f 92 c2 bd ff 75 c6 be e2 fc 63 3e
       0.12812936 -0.0950061 -0.387619 0.22264436
000100 f0 e6 c0 3e ce d8 80 bc cf 18 8d 3e 61 2b d7 be
       0.3767619 -0.01572838 0.2755799 -0.42025283
000110 48 30 f1 3e d8 a1 d1 3e 76 b2 98 3e da b3 04 bf
       0.47107148 0.4094379 0.29823655 -0.5183693
000120 aa ec 07 bf 1e 52 a7 3e 4d a1 08 be e5 af 8e 3e
       -0.53095496 0.32679838 -0.13342781 0.27868572
000130 19 d4 04 bf cf f1 dd 3d e9 c4 b7 be 76 ab 9f be
       -0.51886135 0.10837137 -0.35892418 -0.31185502
000140 29 bc ea be e8 6f e1 be 5d 65 b4 3c bc ce ea 3e
       -0.4584668 -0.4403069 0.02202099 0.4586085
000150 51 9c 17 bd 67 f4 9e 3e c4 81 d5 be 3d 16 7d 3e
       -0.03701431 0.3104584 -0.41700566 0.24715514
000160 2e 80 24 be a5 71 94 be 07 2f 25 be 4b c5 f4 be
       -0.16064522 -0.28992954 -0.16131221 -0.47806773
000170 58 a4 0c 3e b6 f8 00 3e 43 85 11 bf 7d a8 4d be
       0.13734567 0.12594876 -0.56843966 -0.20083804
000180 dd 43 6e 3e f1 63 ed be 53 80 a1 3d cf 28 c0 be
       0.23268075 -0.46365312 0.07885804 -0.37531134
000190 c0 16 3e 3e 02 e8 c4 be 24 d0 ee be 38 6f 86 3e
       0.18563366 -0.38458258 -0.46643174 0.26256728
0001a0 6d d7 00 bf 6f 19 0e 3e 4e 1c a3 bd bd 5e ff 3e
       -0.50328714 0.1387689 -0.07964383 0.49876967
0001b0 00 c7 49 be 63 6a ba be 48 54 9a bd 26 02 ef be
       -0.19704819 -0.36409292 -0.075356066 -0.46681327
0001c0 fa a3 6f be 0a a5 38 be ec 54 df bc 5d ae d3 3e
       -0.23402396 -0.18031707 -0.027262174 0.41343966
0001d0 7d d9 ab bd 5b cd a9 3d 8c 06 df 3e e9 95 bc be
       -0.08391092 0.082911216 0.43559682 -0.36833122
0001e0 c8 55 0a bf f6 33 de 3e c8 bf 9e ba dc 7d e0 be
       -0.5403714 0.43399018 -0.0012111599 -0.43846023
0001f0 1c f8 01 bf df 4c a8 bd 78 64 f3 be fd 72 88 bd
       -0.5076921 -0.08217787 -0.4753759 -0.06662557
000200 1e be b7 bc 5e 31 1a 3d 4d ba 1f bc 61 32 34 bf
       -0.022429522 0.037644736 -0.009749007 -0.7038937
000210 b0 ba b5 bd ea b6 8a be e8 14 bb 3e 47 6f d5 bc
       -0.088734984 -0.27092677 0.36539388 -0.026054038
000220 c6 3e 55 3e a5 d6 96 3e cd cb ec bc 24 ea ad 3d
       0.20824727 0.29460636 -0.028905774 0.084919244
000230 c6 9d d5 3e b6 ae d7 3e 33 17 f0 be 02 8c ec 3e
       0.41721934 0.4212548 -0.468927 0.46200567
000240 40 85 84 3e d3 db 71 3d f2 17 1d 3f 87 8e 28 bf
       0.25882912 0.05904753 0.6136466 -0.6584248
000250 76 6c 0d bf d9 f4 48 3e 37 3e 07 bf e2 42 08 3f
       -0.55243623 0.19624652 -0.5282931 0.53227055
000260 cd 07 d8 bd 28 97 13 3f 41 0f 0b be e7 e5 e8 bd
       -0.10548363 0.5765252 -0.13580038 -0.113719754
000270 d6 ca 08 be ee 92 68 be 71 bc fa 3e 2e b1 36 bd
       -0.13358626 -0.22712299 0.48971894 -0.044602565
000280 59 1b 64 bd d2 dc 48 3e 0f 7e dc be ec ed 99 3e
       -0.055690143 0.19615486 -0.43064925 0.30064332
000290 43 bf 55 bd 1f 21 0a 3f 8f 68 d0 3e 82 08 73 3e
       -0.052184355 0.5395679 0.40704772 0.23733714
0002a0 2d 51 00 bf 1b b6 bd 3e fc b1 1f bc 11 d0 93 3e
       -0.50123864 0.37052998 -0.009747025 0.2886968
0002b0 2f e4 c4 3e ca a9 29 be d2 af 0e 3f 48 4b 00 bf
       0.3845534 -0.16568676 0.5573703 -0.5011487
0002c0 66 c9 13 3e d5 d4 14 bf 93 51 00 3f d1 d8 b2 bd
       0.14432296 -0.58137256 0.5012447 -0.08732761
0002d0 39 28 91 be 89 c9 d4 3e c6 38 c9 3e cb 53 22 be
       -0.28351 0.4156001 0.39301127 -0.15852277
0002e0 9c cb d5 be 16 ae 09 bd d9 5c 28 be 21 1b 92 be
       -0.41756904 -0.033613287 -0.16441669 -0.28536323
0002f0 eb cb 65 bd c6 02 9e 3e 12 b6 71 be db 96 15 be
       -0.056102674 0.3086149 -0.2360461 -0.14608328
000300 1b b4 38 3e a3 52 f5 bd 53 e2 b1 bd 7e a4 c5 be
       0.18037455 -0.11978652 -0.08685746 -0.3860206
000310 f0 fe c6 bd 7a 0a 13 3d 98 be 20 be 5b 5e 1c bf
       -0.09716594 0.035898663 -0.15697706 -0.61081475
000320 e9 95 33 3c 82 7c cf bd 9a 24 59 3e 7b 0c 6d 3e
       0.010961034 -0.1013117 0.21205369 0.23149292
000330 3b 89 7f be 67 2a b9 3e 82 1f 9f be 95 2a ee 3e
       -0.24954693 0.36165163 -0.31078726 0.46516863
000340 d6 ce 82 be 21 33 9b 3e e9 af dc 3e ad 0b 08 be
       -0.25548428 0.30312446 0.4310296 -0.13285704
000350 d2 b9 98 be 4d c7 06 3f b2 7f 8c 3e 5a 09 d9 be
       -0.2982927 0.5264786 0.27441174 -0.42389947
000360 17 07 23 3e 2a ed c1 3d 5b 09 23 bf b9 a0 44 be
       0.15920673 0.094690636 -0.6368615 -0.19201936
000370 05 ee 23 bf 0d 87 4f 3c 1f f0 a7 3d 1d 82 2a bd
       -0.64035064 0.012666476 0.08200096 -0.041627992
000380 dd c7 25 bf 55 9c 9d 3e 92 f7 15 bf 4e 56 c8 3c
       -0.6475809 0.30783334 -0.5858089 0.024455216
000390 a2 0d 70 be c7 d5 1e bf 38 2d 91 3d e2 a5 b3 bc
       -0.234427 -0.6204495 0.07088703 -0.021929685
0003a0 34 4e 08 bf eb d8 32 be cd 00 a0 3b b4 80 c5 3e
       -0.5324433 -0.1746556 0.004882908 0.38574755
0003b0 99 44 0e bf 06 ab 81 b9 45 e4 8f bd ea 9c 49 bf
       -0.5557342 -0.0002473222 -0.07025961 -0.78755057
0003c0 85 b1 a0 be 12 d7 e3 be dc e6 63 be 8f 61 71 be
       -0.31385437 -0.44500023 -0.22256035 -0.23572372
0003d0 a7 6a 9d 3e 55 02 da 3e de a1 72 3e 92 26 6d 3e
       0.30745432 0.42579904 0.2369456 0.23159245
0003e0 10 01 9c be e3 5c da be 39 85 9d 3e 19 6c 90 be
       -0.3046956 -0.42648992 0.30765703 -0.28207472
0003f0 b2 8d 19 bc 3c f1 88 be e8 ee fc 3e 31 01 ff 3d
       -0.009372162 -0.26746547 0.4940102 0.12451399

net3.0.bias f4 [128]
000000 24 3e 13 bf 24 cb a3 3e e4 15 c3 3e 15 05 0c 3f
       -0.57516694 0.31990921 0.3810264 0.54695255
000010 c9 b9 56 be 94 65 9b 3e dd 3b 7f be 26 1c c3 be
       -0.20969309 0.30350935 -0.2492518 -0.38107413
000020 88 88 01 3f e1 fa 21 bd aa 77 8b be df 8b ec 3d
       0.50598955 -0.039545897 -0.27239734 0.11550116
000030 19 6b 81 3d ea 2f f4 3d cf 7c 89 3d bf 9f 8c be
       0.063192554 0.119232014 0.067132585 -0.27465627
000040 5f b6 9e 3e 57 8d 3f be 1b de 01 3f 9d ff c7 be
       0.30998513 -0.1870626 0.5072953 -0.39062205
000050 a6 e3 a6 bd 24 92 8f 3e 0c fe 14 3e e7 96 e9 bd
       -0.08148889 0.28041184 0.14550036 -0.114057355
000060 a0 8e 83 bd 55 59 7a 3e 83 62 54 be 18 b6 d7 be
       -0.06423688 0.2444814 -0.20740704 -0.42131114
000070 7e 8d e0 3c 93 4d 5a 3e ea a9 39 be 6b 92 fa 3e
       0.027411219 0.21318655 -0.18131223 0.48939833
000080 3a 47 62 3e 89 0e bb bd 77 ab fc 3e bd 40 b6 3e
       0.22097483 -0.09133632 0.49349567 0.35596266
000090 77 26 12 be 3c 3e b9 be cc dc ff be 55 3c 97 be
       -0.14272486 -0.36180294 -0.49973142 -0.29538217
0000a0 3d 64 cc be 83 ff 5b 3e 76 e4 10 be 56 f1 0b bf
       -0.39920226 0.21484189 -0.14149651 -0.54665124
0000b0 3c 95 94 3e cd 9b 11 bf a9 21 6d bc 2a 53 b3 be
       0.29020107 -0.5687836 -0.014473357 -0.35024387
0000c0 03 cc 21 be 0c 5d 4b 3e e9 63 ec 3e 40 cb 11 bf
       -0.1580048 0.19859713 0.46169975 -0.5695076
0000d0 19 10 c6 3e bb 4e 4f be 60 8f 01 3f c0 72 2b be
       0.38684157 -0.20244877 0.506094 -0.16742992
0000e0 f7 6c d8 3e 68 3b 01 3f ef ba a8 3e cd 4e 3b be
       0.42270634 0.5048127 0.3295512 -0.18291779
0000f0 9e 59 48 3e 0a 49 3f 3e 41 9d 30 be 77 d4 0e 3f
       0.19565436 0.18680206 -0.17247488 0.55792946
000100 52 a4 ef be 67 52 03 bf a5 e8 c3 3e 79 3d 05 3f
       -0.46805054 -0.5129761 0.3826343 0.52046925
000110 f9 a1 98 3e 90 a0 90 3e 2c 61 44 be aa 5d bd be
       0.29811075 0.282475 -0.19177693 -0.36985523
000120 71 c2 db 3e dd c3 c1 bc 89 a2 ca be 82 9f 12 3f
       0.42921785 -0.023652965 -0.3957713 0.5727464
000130 a7 83 13 3f 1e 23 87 3d 2e 26 cb 3e 8a 50 10 3f
       0.5762276 0.06598495 0.39677566 0.5637289
000140 d8 23 ad 3e 7b 45 b7 3b 37 33 a2 be 1b 9d 9f be
       0.3381641 0.0055929995 -0.316797 -0.3117455
000150 bc be 01 3f 79 8c 97 bd f3 32 cd be 42 81 a9 3e
       0.5068166 -0.0739984 -0.40077934 0.33106428
000160 35 a9 e6 be b8 99 86 3e 4d 6f e0 3e 99 7f 95 be
       -0.4505097 0.26289153 0.43834916 -0.29198912
000170 c5 96 a6 be f7 7d f3 bd 0c 61 ad be 1e 58 04 3f
       -0.32536903 -0.1188926 -0.33863103 0.51696956
000180 60 c6 5e 3e c1 87 05 bf 7c 26 ad be c2 a1 e0 3e
       0.21755362 -0.5216027 -0.33818424 0.4387341
000190 e1 62 bd be a7 ba 7f be db aa 10 3e df 65 04 3f
       -0.369895 -0.24973546 0.14127676 0.5171794
0001a0 97 ca 88 3e 19 5d d9 be d5 62 c7 3e f2 2c 0c be
       0.26717064 -0.4245384 0.3894259 -0.1368902
0001b0 a5 58 b6 be aa 43 9f 3e 67 09 47 bd ee 16 f6 be
       -0.35614505 0.3110631 -0.04859295 -0.4806437
0001c0 e6 a3 d2 3e ee 1c d3 3e 08 84 dc bd 27 63 d4 be
       0.4114067 0.4123301 -0.107673705 -0.41481897
0001d0 bb c7 d0 bd 4b df 73 3e df 5e 5d 3e 0e 61 ae 3e
       -0.101943456 0.23815648 0.21618222 0.34058422
0001e0 7f e3 6d 3e 5a 2f 37 be 39 c3 c2 3e cb f1 08 3f
       0.23231314 -0.17889157 0.38039568 0.53493947
0001f0 a9 fa 53 be 91 08 08 bf 5c db e2 3e b0 d6 67 3e
       -0.20701088 -0.5313807 0.44307983 0.2264049

net3.1.weight f4 [128]
000000 df f8 8d 3f eb b9 68 3f 1a 14 8d 3f dd 33 89 3f
       1.1091574 0.9090869 1.102176 1.0718952
000010 66 e3 81 3f 00 c8 75 3f 45 63 8b 3f e2 d0 8f 3f
       1.0147521 0.960083 1.088967 1.1235621
000020 9d b0 80 3f de 50 82 3f 7e 36 78 3f 98 03 63 3f
       1.0053898 1.0180929 0.9695815 0.8867736
000030 11 0a 90 3f 85 b6 6a 3f b6 d7 84 3f 2d 30 90 3f
       1.1253072 0.9168475 1.037833 1.1264702
000040 53 61 96 3f 41 2c 84 3f 94 f0 87 3f 9e 52 6e 3f
       1.1748451 1.0326005 1.0620294 0.93094814
000050 e9 f9 74 3f da 8a 5f 3f 75 90 7e 3f cc c7 6e 3f
       0.9569383 0.87321246 0.99439174 0.93273616
000060 15 12 59 3f 5f cd 7f 3f 3b 34 61 3f 8d 69 86 3f
       0.84793216 0.99922746 0.8797032 1.0500962
000070 95 fb 8b 3f 98 42 91 3f 56 00 7a 3f 2a d5 79 3f
       1.0936152 1.1348448 0.9765676 0.9759089
000080 aa 29 86 3f 75 e7 7c 3f 0c 6d 75 3f f6 f2 8b 3f
       1.0481465 0.98790675 0.9586952 1.0933521
000090 c5 ef 85 3f ae 68 83 3f 0a 74 66 3f 30 18 86 3f
       1.0463797 1.0266321 0.9002081 1.0476131
0000a0 d7 63 83 3f dd 19 7a 3f f0 1f 6d 3f 21 90 83 3f
       1.0264844 0.97695714 0.9262686 1.027836
0000b0 ba af 56 3f 90 98 6e 3f c0 9d 81 3f e3 40 54 3f
       0.8386189 0.9320154 1.0126266 0.8291151
0000c0 0b e0 71 3f 1e 60 6c 3f 7b 24 6e 3f 0d 52 86 3f
       0.9448249 0.92334163 0.93024415 1.049379
0000d0 3b 09 74 3f 5c 55 92 3f 30 5f 72 3f 24 d2 74 3f
       0.95326585 1.14323 0.94676495 0.9563315
0000e0 41 b9 86 3f b9 04 81 3f 5c 23 8b 3f 35 9a 65 3f
       1.0525285 1.0079566 1.0870166 0.89688426
0000f0 70 3f 89 3f b7 b7 95 3f 60 7c 7d 3f 52 60 91 3f
       1.0722485 1.169669 0.99017906 1.135752
000100 ff 20 85 3f 92 5f 78 3f e4 27 84 3f 02 06 81 3f
       1.0400695 0.9702083 1.0324674 1.0079958
000110 e5 8c 70 3f 5b 2c 41 3f 3f e0 89 3f be ef 80 3f
       0.9396499 0.75458306 1.077156 1.0073164
000120 13 68 80 3f 97 19 86 3f a6 49 87 3f b0 0c 8d 3f
       1.0031761 1.0476559 1.0569351 1.1019497
000130 9c e4 80 3f bf 61 75 3f 35 9a 8a 3f c0 07 89 3f
       1.0069766 0.95852274 1.082831 1.070549
000140 77 ff 7f 3f 41 b1 8e 3f 4c f5 89 3f 99 1c 74 3f
       0.99999183 1.1147844 1.0777984 0.95356137
000150 dd 08 91 3f 22 d3 7f 3f 9f 29 84 3f c5 41 8b 3f
       1.133083 0.9993154 1.0325202 1.0879446
000160 98 a5 79 3f 8f de 72 3f 34 8b 6e 3f 47 59 61 3f
       0.975183 0.9487085 0.9318116 0.8802685
000170 95 92 73 3f 61 27 5a 3f 1a 27 92 3f 3d a3 8a 3f
       0.9514554 0.8521634 1.1418183 1.0831066
000180 f6 09 9b 3f b5 ff 89 3f 3a d7 62 3f 47 b7 85 3f
       1.2112415 1.078116 0.8860966 1.0446557
000190 da 5d 82 3f f5 40 66 3f 19 62 81 3f fe 7d 6b 3f
       1.0184891 0.89942867 1.0108062 0.91989124
0001a0 43 83 84 3f 09 df 6c 3f 6e 3b 82 3f d9 ce 70 3f
       1.0352558 0.92527825 1.0174387 0.94065624
0001b0 b8 29 67 3f 7f 78 5e 3f a3 b4 59 3f c9 68 64 3f
       0.9029803 0.8690261 0.85041255 0.8922239
0001c0 51 4f 47 3f 23 19 44 3f b2 24 7e 3f c9 91 83 3f
       0.778554 0.76600856 0.9927474 1.0278865
0001d0 3c 35 88 3f 5b 0f 76 3f 97 aa 83 3f a3 e2 81 3f
       1.0641246 0.9611718 1.0286435 1.0147289
0001e0 f1 6b 8c 3f 89 85 60 3f 92 1d 98 3f 17 76 6d 3f
       1.0970441 0.8770376 1.1884024 0.92758316
0001f0 90 2c 84 3f 7f 00 69 3f fd 47 70 3f db 10 82 3f
       1.0326099 0.9101638 0.93859845 1.0161394

net3.1.bias f4 [128]
000000 c2 ad de 3b fb 5a 10 be ce 70 77 bd c3 9c 50 be
       0.006795616 -0.14097206 -0.060410313 -0.203723
000010 d0 83 13 be ea d8 e9 bd e8 f6 75 3d a6 70 af bd
       -0.14405751 -0.11418326 0.06004992 -0.08566408
000020 35 ae ae bc 0d 73 55 be f6 9e 0b be c9 39 99 bd
       -0.021323303 -0.2084467 -0.13634858 -0.07481725
000030 f3 4d 13 be ee 43 99 3d 3b 90 6e 3d c3 14 0b 3d
       -0.14385204 0.0748366 0.058243018 0.033955347
000040 78 9e 4e 3d c6 af ad 3d c6 2c b0 bd df df bf bd
       0.050444096 0.08480792 -0.0860229 -0.09368872
000050 fc fc ea bd 7b f9 9d bd b0 30 21 be 2d 6c c9 bd
       -0.11474034 -0.077136 -0.15741229 -0.09835086
000060 40 8a 44 be 68 3c 29 be 34 03 c7 bd 6c 18 83 3d
       -0.19193363 -0.1652695 -0.09717408 0.064011425
000070 5b 6c c4 bd 32 ce 44 3c ce 25 24 3c 79 d5 d5 3c
       -0.0959098 0.012012051 0.010018779 0.026102768
000080 25 a1 23 be ab c7 57 bd e2 72 46 bd b2 6d 99 3d
       -0.1597944 -0.052680653 -0.048449405 0.07491626
000090 9d f3 57 bc 2b e3 10 3d 3d 01 a8 bd 31 b0 b7 3d
       -0.0131806405 0.035372894 -0.08203361 0.08969153
0000a0 b6 38 19 bd 23 05 2d bd 9d 89 8f be 20 20 97 bd
       -0.0374076 -0.042241227 -0.28034678 -0.07379174
0000b0 ee 6a c0 3d f8 6b ad bd 58 cf 38 bd 7f 15 a2 be
       0.09395395 -0.08467859 -0.045119613 -0.31657025
0000c0 35 9b 9c bd b4 ea e5 3d d1 aa b0 3b bb fc d3 3d
       -0.07646791 0.11226407 0.0053914567 0.10350939
0000d0 ee 2e 83 bd 10 e4 fc 3c 29 ac 48 be 35 32 0a be
       -0.064054355 0.030870467 -0.19596924 -0.13495715
0000e0 c0 6d 3d 3d ea d8 e8 3c 69 90 1d be cd 0c b6 3c
       0.046247244 0.028423745 -0.1538712 0.0222229
0000f0 5c 37 60 bd 33 a2 03 3e 29 97 e2 bc f7 a7 e0 bd
       -0.054740295 0.12854843 -0.02765997 -0.10969537
000100 35 27 92 3c 5b bf 8d bd c5 78 ae 3c d1 22 62 bb
       0.017840961 -0.06921264 0.021297822 -0.0034505615
000110 c5 4e 5b 3d aa cd 81 be 1c 83 82 bd 1a f9 4d b8
       0.053541917 -0.25352222 -0.063726634 -4.9107803e-05
000120 bf fc 10 bb 94 75 15 3d 9a c9 4f bd f5 af c1 bd
       -0.0022123305 0.036489084 -0.05072937 -0.09457389
000130 fa 1b ab 3b a7 20 a5 3c eb 7a 08 be 2d 0f 04 3d
       0.005221841 0.020157171 -0.1332814 0.032241035
000140 79 f5 61 bc c7 23 1d be 5f ce 9d 3c 0e 9b 85 bd
       -0.013791435 -0.15345679 0.019263444 -0.06523715
000150 e4 5c 52 bd 57 78 a3 bd e5 e2 8a 3c 45 9a 62 3d
       -0.05135812 -0.079819374 0.016953895 0.055322904
000160 1b 22 2e bd d5 e8 07 be 01 5c 06 3b 00 6d 0a bd
       -0.042512994 -0.13272412 0.0020501616 -0.033795357
000170 54 ee 38 be 73 83 0e be 8d 06 21 be 52 8c 15 3e
       -0.18059665 -0.13917331 -0.15725155 0.14604309
000180 c8 c7 f9 bd 5b de 0c bd ec de 23 be 1b 9e 09 3d
       -0.121963084 -0.034391742 -0.16003007 0.033598047
000190 7d b0 c3 bc 2e 18 2c be 54 4c 12 3e 2d 30 75 be
       -0.023887867 -0.16806099 0.1428693 -0.23944159
0001a0 7c 82 32 3c bc fc 3c be 16 ff 08 be 5c 98 93 bd
       0.010895368 -0.18455786 -0.13378558 -0.072067946
0001b0 c3 f3 83 be 60 91 76 be 0c b9 c1 bc b3 d9 51 be
       -0.25771913 -0.24078894 -0.023647808 -0.20493202
0001c0 69 e0 4d be 5c 6a 82 bd 30 a7 a8 bc 4b 89 33 bd
       -0.20105137 -0.06367943 -0.020587534 -0.043832105
0001d0 8c df 1a 3e 03 b3 c7 3c 12 84 18 3c 7e be f8 3d
       0.15124339 0.024377352 0.009308832 0.121457085
0001e0 c6 07 7b bd 37 f8 01 be f8 cd 92 3d 1f e7 29 bd
       -0.06128671 -0.12692343 0.07168192 -0.04148018
0001f0 60 86 2c 3d 9f 5d 88 bd 6e 06 54 be 0d 37 09 be
       0.042120337 -0.06658482 -0.20705578 -0.13399906

net3.1.running_mean f4 [128]
000000 7f 06 10 bf bb f0 98 3e e3 cf bd 3e bd d2 0a 3f
       -0.5625991 0.29871163 0.37072667 0.5422781
000010 c0 f8 38 be bf 84 a6 3e 09 f8 86 be 69 d1 c8 be
       -0.1806364 0.32523152 -0.2636111 -0.39222267
000020 7f 43 0b 3f 95 70 28 bd d8 80 7f be bc 09 cf 3d
       0.54399866 -0.04112299 -0.24951494 0.101092786
000030 7a 48 59 3d c4 b6 d5 3d 59 e1 ac 3d 2c ec 7f be
       0.053047635 0.104352504 0.08441419 -0.24992436
000040 11 06 9f 3e 1d f2 32 be db 28 06 3f 37 ef d6 be
       0.31059316 -0.17475171 0.5240609 -0.4197938
000050 fe a1 9d bd 3d 63 86 3e 04 fc 05 3e 69 0e 03 be
       -0.07696913 0.26247588 0.13084418 -0.12798466
000060 36 57 30 bd 25 76 75 3e fb 4c 32 be 45 8a d2 be
       -0.04305192 0.2397085 -0.17412178 -0.41121116
000070 8f 16 03 3d fa 4b 58 3e d9 ea 2a be 7b c9 ff 3e
       0.032003935 0.21122733 -0.1669115 0.49958405
000080 95 18 5f 3e 1d 85 8d bd 86 60 05 3f 4f 2c ae 3e
       0.21786721 -0.06910155 0.5210041 0.3401818
000090 a1 d2 fe bd c6 95 a9 be b0 4f 01 bf 0b b1 99 be
       -0.12442518 -0.3312208 -0.5051222 -0.30017886
0000a0 40 ec c3 be ac 7e 7d 3e b9 5a f0 bd e3 5e 08 bf
       -0.38266182 0.24755353 -0.11736054 -0.53269786
0000b0 65 74 95 3e f8 0b 14 bf 8d 10 c5 bc 9d ae bd be
       0.29190364 -0.5783076 -0.024055744 -0.37047282
0000c0 87 4a 3d be 9e 12 72 3e 4a b1 f4 3e 61 5b 17 bf
       -0.18485461 0.23639914 0.4779151 -0.5912381
0000d0 71 2a c6 3e a8 7b 50 be 96 73 05 3f 6b 3c 53 be
       0.38704255 -0.20359671 0.52129495 -0.20628516
0000e0 bc b2 e0 3e 86 57 f9 3e 9b 04 9f 3e 3a ec 27 be
       0.43886364 0.48699588 0.310582 -0.16398707
0000f0 1b 64 44 3e 05 73 50 3e dc 74 21 be 5e 2f 0d 3f
       0.19178812 0.20356376 -0.15767235 0.551504
000100 9b b9 f1 be 17 bc fc be eb fa cd 3e 21 0b 04 3f
       -0.47211918 -0.4936225 0.40230498 0.5157948
000110 d3 53 9e 3e 2d c2 84 3e 23 8c 4f be 5b 1f c8 be
       0.30923328 0.25929394 -0.20268302 -0.39086422
000120 9d 22 de 3e bd 88 e2 ba da dc c4 be 96 dc 11 3f
       0.43385783 -0.0017283183 -0.38449746 0.5697721
000130 e7 32 19 3f 77 af a7 3d af 3f cd 3e 6d 1d 15 3f
       0.59843296 0.08187764 0.4008765 0.58248025
000140 ea d7 bb 3e 1f 8d 80 3a be f5 a6 be 73 6d 95 be
       0.36688167 0.0009807682 -0.3260936 -0.29185066
000150 15 77 00 3f 38 36 bc bd 8e 8c c1 be d7 0d b5 3e
       0.50181705 -0.09190029 -0.37802547 0.3536212
000160 48 da f6 be 71 93 92 3e ab e3 e6 3e ed 01 99 be
       -0.4821341 0.28628114 0.45095572 -0.29884282
000170 9b 1e a1 be 2a 38 0f be d2 d4 ad be 30 84 07 3f
       -0.31468663 -0.13986269 -0.33951432 0.5293608
000180 8a d8 5a 3e a1 1b fd be 4f e3 af be 6c 07 f0 3e
       0.21371666 -0.49435142 -0.3435311 0.46880662
000190 4a a3 be be 5a 8a 6d be 9b 8e f4 3d f2 0a fd 3e
       -0.37233955 -0.23197308 0.11941262 0.49422413
0001a0 ad 16 8f 3e d9 e8 e1 be cc 20 d0 3e 5a 3c 1e be
       0.27946988 -0.4412296 0.40650022 -0.1545271
0001b0 6b ec b0 be c9 ec 9b 3e ba 1f 95 bd 10 8d fb be
       -0.34555373 0.3045409 -0.07281442 -0.4913106
0001c0 84 2e c9 3e 71 75 c0 3e 88 76 cb bd 4a b5 cf be
       0.392933 0.375896 -0.099347174 -0.40568
0001d0 3b 3d ca bd 24 39 70 3e 1d c8 4d 3e df 76 a8 3e
       -0.0987496 0.23459297 0.20095868 0.3290319
0001e0 aa 98 69 3e b2 75 57 be ae af c1 3e 34 68 05 3f
       0.22812143 -0.21040991 0.37829345 0.52112126
0001f0 1d f2 42 be 84 0f 04 bf b5 63 d8 3e 37 01 74 3e
       -0.19037671 -0.51586175 0.4226357 0.23828588

net3.1.running_var f4 [128]
000000 93 74 cb 3d 02 05 f1 3e 4c bf 39 3f e9 39 13 3f
       0.09934344 0.47074133 0.7255752 0.5751024
000010 93 dc 16 3f c3 6f 9e 3e 69 99 6a 3f a6 02 2a 3f
       0.5893032 0.30944642 0.91640335 0.6641029
000020 9e 06 82 3f 04 8b 38 3f 29 12 97 3f 23 87 33 3f
       1.015827 0.7208712 1.1802417 0.7012808
000030 b1 d3 0c 3f 7f 15 cf 3e 2f b2 23 3f f4 05 cb 3e
       0.55010515 0.40446088 0.6394376 0.3965298
000040 58 19 29 3f bd 9c e2 3e 56 9f 1a 3f df d1 27 3f
       0.66054296 0.44260207 0.6039938 0.6555461
000050 10 27 53 3e 24 0c c3 3e 78 a4 3c 3f 1f b7 5f 3f
       0.2062037 0.380952 0.7368846 0.87388796
000060 96 8d 53 3f 3d 6b 2b 3f 7e 07 29 3f 35 eb 2a 3f
       0.8263792 0.6696051 0.6602706 0.6676515
000070 95 f6 c2 3e 36 35 88 3e d2 ed 03 3f 84 05 24 3f
       0.38078752 0.26603097 0.5153476 0.64070916
000080 9f 01 03 3f a6 f4 06 3f 9b 0e 5f 3f b6 54 a1 3e
       0.5117435 0.52717054 0.8713166 0.31509942
000090 cf e7 ab 3e d5 ef 1e 3f 53 af a7 3e ff b6 09 3f
       0.33575293 0.62084705 0.3275095 0.53794855
0000a0 03 8e 78 3f 71 93 6b 3f 14 a7 04 3f 61 71 05 3f
       0.9709169 0.9202185 0.5181744 0.5212613
0000b0 d0 91 a0 3e 00 d0 24 3e f3 a9 43 3e 8e 33 83 3f
       0.31361246 0.1609497 0.19107799 1.0250108
0000c0 64 c1 08 3f b5 68 d1 3f 3e 8e 90 3f af c8 49 3f
       0.5342009 1.6360079 1.1293409 0.78821844
0000d0 46 0e d3 3e fb c5 5b 3d 64 b6 11 3f 97 2f 81 3f
       0.41221827 0.053655606 0.5691893 1.0092648
0000e0 28 04 4b 3f b7 e3 02 3f 1f d5 93 3f 36 ff 98 3f
       0.79303217 0.51128715 1.1549414 1.1952884
0000f0 f0 f9 1f 3f 4f f8 c1 3e 96 38 5a 3e 6c 7f a8 3e
       0.6249075 0.37884757 0.21310648 0.32909715
000100 5e 70 d7 3d 60 d8 b6 3e 23 f8 3e 3f d3 99 1b 3e
       0.10519479 0.35711956 0.74597377 0.15195398
000110 a4 88 f7 3e 73 e1 30 3f 35 23 0a 3f 5a c0 7f 3f
       0.48346436 0.6909401 0.5395997 0.9990288
000120 9e 74 04 3f aa 7f 58 3f d3 a2 e8 3e 28 78 52 3f
       0.51740444 0.845698 0.45436725 0.82214594
000130 bf b6 5a 3f 16 df 08 3f e9 c8 21 3f ba 2a 26 3f
       0.854351 0.534654 0.6319719 0.64908946
000140 a1 ed 1f 3f a7 88 ed 3e 57 ac b0 3e 63 f9 27 3f
       0.6247197 0.4639332 0.34506485 0.6561491
000150 e5 a9 d1 3e d0 0b 75 3e dc 92 a4 3f 5c b7 58 3f
       0.40949932 0.23930287 1.2857318 0.84654784
000160 f6 92 20 3f 5d 64 2f 3f f1 fd 72 3f f3 3f 8c 3d
       0.62724245 0.6851252 0.94918734 0.06848135
000170 2f ef d6 3e 07 a6 01 3f ca 73 e8 3e 7a 8e fe 3e
       0.41979358 0.5064396 0.4540084 0.49718076
000180 d6 85 45 3f b4 c8 42 3f be a2 53 3e 7c 37 13 3f
       0.7715734 0.760875 0.2066755 0.5750654
000190 a4 fb 0f 3f 92 40 83 3f e2 72 1c 3f f4 19 a4 3e
       0.5624335 1.025408 0.611128 0.3205105
0001a0 4f 0f 47 3f 27 19 21 3f f2 e5 01 3f 22 fb 23 3f
       0.77757734 0.62929004 0.50741494 0.64055073
0001b0 d4 5d 9b 3e 98 df 00 3f 5b 11 c9 3e e6 72 2a 3f
       0.30345023 0.50341177 0.39271054 0.6658157
0001c0 1f 8c a8 3e da 98 7c 3f f8 11 7c 3e f7 73 e0 3d
       0.32919404 0.9867073 0.2461623 0.109596185
0001d0 ae f3 41 3e ac 63 06 3e 0e ab 00 3f 5a 5a 14 3f
       0.18940613 0.1312396 0.5026101 0.57950366
0001e0 17 9e 1c 3e d5 bc 56 3f 65 97 02 3e 7b b9 04 3e
       0.15294681 0.83881885 0.12753065 0.1296138
0001f0 24 e7 d8 3e ac 0f de 3e 89 7d 0b 3f 96 8a f8 3e
       0.42363846 0.43371332 0.54488426 0.48543233

net3.4.weight f4 [64, 128]
000000 76 f9 a1 bd 15 74 4e 3d f0 3d d9 bc 6d 8e 85 3d
       -0.07908909 0.050403673 -0.026518792 0.06521306
000010 a6 2f 32 be 59 80 45 be 5c 8f a2 bd db 28 be 3d
       -0.17400989 -0.19287242 -0.079375 0.09285136
000020 7f 48 bd bd 7c 58 bd 3c cd 99 a3 bd c3 76 30 3d
       -0.09242343 0.023113482 -0.079883195 0.04308201
000030 49 05 3c 3d 41 19 1c 3c 7b 8d d5 bd 15 0a 84 be
       0.045903478 0.009527505 -0.10427376 -0.25788942
000040 e1 2e ca bc 1b b3 42 be 3d 23 1e be 8a 06 00 3e
       -0.024680557 -0.19013636 -0.1544313 0.12502494
000050 13 38 32 3c 3b 6f ec 3c 0a 8b 5d 3d a5 17 15 be
       0.010877627 0.028861633 0.054087676 -0.14559801
000060 fe 2b 6d bb 8a 82 8f bb d9 18 00 be 87 33 53 bd
       -0.0036189551 -0.004379575 -0.12509479 -0.051562812
000070 0e f9 91 be 9f db 44 3c cc 43 ad bd 5e 30 fb bd
       -0.28510326 0.012015252 -0.08460197 -0.12265085
000080 e7 74 31 bd 6a f9 0a 3c cc 86 8f bd f9 a8 18 3e
       -0.043324377 0.0084823165 -0.07008132 0.14908208
000090 3c 85 05 be 53 1c 41 be f2 56 0b bd f7 dd 07 bd
       -0.13039106 -0.18858461 -0.034018464 -0.033170667
0000a0 d3 72 71 bd c2 44 56 be aa 8a 3e bd 20 e0 e8 bd
       -0.058947396 -0.20924667 -0.04651896 -0.113708735
0000b0 36 e9 35 bc dc 2c 67 3d 7a 3f 33 3d 18 63 90 3d
       -0.011102965 0.056439266 0.043761708 0.07050151
0000c0 1e 07 16 3d d6 8f 05 be 46 bf 72 bd a5 c2 cb 3c
       0.03662788 -0.1304315 -0.059264444 0.024873087
0000d0 04 5f 36 bc 5a 1b 05 3e 62 80 7e bd fd 16 bb 3d
       -0.011131052 0.12998715 -0.062134154 0.09135244
0000e0 cf 35 8d bd bd 99 5b 3d 41 8a ea 3d c0 22 b5 bd
       -0.06895029 0.053613413 0.11452151 -0.08844519
0000f0 85 e0 82 3b 26 ca 5c be c6 49 57 bd 1a 8c a1 3d
       0.00399405 -0.21561489 -0.05256059 0.078880504
000100 00 fe 46 3e 3e ef 3b be fb 78 89 be 57 41 85 bb
       0.19432831 -0.18352982 -0.26850113 -0.004066627
000110 bb 81 ab bd f7 ae a5 3d ac 76 b8 3d 45 6e 47 3c
       -0.083743535 0.080900125 0.0900701 0.012172286
000120 5f 84 fd bd 33 b7 c2 bd 5f ff 56 bd 0d a4 bd 3d
       -0.123787634 -0.09507599 -0.052489635 0.09259806
000130 95 6b 35 be fa 50 a0 bd f7 f9 26 bd 1e 68 e5 bd
       -0.1771682 -0.07827945 -0.04076573 -0.112014994
000140 27 69 41 bd d1 e0 53 3d ad 18 db bc 82 00 34 ba
       -0.04721942 0.051728074 -0.026745165 -0.0006866531
000150 d8 bc 1b bd 2f 7f 6d 3d 4b 29 42 3d 64 a6 ee bc
       -0.038021892 0.05798262 0.04740266 -0.029132076
000160 1e 22 3e 3d 84 93 eb bd 86 21 44 bd eb 30 8a 3c
       0.046419255 -0.11502746 -0.047883533 0.016869029
000170 60 4a ed bd 00 cd 58 3b 7f 6e ab bb 10 5a e4 3b
       -0.115864515 0.0033081174 -0.005231678 0.006968744
000180 1a ad ed 3d c1 da 4e be cb c9 a9 3d ae 4a 5b be
       0.11605282 -0.20200635 0.08290442 -0.21415207
000190 00 1b a2 bb 1f 10 0a be a5 23 da 3d c7 0f 66 3e
       -0.0049470663 -0.13482712 0.1065133 0.22466956
0001a0 85 b6 92 bd a0 40 95 3d d0 10 ed bd fa 0b 02 3e
       -0.07163719 0.07287717 -0.11575472 0.12699881
0001b0 b1 3d 08 be 21 9f 72 3d 57 1b 22 3e 3a c1 50 bc
       -0.13304783 0.05923379 0.15830742 -0.012741381
0001c0 81 cb 7d 3d cc dc e7 3d 1f 97 3f 3c 8e 5e 6c bd
       0.061961655 0.113214105 0.011693745 -0.057707362
0001d0 ef ac ff bd 34 c3 d0 3d e8 82 45 3e fa 9f 9b 3d
       -0.12484156 0.10193482 0.19288218 0.075988725
0001e0 79 22 1d bd 23 e8 65 3e e6 d2 1d 3d 5a 25 90 3d
       -0.038362954 0.22451834 0.038531207 0.07038374
0001f0 24 27 9a bd 81 f0 a6 bd 9f 6d c5 3d b9 c8 18 be
       -0.07526997 -0.08151341 0.09640049 -0.1492032
000200 74 31 57 3c c9 c1 16 3b 28 f6 21 bb b0 da 5b 3e
       0.013134349 0.0023003689 -0.002471337 0.21470141
000210 8e d4 44 3d ed 9e b3 3d 82 c4 0a 3c ba 9f 7d 3c
       0.04805427 0.08770547 0.008469703 0.015479976
000220 3a 60 8c 3c 0e 89 fb bd e7 68 06 3e 43 01 5e bd
       0.017135728 -0.122820005 0.13125955 -0.054200422
000230 ca 30 9d 3e c3 10 7a bd 58 5d 16 3e c9 b3 03 3d
       0.30701286 -0.06105114 0.14684045 0.03215388
000240 ff fa fe 3d ba e9 3a 3e e4 ad e3 3d 5e 76 08 3e
       0.124502175 0.18253222 0.111171514 0.13326403
000250 67 58 16 bc 60 5a 53 bc 4f 4f a2 3d 4e fc c3 bd
       -0.00917635 -0.012899965 0.07925283 -0.09569608
000260 40 09 89 3d e7 0e c8 3d a4 43 4d 3d 79 4f d9 3a
       0.066912174 0.097684674 0.050113335 0.0016579471
000270 36 e3 e9 3d a5 16 5f bd 20 09 2b bc 91 d9 2b 3b
       0.1142029 -0.054464955 -0.010439187 0.002622221
000280 11 98 0d 3e 59 51 3d be 63 77 07 3d 6b ec e2 3d
       0.1382754 -0.18488063 0.03307284 0.110802494
000290 d7 ce c9 3d bb 08 c6 3d dd 03 0a bd b8 b0 dc bb
       0.09853905 0.09669634 -0.03369509 -0.0067349337
0002a0 a3 9a 0b 3d f9 36 d9 3d c5 4b 29 3c e0 fd c3 3b
       0.03408302 0.10606188 0.010333006 0.005981192
0002b0 c2 61 a8 3d b0 77 be bd b8 22 33 3e 1e 5b 96 3d
       0.08221771 -0.09300172 0.17493713 0.07341598
0002c0 73 54 26 3d a9 8a 92 bb 1e 13 d6 3b ce c5 f9 bc
       0.04060788 -0.004472096 0.0065330407 -0.030489828
0002d0 c0 9c 91 3d d5 e2 4a 3e 0a 42 51 bd a0 a2 dd 3d
       0.07109976 0.19813092 -0.05108837 0.10822034
0002e0 69 50 b2 3d ba 82 65 3d b9 64 29 3e f3 e6 23 3d
       0.08706743 0.056032874 0.16542329 0.040015172
0002f0 9a de c2 bd 7a a8 f1 3c 04 ee 56 3d 86 b6 a1 3d
       -0.09515114 0.029499281 0.052473083 0.07896142
000300 1f ec 27 3c fe be 0d 3d d2 94 1c 3d a2 8b 8a bd
       0.010249167 0.034605972 0.038227864 -0.06764914
000310 d8 da af bc 76 e5 31 3a 55 13 af 3d fd 51 be bc
       -0.021466658 0.00067862065 0.08548609 -0.023232454
000320 d9 c6 cd bb 7c c7 29 bd 5f 15 61 bd ab fe 35 bd
       -0.006279808 -0.04145001 -0.05495202 -0.044432323
000330 65 3b 88 3d 72 af 2a bd 55 4d df 3c fb a9 91 bd
       0.066519536 -0.041671224 0.027258554 -0.07112499
000340 70 ca 20 3a 32 88 fb ba f2 a4 e5 3b d1 0c 87 3d
       0.0006133681 -0.001919037 0.0070081884 0.065942414
000350 3c 34 8c 3e 86 f4 13 3e 9a c5 1b 3c e3 97 20 3d
       0.27383602 0.14448747 0.009507561 0.03920735
000360 bc 44 33 3e 7c 51 41 3d 43 fb 0f 3e ee b5 4d bd
       0.17506689 0.04719685 0.14060692 -0.05022233
000370 33 c4 1d 3d ed d7 01 bd 5c 90 b7 bd d3 8d 93 bd
       0.03851719 -0.031700063 -0.08963081 -0.07204785
000380 e5 20 23 be 6c d8 c5 3d bb eb b7 bd 67 02 16 3e
       -0.15930517 0.0966042 -0.08980509 0.14649354
000390 a7 03 57 3e 62 71 5d bc d9 b2 d7 3c 01 bb cb 3d
       0.20997487 -0.013515802 0.026330398 0.099477775
0003a0 71 f9 0c 3d 82 30 8a 3d 66 4e 44 bd 27 d0 33 3d
       0.034417573 0.067475334 -0.04792633 0.04389968
0003b0 90 fb b1 bd e0 7e 1a 3c c8 f7 b6 bc d8 c4 e7 bd
       -0.0869056 0.009429663 -0.022334948 -0.11316842
0003c0 b8 55 88 3d 26 82 f7 3c b1 1e 86 bd 75 a4 bd 3c
       0.066569746 0.030213427 -0.06548823 0.023149708
0003d0 fb 85 89 3e e3 0c 16 be 08 f5 89 bd 35 96 6f bd
       0.2686003 -0.14653353 -0.06736189 -0.058492858
0003e0 0c ad a3 bc 9b 6a 05 3e 90 8f cc bd 21 7d 12 3d
       -0.019979976 0.13028948 -0.0998832 0.035763863
0003f0 0c 7e 65 3c ce 62 0e bd 0e 5a 5d 3d 6b c4 85 3d
       0.014007103 -0.034762196 0.05404096 0.065316044

net3.4.bias f4 [64]
000000 bb f4 9c bd 9c 28 aa bd b8 00 85 bd 22 29 1e 3d
       -0.07663866 -0.08308527 -0.06494278 0.038613446
000010 7e 75 a1 bd 38 79 4e bd 03 36 eb 3c 53 5a 3b 3d
       -0.07883738 -0.050408572 0.028712278 0.045740437
000020 80 09 4d 3d 7d 95 35 3d 8e 47 bd 3c 0d 4d 2d bd
       0.050057888 0.044332016 0.023105409 -0.04230981
000030 a7 57 49 bd f4 a7 a6 3c 02 da 7a bc c7 bb d4 3c
       -0.049155857 0.020343758 -0.015310766 0.025968445
000040 77 ad 36 bd 14 8b c3 bc 78 29 72 bb ef ec 0b 3d
       -0.044599023 -0.023870029 -0.0036950987 0.034161504
000050 73 ef 16 bd 1b fe 30 3d 2e 64 93 bc 76 d1 64 bc
       -0.03684945 0.043211084 -0.017992105 -0.013965955
000060 5d 48 0d 3d 86 42 3e bc 52 29 a1 bd d8 49 d8 bc
       0.03449284 -0.01161254 -0.07869209 -0.026402399
000070 7d 70 a7 3d 97 44 19 bd 15 85 a7 bd 1e 0c 3c 3d
       0.08175752 -0.037418928 -0.0817968 0.045909993
000080 ea c8 80 3d c6 36 a1 bd d2 1a 1d 3d 01 2f 84 bc
       0.06288321 -0.07871775 0.038355656 -0.016135694
000090 f1 c2 aa bc 54 05 44 3c ee cc 62 3d 09 39 04 bd
       -0.020844908 0.011964161 0.055371217 -0.032280955
0000a0 4c bf 88 3d 48 9f e7 3a 96 11 24 3d d9 a0 3d bd
       0.06677112 0.0017671371 0.040055834 -0.046295974
0000b0 33 6d d9 bc c2 ef 4c bd 94 e1 2f bb 0d ca f7 3c
       -0.026541328 -0.05003334 -0.0026837336 0.030247713
0000c0 fe 01 1e bd 25 7b e5 bc 4f 1b 70 bd 2e 71 98 3d
       -0.03857612 -0.028012821 -0.058619794 0.07443462
0000d0 d1 17 a7 ba dc a6 6b bd 19 c6 e3 bc 2c ef 1e bd
       -0.0012748187 -0.057532176 -0.027804421 -0.03880231
0000e0 2f da 43 3d cb a2 0e 3d 45 61 b3 3c ec 82 a3 3d
       0.047815498 0.03482322 0.021896968 0.07983956
0000f0 c6 c6 7b 3d fc ec 63 3d 76 47 93 bd e8 ea a1 3d
       0.061468862 0.055645928 -0.071913645 0.07906133

net3.5.weight f4 [64]
000000 20 57 8c 3f f1 df 7a 3f 98 b4 89 3f 05 bb 62 3f
       1.0964088 0.9799796 1.0758238 0.8856662
000010 63 63 7d 3f 42 af 7a 3f 03 20 8d 3f c2 26 89 3f
       0.9897978 0.9792367 1.1025394 1.0714953
000020 a1 53 7b 3f 2c 94 8d 3f e0 48 64 3f 72 56 6c 3f
       0.9817448 1.1060843 0.891737 0.92319405
000030 f8 99 6e 3f e8 9d 85 3f fd 68 75 3f d2 48 81 3f
       0.9320369 1.0438814 0.95863324 1.0100348
000040 17 56 64 3f b5 1e 55 3f 5e 4e 78 3f 11 10 8d 3f
       0.8919386 0.8324998 0.9699458 1.1020528
000050 f6 5b 79 3f b6 72 75 3f 95 e9 72 3f c2 05 70 3f
       0.97405946 0.9587816 0.9488767 0.93758786
000060 8b a3 85 3f d4 f0 58 3f 26 bc 8d 3f 4b dc 88 3f
       1.0440534 0.84742475 1.1073043 1.0692228
000070 44 0a 8f 3f b7 f4 80 3f ee 9e 81 3f e6 56 77 3f
       1.1175008 1.0074681 1.0126626 0.9661697
000080 ee 10 99 3f c2 76 82 3f 2c 58 88 3f 1d dd 81 3f
       1.1958292 1.0192492 1.0651908 1.0145603
000090 68 e6 79 3f f8 5e 8d 3f a6 4d 69 3f 43 80 81 3f
       0.976172 1.1044607 0.9113411 1.0117267
0000a0 45 98 6b 3f 88 52 8e 3f 31 2d 8c 3f 25 8f 66 3f
       0.9202922 1.1118937 1.0951291 0.9006217
0000b0 6b 62 7c 3f f9 8b 71 3f 58 31 74 3f 31 df 7e 3f
       0.98587674 0.94354206 0.9538779 0.99559313
0000c0 96 2d 97 3f e9 6a 74 3f 90 b3 8a 3f fd 1a 6e 3f
       1.1810787 0.9547563 1.0836048 0.9300993
0000d0 27 77 51 3f e5 4f 8e 3f db f3 7b 3f 1d 11 85 3f
       0.8182244 1.1118132 0.9841897 1.0395848
0000e0 ab f8 8b 3f 90 c0 8a 3f ef a7 82 3f 2f 76 77 3f
       1.0935262 1.0840015 1.0207499 0.9666471
0000f0 87 4f 68 3f 80 b0 73 3f 8d 1d 8b 3f 7f 3e 7e 3f
       0.9074635 0.9519119 1.0868393 0.9931411
