IR_MLP.pth (torch, 3390 bytes, 5 tensors)

model.0.weight f4 [16, 5]
0	0xbd8da879	-0.06916899
1	0xbd19514d	-0.03743105
2	0xbea579e1	-0.3231955
3	0xbf4d4d58	-0.8019614
4	0xbf31228d	-0.69193345
5	0x3ee72957	0.45148727
6	0xbe7cec1d	-0.24699445
7	0xbed87349	-0.42275456
8	0xbef20510	-0.47269487
9	0x3e64a0f6	0.22327027
10	0xbf807ce7	-1.0038117
11	0x3f0529c6	0.52016866
12	0xbed9acdd	-0.42514697
13	0xbe46cc49	-0.19413866
14	0xbce2f9f5	-0.02770708
15	0x3e293469	0.16523899
16	0x3d992dea	0.074794605
17	0x3f15f8de	0.58582866
18	0x3ed702be	0.4199428
19	0xbf08c201	-0.53421026
20	0x3ebdb5b9	0.37052706
21	0xbe8459e0	-0.2584982
22	0x3e9b2b3d	0.30306426
23	0xbea668c6	-0.3250181
24	0xbed8225c	-0.42213714
25	0xbf2884ac	-0.6582744
26	0xbc3ce7d5	-0.011529882
27	0xbe801a5e	-0.25020117
28	0xbed323a2	-0.41238123
29	0x3ee94dbd	0.45567122
30	0x3ebb3821	0.3656626
31	0x3f60f708	0.8787694
32	0xbe4e4a63	-0.20145564
33	0xbf1cb51b	-0.61213845
34	0xbea46bdc	-0.3211354
35	0xbdfc9e2f	-0.123348586
36	0x3f2636b1	0.649272
37	0x3ecdcb1e	0.4019403
38	0x3e99d81e	0.30047697
39	0xbdcd86d7	-0.10035484
40	0xbee1526b	-0.44008192
41	0xbee09d24	-0.4386989
42	0xbf1da951	-0.6158648
43	0x3e265c67	0.16246186
44	0x3f4bcba4	0.79607606
45	0x3f8ede0c	1.1161513
46	0xbe87df9f	-0.26537797
47	0xbec1c62d	-0.3784651
48	0xbf80fb07	-1.0076607
49	0x3ef0ceb1	0.47032693
50	0xbf86fd90	-1.0546131
51	0x3eb5866b	0.35454115
52	0xbed0a156	-0.4074809
53	0xbf6620b9	-0.8989368
54	0x3f1cdc6c	0.6127384
55	0x3e827c3b	0.25485405
56	0x3e69e18f	0.2283995
57	0xbf388579	-0.72078663
58	0xbf3e55a5	-0.74349433
59	0x3e1962a1	0.1497903
60	0x3f65334e	0.8953141
61	0x3edf3928	0.43598294
62	0xbdbb2763	-0.09138372
63	0xbe3d0548	-0.18459046
64	0xbef2402a	-0.47314578
65	0x3ea839df	0.32856652
66	0x3d1d2407	0.038364436
67	0x3ebff0e1	0.37488464
68	0x3efdf4e9	0.49600914
69	0xbf0bf78f	-0.5467462
70	0x3f34482a	0.70422614
71	0xbe273b44	-0.16331202
72	0x3eb72c05	0.35775772
73	0xbe08a2a4	-0.13343292
74	0xbe82f652	-0.25578552
75	0x3eaf7e99	0.34276274
76	0xbe8735e6	-0.2640831
77	0xbf1c9384	-0.6116259
78	0xbf2fb3fc	-0.6863401
79	0xbeef19d9	-0.46699408

model.0.bias f4 [16]
0	0xbc6c87e9	-0.0144367
1	0x3dfec577	0.12440007
2	0xbeac3e57	-0.33641312
3	0x3f33a6ff	0.7017669
4	0x3ecb896b	0.3975328
5	0xbecfe6e7	-0.40605852
6	0xbe75e6a8	-0.2401377
7	0x3de12d50	0.10994971
8	0xbebaeb0d	-0.36507455
9	0xbd74d84d	-0.059776593
10	0x3ef37ab4	0.47554553
11	0xbf6327db	-0.8873269
12	0xbeaa3819	-0.33245924
13	0x3f11c622	0.5694295
14	0x3ed318ba	0.41229802
15	0xbf1d2a94	-0.61393094

model.2.weight f4 [8, 16]
0	0x3a514b44	0.0007983933
1	0xbccb2269	-0.024796681
2	0x3de77813	0.11302199
3	0x3f0eb661	0.5574704
4	0x3ec00284	0.3750192
5	0xbdc9e704	-0.09858516
6	0xbe2c8754	-0.16848499
7	0x3d836e2f	0.064175
8	0x3ccb7a95	0.024838725
9	0xbe56a1d1	-0.20960166
10	0xbf254cc3	-0.64570254
11	0x3d0cc1cd	0.03436451
12	0xbf11b5fa	-0.569183
13	0x3ebd7c30	0.3700881
14	0x3ea1c4f9	0.3159559
15	0xbceba656	-0.028765839
16	0x3f3eeb6d	0.7457798
17	0xbf0bad4d	-0.5456131
18	0xbfaa60ad	-1.3310753
19	0x3e646035	0.22302325
20	0xbe69edff	-0.22844695
21	0xbf148eea	-0.5803057
22	0xbf28efb8	-0.6599078
23	0xbec06f2e	-0.37584823
24	0xbefe77df	-0.4970083
25	0xbfffc759	-1.9982711
26	0x3f9520e1	1.1650659
27	0xbf1b94d7	-0.60773987
28	0x3f8a7da9	1.0819598
29	0x3e697e0d	0.22801991
30	0xbe6b97f3	-0.23007183
31	0xbeb6c9d6	-0.35700864
32	0x3f0e662f	0.5562467
33	0x3ddd385b	0.108017646
34	0x3d61c1f0	0.055116594
35	0x3dcbe24e	0.099552736
36	0xbeffe51b	-0.4997948
37	0x3ecdfa9f	0.4023027
38	0xbef78c0b	-0.48349032
39	0xbe66a5be	-0.22524163
40	0xbf60198c	-0.8753898
41	0x3f2726b5	0.6529344
42	0x3f4678e2	0.775282
43	0xbfba3728	-1.4548082
44	0x3de5d980	0.112231255
45	0x3e3d6f87	0.18499576
46	0x3e9ed2d5	0.31020227
47	0xbf8c1c5f	-1.0946158
48	0x3f00b2de	0.5027293
49	0x3cfb6166	0.030686092
50	0xbf46f27d	-0.7771376
51	0x3ededb65	0.4352676
52	0xbe29b7a5	-0.16573961
53	0xbdf1edd8	-0.11812943
54	0xbebbde8e	-0.36693233
55	0xbd29b585	-0.041432876
56	0xbeac8add	-0.33699694
57	0xbd8494e9	-0.06473715
58	0x3e85c245	0.26124778
59	0xbf4c32e5	-0.7976516
60	0x3ecee8dd	0.40412036
61	0x3edc8595	0.43070665
62	0x3d95dbb3	0.07317295
63	0xbf029b16	-0.5101789
64	0xbeb084eb	-0.34476408
65	0x3e09622f	0.1341636
66	0x3e58f392	0.21186665
67	0x3e092403	0.13392644
68	0x3f2bfe60	0.6718502
69	0x3cc4c27f	0.024018524
70	0x3eeb3f61	0.45946792
71	0x3eb011d2	0.34388596
72	0x3f2cbf7b	0.67479676
73	0xbe01bc43	-0.12669472
74	0xbe42801b	-0.18994181
75	0x3f0457e9	0.5169664
76	0xbddfcc00	-0.10927582
77	0xbc706561	-0.014672608
78	0x3e02dd90	0.12779832
79	0x3f3d607b	0.7397534
80	0x3e1a2518	0.15053213
81	0x3d96c09a	0.073609546
82	0xbee4c98a	-0.44685012
83	0x3f0555d8	0.5208411
84	0x3ccd7783	0.025081402
85	0xbd92febd	-0.07177494
86	0xbe500d90	-0.20317674
87	0x3d97c877	0.074112825
88	0xbe971efc	-0.29515827
89	0x3e496217	0.19666325
90	0xbd81e751	-0.06342948
91	0xbec962da	-0.3933323
92	0xbbcf3833	-0.006323838
93	0x3d697868	0.056999594
94	0x3ec43dbb	0.38328347
95	0xbec170f0	-0.37781477
96	0x3dce5303	0.10074427
97	0x3d74804f	0.059692677
98	0x3d8287cd	0.06373558
99	0x3e152776	0.14565834
100	0x3e2bd235	0.16779406
101	0x3e6dd0a5	0.23224123
102	0xbdefb585	-0.11704544
103	0xbe03221f	-0.12805985
104	0xbe858112	-0.26075035
105	0x3f2c8a54	0.6739857
106	0x3e23bd9c	0.15990299
107	0xbe0efb84	-0.13963133
108	0x3dc57e9e	0.09643291
109	0xbd60868a	-0.054815806
110	0x3e90a4ad	0.28250638
111	0xbe981c64	-0.2970916
112	0xbd9cb4f8	-0.076517045
113	0xbe0d3d88	-0.13793004
114	0x3eb93796	0.3617522
115	0xbf10a277	-0.564979
116	0xbe3baa6c	-0.1832673
117	0xbe6f45ae	-0.23366424
118	0x3f1b2229	0.60599
119	0xbe8ae35e	-0.27126592
120	0x3f146ad1	0.5797549
121	0xbe7bee83	-0.24602704
122	0x3ee79ade	0.45235342
123	0x3e97bd06	0.296364
124	0xbcbcd83a	-0.023052324
125	0xbf364b2b	-0.7120845
126	0xbf2cda8b	-0.6752097
127	0x3ee3feef	0.44530436

model.2.bias f4 [8]
0	0x3e3ecc09	0.1863252
1	0x3ddda966	0.10823326
2	0xbc78d350	-0.0151871
3	0x3e5ebe3d	0.21752258
4	0x3e44d834	0.192231
5	0x3e06e5e5	0.13173635
6	0x3d6201c1	0.055177454
7	0x3e863f00	0.2621994

model.4.weight f4 [1, 8]
0	0xbee8f53a	-0.45499593
1	0x3fc740f6	1.55667
2	0x3f6bc72e	0.921008
3	0x3efda9a2	0.49543482
4	0xbf02161f	-0.50815004
5	0x3e981ae2	0.2970801
6	0x3e33f4df	0.1757388
7	0xbf4c189e	-0.7972506
