lin_model/model.pth (torch, 3380 bytes, 5 tensors)

model.0.weight f4 [16, 5]
000000 50 0d ef 3d 18 b4 29 3d 06 af 3c 3d 30 eb 31 bc
       0.11672461 0.041431516 0.046065353 -0.010859296
000010 10 b8 d0 be d0 15 c6 3c 12 0d 2b be 4a d3 fb bd
       -0.4076543 0.024180323 -0.16704205 -0.122961596
000020 d7 c1 4b be 93 62 81 3e 5a 97 e5 be 92 e1 fe 3d
       -0.19898163 0.2527052 -0.44842035 0.12445368
000030 4a 69 59 be 77 53 19 3e e3 34 86 3d d4 6b 4e 3d
       -0.21231571 0.14973246 0.06553056 0.0503958
000040 62 b8 2f 3e 4d f4 9c 3e 64 c6 7f 3e ae 40 9e be
       0.1716018 0.30655137 0.24978024 -0.30908722
000050 37 2d 9a 3e 0b 3c 09 bd 32 b8 ab 3e 60 f2 47 be
       0.3011262 -0.033504527 0.33538967 -0.19526052
000060 ef 9b 17 be b3 37 e5 be bd 2b a6 be 26 c5 9d 3c
       -0.14805578 -0.44769058 -0.32455245 0.019259047
000070 8b d1 7d be 0c 0a 38 3e d6 05 b1 bc d5 40 d6 3e
       -0.24786966 0.17972583 -0.021609228 0.41846338
000080 82 a8 a4 bd 03 e2 11 be 49 ed 23 3e b2 ba 26 be
       -0.08039953 -0.14246373 0.16008486 -0.16282156
000090 4f f9 88 3e 23 ee b1 3e 84 dd e4 3e b9 76 2e bd
       0.26752707 0.34751996 0.44700253 -0.04259369
0000a0 f8 99 b1 be 23 03 8b be 29 4f b4 be 17 d5 83 3e
       -0.3468778 -0.2715083 -0.35216644 0.25748512
0000b0 25 9c 34 3e 3f fe 01 3e b9 e2 d3 be 61 ec 97 3e
       0.1763769 0.12694643 -0.41383913 0.2967253
0000c0 35 1a cf be 09 e5 9e 3e d9 48 01 bf d7 6d 68 bd
       -0.40449682 0.31034115 -0.5050178 -0.056745376
0000d0 37 a0 30 3e b0 3a a9 be 03 74 11 3e a6 d0 ce bd
       0.17248617 -0.33052588 0.14204411 -0.1009839
0000e0 bb 6d 83 be 23 d4 ac be ff 9c b0 be 06 25 a4 3d
       -0.25669655 -0.33755597 -0.3449478 0.08014874
0000f0 71 74 92 3e b1 9f 80 3e 5b de 59 3c 6e 1b 2b 3e
       0.28604463 0.25121835 0.013297643 0.16709682
000100 65 ee 66 be 3c df 93 3e ed 4d 51 bd 91 8f 63 3e
       -0.22551878 0.28881252 -0.051099706 0.22222735
000110 19 25 df 3e 78 7d aa be db de 3e 3e 91 7c 75 bd
       0.4358299 -0.3329885 0.186397 -0.05993325
000120 93 4d ea 3e d5 86 75 3e 12 53 47 3e f9 6a 24 be
       0.4576231 0.23977216 0.19465283 -0.16056432
000130 37 99 a7 be 60 a2 92 be c8 3a c4 be 6c cd 7d be
       -0.3273408 -0.28639507 -0.38326097 -0.24785393

model.0.bias f4 [16]
000000 03 41 bc 3e 95 92 24 3d aa 16 79 be 21 d0 fe 3e
       0.3676835 0.040178854 -0.24325052 0.49768165
000010 10 55 53 3d 8b a0 db be ea 14 b7 3d 66 cd f9 bd
       0.051594794 -0.42895922 0.08939536 -0.1219738
000020 f8 69 96 be c7 9a 2f bd ec b0 b6 3e da 3f c3 be
       -0.29377723 -0.042872217 0.35681856 -0.38134652
000030 76 de a1 bd 9b dd c5 3e 49 d3 d5 3d 87 ac 87 be
       -0.07903759 0.38645634 0.1044069 -0.26498815

model.2.weight f4 [8, 16]
000000 72 19 9d bd 80 8a 83 bb 80 b2 47 bb b9 64 3f 3e
       -0.07670869 -0.004014313 -0.0030471385 0.18690766
000010 44 29 1f bd 46 58 30 be 40 1c e5 bc 91 56 36 be
       -0.038857713 -0.17221174 -0.027967572 -0.1780646
000020 95 cc b2 3d 86 f5 5f be d1 59 69 be ac 69 af 3d
       0.08730427 -0.21871004 -0.22788168 0.08565077
000030 f8 8d 06 be e7 6d 83 bd 8b f3 0d 3e 84 81 c3 bd
       -0.13140094 -0.064174466 0.13862436 -0.095461875
000040 3a b6 62 3b 53 8e 55 be 3f 97 80 be 8a 49 06 3e
       0.0034593479 -0.20855074 -0.25115392 0.1311399
000050 f0 43 0e 3e f3 52 54 be 90 62 97 be 9e 2b 10 be
       0.13893104 -0.20734768 -0.29567385 -0.14079139
000060 ba 22 a5 bd ca da 97 be 68 66 3a 3e a0 4b 21 3e
       -0.08063264 -0.2965911 0.18203127 0.15751505
000070 d3 26 84 3e ac df 20 3e 7b 9b 66 3e 20 45 1f bc
       0.2581087 0.15710324 0.22520249 -0.0097210705
000080 c8 ed b3 bd 85 a0 14 3e b0 dd c3 3d 47 cf ff 3b
       -0.087855875 0.14514358 0.09563768 0.007806692
000090 45 4b 08 be 60 00 50 bb 89 9a 12 be 81 2c 6a 3e
       -0.13309963 -0.0031738505 -0.14316763 0.2286854
0000a0 14 72 e1 bd 1f 6a 54 3e be 8a 98 3d 71 f7 60 be
       -0.11008087 0.20743607 0.07448338 -0.21969391
0000b0 97 45 f0 3c 3d 1c 8c 3e 0a 9e 6c 3d 8e 93 1e be
       0.029330058 0.27365294 0.057767905 -0.15485975
0000c0 fd 77 5f 3e cd db c3 3b 44 90 9e 3d d9 a4 84 3e
       0.21823116 0.00597713 0.0774236 0.2590702
0000d0 09 91 e3 bd c2 75 48 3c 1f 43 c9 bb 55 22 03 3e
       -0.11111648 0.012235107 -0.0061420347 0.12806065
0000e0 f3 18 23 3d 08 fb d3 bd 34 ca 18 be 5d 4c 9c 3d
       0.039818715 -0.10350615 -0.14920884 0.07631753
0000f0 0a b0 6d bd 02 6b 6b 3e 9d 4e a3 bd dd 3d e9 3a
       -0.058029212 0.22990039 -0.07973979 0.0017794926
000100 45 2d 78 be 02 99 7a 3e 91 14 a7 3d e9 15 cb 3d
       -0.24236019 0.2447243 0.081582196 0.099162884
000110 ba 4d 4d 3e 10 7f a5 3e 0e 90 43 3e b7 c9 b3 3d
       0.20049182 0.32323503 0.19097921 0.087787084
000120 4e e2 2b 3e 20 9e 21 3e a7 ba 69 3e b5 fe 36 3e
       0.16785547 0.15782976 0.22825108 0.178706
000130 f0 d0 02 3d 54 82 27 be ba d9 42 3e b1 db 64 3e
       0.03193754 -0.1635831 0.19028369 0.2234943
000140 49 fb 04 bd 53 d7 41 3e 00 81 b5 bc 7c 56 9b 3e
       -0.032466207 0.18929796 -0.022156239 0.3033942
000150 77 14 78 3e 10 d1 1c bd ff d1 cf bd 38 71 05 3e
       0.24226557 -0.038285315 -0.101474755 0.13031471
000160 85 55 6a 3d 1c 50 1d bc f9 0c 51 be 59 cd 13 3e
       0.057210464 -0.009601619 -0.20415105 0.14433803
000170 7b 2e a6 3d 23 60 64 bc d7 b7 96 3e c9 a8 2f bd
       0.08114334 -0.013938936 0.29437134 -0.042885575
000180 36 7f 89 bd 98 04 89 bc 95 24 38 3e 7a 43 0a 3e
       -0.06713717 -0.016725823 0.17982705 0.13502303
000190 55 a5 76 3e 83 52 1e 3e 09 22 f8 bd 8a 25 de bd
       0.24086507 0.15461163 -0.12115867 -0.10847004
0001a0 db cb 11 3d f5 80 c9 3d 5c cc d4 bc fd f4 fa 3d
       0.035594802 0.0983905 -0.025976352 0.12253759
0001b0 c8 4d 9f bd 62 c5 66 bd ad 75 df 3d e1 f1 83 be
       -0.077785075 -0.056340583 0.10911117 -0.25770476
0001c0 e7 a9 bb bc 4f ab b9 bd 14 49 96 3e 0e d4 68 be
       -0.022908164 -0.09065878 0.2935263 -0.22737142
0001d0 0b 35 3c bd 72 7d 45 3d d4 7d 09 3e ad ce b2 bc
       -0.045949023 0.048215337 0.13426906 -0.021827066
0001e0 9d b4 12 3d 6d b2 16 3d b0 63 95 3e 77 8c 2b be
       0.035816777 0.036791254 0.29177618 -0.16752802
0001f0 fa a5 e2 bc 6c 18 8b be cd f2 4d 3d d2 67 14 be
       -0.027667034 -0.2716707 0.05028038 -0.1449273

model.2.bias f4 [8]
000000 e3 21 11 be 57 b5 46 3e 20 3d 94 3d 32 6f 8a 3d
       -0.14173083 0.19405113 0.07238221 0.0675949
000010 ce 3f 05 bd f2 fc 0a 3e 8f 4d 89 3b 4f 13 64 3e
       -0.032531552 0.13573053 0.004190154 0.2227299

model.4.weight f4 [1, 8]
000000 98 78 37 be 55 2a ae 3e 20 01 77 3e a4 48 4d 3e
       -0.17917097 0.34016672 0.24121523 0.20047241
000010 ca 8e 48 be 08 69 4a 3e 37 e0 e4 3b 9e 5b c7 be
       -0.1958572 0.19766629 0.0069847363 -0.38937086
