data_preprocessing/IR_model.pth (torch, 275644 bytes, 40 tensors)

net.0.weight f4 [64, 3]
000000 73 5a 50 be 08 63 c9 3d 7b ce d1 be bc e2 2c 3e
       -0.20347004 0.09833342 -0.40977845 0.16883367
000010 e0 5b 9c 3e 50 7d a7 3d ef fc a2 be d1 b0 ea be
       0.30538845 0.08178198 -0.31833598 -0.45838025
000020 ed 71 6c be c2 e8 aa 3b 19 a2 0a 3e 49 1d 8f 3e
       -0.23090334 0.005215735 0.13538398 0.2795203
000030 b9 2e 0c be d6 2d d8 bd 43 39 5f be cd ff 63 3e
       -0.13689698 -0.105556175 -0.21799187 0.22265549
000040 ef 73 a9 bc ca 79 82 3e a7 61 3f bc 50 e0 40 3e
       -0.020685164 0.25483543 -0.011680997 0.18835568
000050 cb 21 4b be a2 0b e0 3e d8 39 da be 4e 61 68 bc
       -0.1983711 0.43758875 -0.42622256 -0.0141833555
000060 92 96 ee 3e d8 08 01 bf 6f 95 f1 3d 6d 35 0f 3f
       0.4659925 -0.5040412 0.1179608 0.55940896
000070 5b 6e da 3e 29 1a 64 3e 4c b6 ef 3e d6 04 49 3e
       0.4266232 0.22275604 0.4681877 0.19630751
000080 9c 39 bd be ab 92 b5 be 88 bd 10 bf 49 6f 00 bf
       -0.36958015 -0.3546346 -0.565392 -0.5016981
000090 49 ac f1 3e da 8a 4a 3e 28 ab d6 bd 1f 52 c0 3a
       0.47201756 0.1977953 -0.10481864 0.0014672911
0000a0 47 74 dc 3e 29 e5 0b bf 76 42 58 be ff 75 c8 be
       0.43057463 -0.54646546 -0.21119103 -0.39152524
0000b0 0d 31 74 3e 1d 47 70 be 57 8e b8 bd 53 fb b7 3e
       0.23846836 -0.23464628 -0.09011524 0.35933933
0000c0 9c 8b ad 3e d6 e6 dd be b3 42 92 3e 25 1b d9 3e
       0.33895576 -0.43340176 0.28566512 0.42403522
0000d0 4e 43 01 bf 08 16 db 3e 55 75 ab 3e 91 bc ef be
       -0.50493324 0.42790246 0.33487955 -0.46823552
0000e0 37 ab 0f bf 40 2c f1 be 46 2b be 3e 3e 30 ac 3e
       -0.5612063 -0.47104073 0.3714239 0.33630556
0000f0 0f 70 89 3e cf 6f e4 3b f5 ba 06 3f b6 be 07 3c
       0.26843306 0.0069713364 0.52629024 0.008285215
000100 f5 4b ed 3e 34 2b 9b 3e 85 91 bd be 00 86 b2 bd
       0.46347013 0.303064 -0.37025085 -0.08716965
000110 c2 65 03 bf 50 57 6a bd cb 65 d6 3e 0e 46 2d 3e
       -0.51327145 -0.057212174 0.41874537 0.16921255
000120 3f 2d 5d 3e 42 d1 b8 3e 7d ca 33 be ab 0e 32 3d
       0.21599291 0.3609715 -0.17557712 0.04347102
000130 71 7f 8c be 1d 76 0c bf 36 63 86 3e 46 2a a5 3e
       -0.2744098 -0.54867727 0.26247567 0.32258815
000140 59 db b1 be 23 be e3 be a0 cd a2 3e 26 25 af be
       -0.3473766 -0.44481 0.31797504 -0.3420803
000150 e5 c1 c4 be 7d 5c e7 3e 8b 19 ad 3d 96 a0 8f 3d
       -0.3842918 0.4518775 0.084521376 0.07013051
000160 79 e1 c9 3e 27 70 1d be 7b cb 81 3e 83 59 c2 3e
       0.39429834 -0.15374814 0.25350556 0.37958917
000170 bb b8 0c bf 6f 0a eb 3e 69 2e d0 3e 0b 90 ff be
       -0.54969376 0.45906398 0.40660408 -0.49914584
000180 5d e7 04 bf 21 51 2a be fc a7 9d 3e 84 b9 a1 3e
       -0.5191553 -0.1663251 0.30792224 0.3158685
000190 76 ce c3 3e 4c 1b e3 3e d3 1b da be 82 cf 01 bf
       0.38243455 0.44356763 -0.42599353 -0.50707257
0001a0 4c c1 12 3f aa dc 96 be d0 91 ac 3e d0 e1 2e be
       0.573262 -0.29465228 0.33704996 -0.17078328
0001b0 c1 f2 10 3e 58 cc af 3e 13 f0 e9 be 4c 0a f3 bc
       0.14155103 0.3433559 -0.45690975 -0.029667996
0001c0 65 22 10 bf 01 30 f3 3e 3c 2d 9d 3e 41 3c 90 3d
       -0.5630248 0.47497562 0.30698574 0.070427425
0001d0 aa 78 f0 be 33 c4 08 be 7b 00 07 3f 7d aa 21 3e
       -0.4696706 -0.13356094 0.5273511 0.15787692
0001e0 cd f4 b7 be 9d 83 84 be b8 90 0c bf f3 e9 e0 3e
       -0.35928956 -0.25881663 -0.54908323 0.4392849
0001f0 5b 92 48 3d aa 77 e0 be 54 07 02 bf 34 f7 ec bd
       0.0489677 -0.43841296 -0.5079243 -0.11570588
000200 e6 45 9c bd 7b 82 cb be 66 f0 05 3d 4e 00 97 be
       -0.076305196 -0.39747986 0.032699965 -0.2949242
000210 6c 29 ee 3e 8b 75 c9 ba d7 9b 0c 3d 6b c4 d7 be
       0.46515977 -0.0015370114 0.034328308 -0.42142043
000220 f4 f1 52 3e a6 80 bd be ed 65 3b be 56 09 88 be
       0.2060011 -0.37012213 -0.183006 -0.26569623
000230 a7 17 30 bd ad e3 e4 3e 8e 19 bb be 59 a5 af 3e
       -0.042991307 0.44704953 -0.36542934 0.34305838
000240 47 18 29 be a5 66 e8 3e 09 db aa 3e c5 23 f1 be
       -0.16513167 0.45390812 0.33370236 -0.47097602
000250 f3 5f 06 3f f7 c6 9c be 21 68 6e 3e 63 46 b8 bd
       0.52490157 -0.30620548 0.2328191 -0.089978
000260 a0 f3 fd 3e 38 08 ca be e6 bb bc be 33 09 61 3e
       0.49599934 -0.39459395 -0.36862105 0.21976165
000270 e5 0b 53 3e b8 0c cb 3c 33 08 be 3e 8c a6 31 3e
       0.20610006 0.024786338 0.3711563 0.17348689
000280 ab 72 bf be 4e 54 75 bd b0 05 d3 3e 14 71 ee 3d
       -0.37392172 -0.059894852 0.41215277 0.11642662
000290 33 12 d1 be 4d b9 6d 3e b5 f1 9f be 73 d0 0a 3f
       -0.40834197 0.23215218 -0.31239095 0.5422432
0002a0 f5 04 c4 3e ff 9c c2 bc f1 e9 df be 18 4f 93 3e
       0.38285032 -0.023756502 -0.4373317 0.2877128
0002b0 28 d2 65 bd eb c5 5d 3e b2 45 30 bd 43 af 63 be
       -0.056108624 0.21657531 -0.043035217 -0.22234826
0002c0 5f 97 c6 be c5 59 24 be 97 d5 6f 3e 7e 64 09 3f
       -0.38787362 -0.1604987 0.23421322 0.53668964
0002d0 de ce 92 bd f1 b2 62 be c3 c2 2a 3e 27 ad 32 3e
       -0.07168363 -0.22138573 0.16675858 0.17448865
0002e0 51 4a b0 ba 90 b7 01 be 74 5b 88 3e e4 0b b2 3d
       -0.0013449882 -0.1266768 0.26632273 0.08693674
0002f0 48 1c 40 3d 9e 83 00 3f 8a 1c 04 3f 21 ad 0a 3f
       0.04690197 0.5020083 0.5160605 0.54170424

net.0.bias f4 [64]
000000 9b 1e d0 bd 92 83 ac be d3 b7 29 be 54 c6 a4 3e
       -0.101620875 -0.3369413 -0.1657403 0.32182562
000010 94 17 85 be be 8a 46 bd 0c 25 f7 3e cb a0 07 3f
       -0.2599455 -0.04847216 0.48270452 0.52979726
000020 46 a2 7d 3e 9a 21 ef be c1 e6 a9 3d 88 ae be bc
       0.24768934 -0.46705323 0.08295966 -0.023276582
000030 10 34 13 bf c0 f0 92 be fc 85 e9 3e 74 ce 0b 3f
       -0.57501316 -0.28699303 0.45610034 0.546119
000040 54 af c4 bd c2 b3 92 be 72 03 c7 bd 06 48 16 bc
       -0.09603754 -0.2865277 -0.09717454 -0.009172445
000050 14 7e 08 bf 76 45 bb 3e dc e1 0e bf 57 a0 10 3f
       -0.5331738 0.36576432 -0.55813384 0.5649466
000060 23 65 73 3e 07 da 85 3e 4a 42 82 3e 88 77 f1 3e
       0.2376905 0.26142904 0.254412 0.47161508
000070 c1 b4 ef 3e 62 db 6f be 83 98 30 be c1 b3 af be
       0.46817592 -0.23423532 -0.17245679 -0.3431683
000080 5f ca da bd 50 6a 71 be 0b 13 0a bf 75 23 6c 3c
       -0.106831305 -0.23575711 -0.5393531 0.0144127505
000090 4a 38 7a be 66 2a ba 3e 6b 48 86 3e 52 ec e9 3e
       -0.24435535 0.36360472 0.26227126 0.4568811
0000a0 cc 71 39 3e ab 53 c4 3e 75 b1 5b 3e 6d 62 06 3d
       0.18109816 0.38345084 0.21454413 0.03280871
0000b0 17 52 88 be ba c5 b4 3e f3 2f 07 bf 8f 68 b9 3e
       -0.2662513 0.35307103 -0.5280754 0.36212584
0000c0 b3 0d 06 3f 93 61 a8 be 36 c3 11 bf ee bc 0b be
       0.52364653 -0.32886943 -0.56938493 -0.1364629
0000d0 c8 c2 bb 3e 8d 3a 06 3f 24 b0 91 be 54 be 02 3e
       0.36672044 0.5243309 -0.28454697 0.12767917
0000e0 e6 62 04 3f 9e e2 c9 be ee 60 b9 be 54 ee 23 be
       0.5171341 -0.39430708 -0.36206764 -0.16008884
0000f0 59 d1 c5 be b5 ad 89 be be 0b 60 3e 07 c9 35 3d
       -0.38636282 -0.2689034 0.2187948 0.044381168

net.2.weight f4 [32, 64]
000000 de 56 d5 3d fa de ad bd d0 c8 79 3c 80 c6 86 bb
       0.10416959 -0.08489795 0.015245631 -0.0041130185
000010 52 18 d6 bd d2 5a a6 bd 5e 50 cb bd f8 a2 c1 bd
       -0.104538575 -0.08122791 -0.09927438 -0.09454912
000020 de 82 af 3d 48 ba 62 3d 58 40 e6 3d 82 15 92 3d
       0.08569883 0.055353433 0.11242741 0.071330085
000030 e2 14 ce bd 80 ae d3 bc 58 08 b4 bd 50 66 3e bc
       -0.10062577 -0.025840044 -0.08790654 -0.011621073
000040 40 50 d2 bd e8 be cf bd f0 97 33 3c 38 70 2e bd
       -0.10269213 -0.10143834 0.010961518 -0.04258749
000050 40 3a 05 bc 44 84 a7 3d 74 18 87 3d 2a 3a bf 3d
       -0.008131564 0.081795245 0.06596461 0.09337266
000060 60 43 0b bd cc e0 72 bd e0 ae 75 3c 30 fa 79 3d
       -0.0339998 -0.059296414 0.014995307 0.061029613
000070 18 87 30 3d 54 5e 92 bd 44 7f e9 bd 60 c1 bd 3b
       0.043097585 -0.07146898 -0.11401227 0.0057908744
000080 0a 9d da 3d 32 d7 da 3d c0 cc 2d 3b 00 44 33 bc
       0.10674484 0.106855765 0.0026519746 -0.010941505
000090 c8 4e d5 bd 90 43 02 3d d8 1e 7b bd 14 8d 52 3d
       -0.10415417 0.031802714 -0.06130871 0.051404074
0000a0 28 e2 bd bc e0 7b a1 3d 76 ba cc bd a0 ed 2c 3d
       -0.023179129 0.078849554 -0.09996502 0.042218804
0000b0 44 ef 63 3d 68 7e 29 3d 36 05 b5 bd 4c 2b fb bd
       0.055648103 0.041380316 -0.088388845 -0.122641176
0000c0 4c d7 06 3d 8c 3a 38 bd dc 9d 59 3d 4e c0 90 bd
       0.032920167 -0.04497771 0.053129062 -0.07067929
0000d0 32 2b e2 bd 7c 02 0c bd 2e 86 d0 bd 6c 2b ce bd
       -0.11043395 -0.034182057 -0.10181843 -0.10066876
0000e0 10 3a 6f bd f0 f4 8b 3d 60 fe 17 bd 00 87 a7 3b
       -0.058404982 0.068338275 -0.037107825 0.005112529
0000f0 30 82 b2 3c a2 1f e2 bd a0 ee bf 3b c8 1b 5b bd
       0.021790594 -0.1104119 0.0058573037 -0.05349329
000100 58 17 8d 3d 9a 36 d6 bd ce ca dd bd 74 d6 70 3d
       0.06889218 -0.10459633 -0.108296975 0.05879827
000110 52 b3 95 bd 20 83 99 bc ce 7a ba bd 8a 76 a0 3d
       -0.07309593 -0.018739283 -0.091054544 0.078351095
000120 20 3b b5 bb d8 99 9c bd e8 63 73 bd e8 aa ef 3c
       -0.00553073 -0.07646531 -0.05942145 0.0292563
000130 16 72 f7 bd 68 8d 8a 3d b4 3e 57 3d 7c b2 92 bd
       -0.12082307 0.06765252 0.052550033 -0.071629494
000140 00 1c 10 3c f0 07 91 3c 84 ac 4f 3d b6 02 83 3d
       0.008795738 0.01770398 0.050701633 0.063970014
000150 64 fb f0 3d 20 11 68 3d 40 06 2e 3c fa 2c cd bd
       0.11766699 0.056656957 0.010621607 -0.10018344
000160 44 c0 18 3d 10 ad 90 3d f0 5d d4 bc ec 93 26 3d
       0.037292734 0.07064259 -0.0259237 0.040668413
000170 00 74 b7 3a 58 d3 fe bd 50 3d 58 3d 14 09 8b 3d
       0.0013996363 -0.12442654 0.052792847 0.06788841
000180 0c 20 bb 3d 80 34 10 bc c0 70 39 bb fc 3f 68 3d
       0.09136972 -0.0088015795 -0.0028295964 0.056701645
000190 e0 46 32 3d a8 cf 3c bd 5e 41 eb 3d 78 73 f0 3d
       0.043524623 -0.046096474 0.11487077 0.11740774
0001a0 b0 ac 62 3d 7c 92 67 3d 88 98 9c 3c 52 f3 e7 3d
       0.05534047 0.056536183 0.019115701 0.113257065
0001b0 46 fa 96 bd 20 86 8a bc 88 de d1 3d 18 c6 fb 3d
       -0.073719546 -0.016909659 0.102475226 0.12293643
0001c0 88 f2 c0 bc 60 84 05 3c bc 42 cb 3d 80 69 ec bd
       -0.023553148 0.008149236 0.09924838 -0.1154356
0001d0 00 66 e6 bb 36 23 d8 3d a2 6b e6 3d ca eb fa bd
       -0.0070312023 0.10553591 0.11250998 -0.122520044
0001e0 2e 45 a1 3d 5a b3 e4 3d bc 3c d8 3d be 5a c3 3d
       0.07874523 0.11167021 0.10558459 0.09538792
0001f0 14 f4 0f bd 48 81 50 bd f8 da ce 3d 0e e6 f3 3d
       -0.03514488 -0.050904542 0.10100359 0.11909114
000200 94 6a 34 bd ce 84 8e bd a0 84 de bb 14 f1 40 3d
       -0.044046953 -0.06958924 -0.0067907125 0.04710491
000210 34 4c 5a 3d 84 f6 92 bd e0 58 fe bc 44 ac 47 3d
       0.05329533 -0.071759254 -0.031048238 0.04874827
000220 e0 5a 0b 3d d4 c7 b5 bd 58 f3 21 bd ac 6d b5 bd
       0.034022212 -0.08876005 -0.03953871 -0.08858809
000230 38 f0 88 3c 60 80 1f bd 78 4f 89 3d 70 1a 40 3d
       0.016716108 -0.038940787 0.067046106 0.046900213
000240 d8 40 d2 bd b6 5c a4 3d 4c 0e 3c 3d e2 90 96 3d
       -0.10266274 0.08025496 0.045912072 0.07351853
000250 ca a5 d5 bd 60 69 08 3d c8 8d ac bd 10 13 8d 3d
       -0.104320124 0.03330362 -0.0842548 0.068884015
000260 6c 3f 2f 3d de 44 93 3d 40 23 62 3b 24 54 46 3d
       0.042785093 0.0719087 0.0034505874 0.048420087
000270 e0 f9 f9 bd d0 9d d6 bc 40 27 50 3b 90 a3 0d bc
       -0.12205863 -0.026198298 0.0031761676 -0.008644953
000280 72 80 95 3d 68 c4 1f bd c0 c7 9f 3c 84 62 26 bd
       0.072998896 -0.039005667 0.019504428 -0.040621296
000290 00 d6 ba bd 40 84 c6 3c c0 ff 1b 3d 40 6f b9 3b
       -0.091228485 0.024232984 0.0380857 0.005659014
0002a0 a2 f9 b1 bd b8 87 f9 3d 18 6f 8d 3c 9c 6f 43 bd
       -0.08690192 0.121840894 0.017264888 -0.04771386
0002b0 00 cb 35 bc 60 c9 38 3c 40 1b cf bd 04 3c 60 3d
       -0.011095762 0.01127848 -0.101126194 0.054744735
0002c0 24 9e bd bd 40 1c 82 bc d0 dd 8c 3d 32 c2 83 3d
       -0.092586786 -0.015882611 0.06878245 0.06433524
0002d0 e0 3f cb bb 90 6a a4 3d c8 44 e5 bd de ef dc bd
       -0.006202683 0.08028138 -0.111947596 -0.107879385
0002e0 e0 42 b1 3b 9c e8 76 bd 7c 02 64 bd e2 85 8d 3d
       0.0054095834 -0.060280427 -0.05566643 0.06910302
0002f0 bc da 65 bd 00 6a e6 ba 40 af 2e 3b ae 3f a6 3d
       -0.056116804 -0.0017579198 0.002665475 0.08117615
000300 40 cf 9e bc da 33 97 bd aa dd e8 bd 2e 59 f9 bd
       -0.019385934 -0.07382937 -0.11370404 -0.12175213
000310 0e 0b ec 3d 92 bd bb bd d0 a4 5d bd 3e a6 9d 3d
       0.11525546 -0.09167017 -0.054112256 0.07697724
000320 b4 91 c8 bd d0 63 aa bd 5c ab 56 3d 04 ac ec bd
       -0.09793416 -0.08319819 0.052409515 -0.11556247
000330 c4 2e c2 3d e6 22 9a 3d 18 c0 0b bd 20 a9 cc 3c
       0.09481576 0.075261876 -0.03411874 0.024982989
000340 88 6a cd 3d 80 8d 6e bd c2 fa 85 bd e8 ba 08 3d
       0.10030085 -0.058240414 -0.06541969 0.033381373
000350 88 49 b9 3d 6c 11 ea 3d 9a 47 f8 3d 26 43 da bd
       0.09047228 0.11429104 0.12123032 -0.10657339
000360 a0 b5 c8 bd f0 bb 37 3c 90 2a 2f bd 2a 03 ee 3d
       -0.09800267 0.011214241 -0.0427652 0.11621697
000370 98 0f a7 bd 40 a6 ec bc b0 11 c1 3c d2 69 d5 3d
       -0.08157271 -0.028887868 0.023568004 0.10420574
000380 b6 fd df 3d 64 2e 46 bd fe 04 d4 3d 80 b9 0e 3d
       0.109370634 -0.048384085 0.10352515 0.034844875
000390 40 ed 9f 3d 68 7c ed 3d 40 00 5c 3d e4 23 18 3d
       0.07808924 0.11595994 0.053711176 0.037143603
0003a0 a0 f7 3a bc 90 5e eb bd 28 a2 ec 3d 5c 1e e5 3d
       -0.011411577 -0.11492646 0.11554366 0.11187431
0003b0 80 c2 c8 3b 4c a5 85 bd 60 61 91 bc 78 51 5f 3d
       0.006126702 -0.065256685 -0.017746627 0.054521054
0003c0 0c a4 0d 3d 66 0a cc bd 8c 40 83 3d a0 f4 a0 bb
       0.034580275 -0.09962921 0.06408796 -0.004911974
0003d0 1c 93 26 bd 1c 3e 29 3d 5e 3a af bd 62 cb be 3d
       -0.04066764 0.041318998 -0.085560545 0.09316136
0003e0 3e 8a 9c bd 62 58 b4 3d 54 ac 9f 3d 4a ae d3 3d
       -0.07643555 0.0880592 0.07796541 0.103359774
0003f0 30 80 2d bd 68 1c b8 bc 78 55 33 bd 2c 8c a1 bd
       -0.042358577 -0.022474483 -0.04378268 -0.07888064

net.2.bias f4 [32]
000000 30 5a 2f 3d 06 bc d3 3d bc 22 8e bd 10 a9 25 3c
       0.04281062 0.10338597 -0.06940219 0.010111108
000010 40 99 d2 bb fa 7e cb 3d f4 a5 4d bd de 41 8c 3d
       -0.00642696 0.09936328 -0.050207093 0.06848501
000020 1c 0d ee bd 60 9f 3b bc 72 49 a6 3d 84 5d 78 bd
       -0.11623594 -0.011451572 0.08119477 -0.06063606
000030 c4 83 f3 bd 70 b4 9e 3c 88 a9 89 3d 40 3e a1 3c
       -0.11890367 0.019373149 0.06721789 0.019683003
000040 ae fc 91 bd 6a 8d d9 3d be d5 a7 3d 00 96 ab bd
       -0.07128273 0.10622676 0.08195065 -0.083782196
000050 96 4c f0 3d f2 eb fb 3d cc 78 b8 3d b0 a8 a5 bd
       0.117333576 0.12300862 0.09007415 -0.08088815
000060 b8 a7 3a 3d ec 08 38 bd cc 82 0d 3d 14 e8 9a 3d
       0.045570105 -0.044930384 0.034548566 0.07563797
000070 f4 f3 23 3d 92 c6 ec bd a4 d2 58 bd 8e 30 b7 bd
       0.040027574 -0.11561312 -0.052935258 -0.08944808

net.4.weight f4 [1, 32]
000000 93 23 d3 bd 4e dc 2e be 4b 99 8a bd 47 e5 c8 bd
       -0.103095196 -0.17076227 -0.067675196 -0.09809356
000010 ec 32 2e 3e 51 f2 af bd ab 0a 71 3d 6b 03 ed bb
       0.17011613 -0.0859114 0.058848064 -0.0072330735
000020 5a 0e a4 3d ba 06 7f bd 8c b2 82 3d 45 34 33 bd
       0.0801055 -0.062262274 0.06381711 -0.04375102
000030 1d 3f 8e 3c 01 79 4a 3d 23 66 84 bd 02 a1 33 3d
       0.01736408 0.049431805 -0.064647935 0.04385472
000040 09 ab fc 3c 19 49 0b 3d eb cb b4 3d 64 7b fc bd
       0.030843275 0.03400526 0.08827957 -0.123282224
000050 0f db a2 bd bd 05 21 3e ea 77 9f bd 95 3b ff bd
       -0.07951938 0.15724845 -0.07786544 -0.12462536
000060 13 15 de 3d eb 26 e2 bd 79 6f 9b bd 64 0a 1f be
       0.10843863 -0.11042579 -0.07589621 -0.15531307
000070 12 45 9d bd 3f 30 83 bd c3 ca b9 bd a7 c0 21 3e
       -0.0767919 -0.064056866 -0.09071877 0.15796147

net3.0.weight f4 [128, 3]
000000 98 74 d3 3e 01 3b 3b be 62 6a 07 3f 88 2c cf 3e
       0.4129989 -0.18284227 0.528967 0.40463662
000010 6c 77 0d bf 8f 15 86 be e6 cc 00 3f 49 7c ce be
       -0.5526035 -0.26188323 0.5031265 -0.40329197
000020 66 fd a1 3e 2d 59 0c be 4a 51 70 3e db 3d 52 be
       0.3163864 -0.13705893 0.2346851 -0.20531408
000030 ae 1b 68 3e 2f fe d2 3e 2f 4f e0 3e f1 c1 94 3e
       0.22666809 0.41209552 0.43810412 0.29054216
000040 03 2d c4 be dd 91 bf be e1 17 55 bd 16 1b 1c be
       -0.3831559 -0.37415972 -0.052024726 -0.15244707
000050 69 a1 6a be 0c 00 b3 be d2 26 c0 bd 38 77 c6 3e
       -0.22913136 -0.34960973 -0.093824044 0.38762832
000060 b2 1f aa 3c 6f 8b b7 bd e9 ee a0 be 64 2b e5 3e
       0.020767067 -0.08962142 -0.31432274 0.44759667
000070 2d 32 34 be 1e c6 9e 3e d3 14 ac 3e 4e c0 0d 3e
       -0.17597266 0.31010526 0.33609638 0.1384289
000080 23 07 72 be 1b c1 d6 3e 2c b6 ff 3e ed f8 e1 3e
       -0.23635535 0.41944203 0.49943674 0.44135228
000090 1e 44 ca be 51 aa 7b be 62 91 79 3e e3 33 f9 be
       -0.39505094 -0.2457669 0.24371865 -0.486724
0000a0 6a ee eb be 73 55 8e be b9 69 f7 3e 78 77 e5 3e
       -0.46080333 -0.27799568 0.48322847 0.4481771
0000b0 db 91 99 be fd c1 04 bf 71 be ab be bf e5 7a be
       -0.2999409 -0.518585 -0.33543733 -0.24501704
0000c0 65 bd 08 3e 96 87 c9 3c b5 eb 8f be b2 ba 91 be
       0.13353498 0.024600785 -0.28109518 -0.2846275
0000d0 02 bb 9a 3e 1f 9b a9 3d da 99 0b 3f bb c4 48 3e
       0.302208 0.0828154 0.54531634 0.19606297
0000e0 bc 96 a6 3d ad 68 5b 3d 81 2e f0 3e 09 6f 8f be
       0.08134219 0.053566623 0.4691048 -0.280144
0000f0 d6 4b 6b be 90 ac 10 bf 9a c0 b4 3c 30 e1 33 3e
       -0.22978148 -0.5651331 0.022064496 0.17566371
000100 8a 66 ea be 54 28 0c 3f f2 28 88 3d 19 47 b6 3e
       -0.45781356 0.54749036 0.06648435 0.35601118
000110 a0 30 1a be a7 28 9d bb 19 4f fe 3e fc f7 0c 3f
       -0.15057611 -0.004796106 0.49669722 0.55065894
000120 ab db c1 3e 1d de f9 be 23 bf 06 bf 41 03 0a bf
       0.37862906 -0.4880227 -0.526354 -0.53911215
000130 1e 0b 01 3c 28 02 d8 be e2 71 cd be ce 81 58 be
       0.007876186 -0.42189145 -0.40125948 -0.21143267
000140 a2 fb a1 be 5e 7c 8c be 07 40 07 3f ea 90 d4 3e
       -0.31637293 -0.27438635 0.5283207 0.4151681
000150 4f 19 09 bf 92 6c 98 3e b4 be 89 3e e8 ef 06 3f
       -0.5355424 0.29770333 0.26903307 0.5270982
000160 d0 c1 10 3f 47 22 5d be b5 75 0f 3f af 16 50 3e
       0.56545734 -0.21595107 0.5603898 0.20321153
000170 58 00 4e be 0f b5 c7 be 57 6b f9 3e 91 03 5d be
       -0.20117319 -0.39005324 0.48714706 -0.21583392
000180 6f be 97 3e 75 7a 12 3f 81 b4 24 3e 72 f4 cd be
       0.29637477 0.57218105 0.16084482 -0.4022556
000190 42 58 0c 3f a3 2f 95 3e 3d c4 9a 3e f2 70 e6 3e
       0.5482217 0.29137906 0.30227843 0.45008045
0001a0 13 05 82 3d 14 c2 e3 3e 8f 49 13 bf 36 9c fd 3e
       0.06348624 0.44484007 -0.57534117 0.49533242
0001b0 33 cf b3 be 83 f6 f3 3e 5d dd 4f be 15 0e 9a be
       -0.35119018 0.4764901 -0.20299287 -0.3008887
0001c0 dd ab 09 bf 73 55 81 3e da ad 01 bf 98 03 0e 3f
       -0.5377787 0.25260505 -0.506559 0.55474234
0001d0 b8 c4 6a bd 87 6e e4 be 45 e1 de 3e e1 f4 42 be
       -0.057316512 -0.44615576 0.43531242 -0.19038726
0001e0 cb d2 94 3e 80 3d 5d be 9b 3d 3e 3e 2a ce 08 bf
       0.29067072 -0.21605492 0.18578188 -0.5343958
0001f0 59 6c 83 be 69 95 c0 be 32 d0 56 3e 1c e0 0a 3e
       -0.256686 -0.3761399 0.20977858 0.13562053
000200 21 17 d7 3e 91 88 f9 be ea 64 a8 be 31 c6 ca be
       0.42009833 -0.48737004 -0.3288949 -0.39604333
000210 d3 1a ac be 87 45 a8 be 0b b8 04 3f 99 b9 c9 3e
       -0.33614215 -0.32865545 0.5184333 0.39399412
000220 b4 e7 a0 be 24 ce cc be d7 ff 9a bc 3c 21 07 3f
       -0.31426775 -0.40001023 -0.018920822 0.52785087
000230 52 75 3d 3e 87 a5 fd be 00 c0 0f 3e 54 6e 7f be
       0.18501785 -0.4954035 0.14038086 -0.2494443
000240 6f c1 9e 3e c8 fe be bc ee fb 06 bf f6 3e 9e 3e
       0.31006953 -0.023314849 -0.52728164 0.3090741
000250 d0 1e 79 be 88 a5 9a 3e 55 d0 32 be c2 8c e4 3e
       -0.2432816 0.30204415 -0.17462285 0.4463864
000260 f1 a6 0f 3f 75 73 51 bd 61 42 68 be d5 9c d5 3e
       0.5611411 -0.0511355 -0.22681572 0.41721216
000270 79 8e 26 3c 85 ad 03 3f 91 85 19 3e ee 69 4f be
       0.010165804 0.51436645 0.14992358 -0.20255253
000280 1f b5 91 be d4 13 32 3e df f7 95 3e fa 68 a1 be
       -0.28458497 0.17390376 0.29290673 -0.31525403
000290 62 d4 71 3e 2d 2e ae be 5e 99 ca 3e a8 81 37 be
       0.23616174 -0.34019604 0.39570135 -0.17920554
0002a0 1c 76 21 3e 1b a7 a3 be 8e fe 95 bd 90 83 96 3d
       0.15767711 -0.3196343 -0.07323943 0.07349312
0002b0 1d 5c 56 be 3e c2 01 bf 30 b5 54 be 8b cd 9e 3c
       -0.20933576 -0.50687015 -0.20772243 0.01938512
0002c0 8e 21 44 bc 88 9b 55 be b7 a7 da be 94 ed e3 3e
       -0.011970891 -0.20860112 -0.4270608 0.44517195
0002d0 9d 30 0f bf d1 b8 8b be 2e 94 01 bf e5 f1 8d be
       -0.55933553 -0.2728944 -0.5061673 -0.27723613
0002e0 e9 35 30 3e 76 e1 d3 be 6e f2 84 be 61 ef 9b be
       0.17208065 -0.4138295 -0.2596621 -0.3045607
0002f0 17 b2 f4 be 04 b4 0b 3f 82 8c 12 bc d5 89 55 bb
       -0.47792122 0.5457156 -0.0089446325 -0.0032583375
000300 ac 40 8c be 10 1e 9e bd e8 ed 4c 3e b9 8b 04 3f
       -0.2739309 -0.07720578 0.20012629 0.517757
000310 ea 68 bc be 8d 01 96 be 10 fe db be bc 25 f0 3d
       -0.36798793 -0.29298058 -0.42967272 0.11725947
000320 2c 8c 1c 3e ea d8 05 bf 9c e1 0d bf ac 71 d3 3e
       0.15287846 -0.5228411 -0.5542238 0.41297662
000330 8f a7 7c be 55 b9 a9 3e f2 32 2a 3e 1f 22 0c bf
       -0.24673294 0.3314921 0.16620997 -0.54739565
000340 9b 42 28 be 81 a2 ae 3e 0e a1 8f 3e 38 f0 1d 3e
       -0.16431658 0.34108356 0.28052562 0.15423667
000350 a9 8a 08 3f 1c e9 a8 3e 75 a4 99 bd 66 2d 6a 3e
       0.5333658 0.32990348 -0.07502071 0.2286888
000360 08 0f 99 3e cc 01 a5 bd 2e 6a 19 bd bc 3a a3 bd
       0.2989428 -0.08056983 -0.037454776 -0.07970187
000370 08 06 a0 bd c1 d3 a7 be 59 45 cc 3e 6e 8f 44 3e
       -0.0781365 -0.32778743 0.39896658 0.19195339
000380 54 47 c8 be 9b 30 0b 3f 0c 09 53 3e d6 e5 f9 3e
       -0.3911692 0.5437104 0.2060892 0.48808163
000390 2e fd e5 3e c7 89 a3 3e 5b 34 d1 3e 8b c0 e9 3e
       0.44919723 0.31941053 0.40860257 0.4565471
0003a0 21 64 73 3e 97 b6 0b bf 3f bb 09 bf 2f 0a 04 3f
       0.23768665 -0.54575485 -0.5380134 0.5157804
0003b0 15 6d 96 be 4f 62 94 be b4 62 43 3e 85 c7 a5 be
       -0.29380098 -0.28981254 0.19080621 -0.32378784
0003c0 4b 25 c9 3d 85 f7 7a 3e 77 b4 03 3f 98 68 01 bf
       0.09821566 0.24508484 0.5144724 -0.5055022
0003d0 5c b0 5e 3e af a3 21 3e 20 bb 8b 3e d2 d3 c6 be
       0.21746963 0.15785097 0.27291203 -0.3883348
0003e0 8c ff 85 be 80 9e 15 3d 2e 8c a3 bd a2 d7 bf 3e
       -0.2617153 0.03652811 -0.079857215 0.37469202
0003f0 ba f3 9d 3e 65 e3 cc be ce 80 b1 be 92 72 83 be
       0.3085001 -0.40017238 -0.34668583 -0.25673348

net3.0.bias f4 [128]
000000 fc 05 f6 bc 1d 2b c2 be e7 53 0f 3f 0c b8 b0 bd
       -0.03003215 -0.37923518 0.559874 -0.08628854
000010 58 d2 8a 3e dc a0 2d 3e 76 7c fa 3e 04 b9 3e be
       0.27113605 0.16955894 0.4892308 -0.18625265
000020 66 d6 03 be 62 90 25 be 77 c3 86 be 1f 1e a2 be
       -0.12874755 -0.16168359 -0.26321003 -0.31663606
000030 c6 82 c1 be 39 24 f6 3e f8 c8 f6 be 83 37 aa be
       -0.37795085 0.4807451 -0.48200202 -0.33245477
000040 11 06 eb 3d a7 0f da be 83 cd f1 be be c8 85 3e
       0.114757665 -0.42590067 -0.47227105 0.26129717
000050 35 b6 17 be e0 bd 0a bf 28 e8 bb be f8 f4 f0 bd
       -0.148156 -0.54195976 -0.3670056 -0.11765474
000060 a8 1a a3 3d f3 4e 76 3d 8f 82 54 3e 12 f6 a9 be
       0.07964069 0.060133886 0.20752929 -0.3319555
000070 ff 8a e2 3e e0 63 cf be f0 61 05 be 2a 7d a1 be
       0.4424667 -0.40505886 -0.13025641 -0.31540805
000080 6e 29 93 be 0b f3 93 3e 92 c6 7c be 12 2b 12 3f
       -0.28742546 0.28896365 -0.24685124 0.5709697
000090 bb 4d 09 bf 3c b3 b7 3d f9 72 0e 3f d8 7b e5 3d
       -0.5363423 0.08969733 0.55644184 0.11205262
0000a0 61 0c 0d 3f 22 6f 42 be d5 33 0e 3f bb aa 9f be
       0.55097014 -0.18987706 0.5554784 -0.31184945
0000b0 d2 c4 a3 be 05 38 d4 be ec b7 4b 3e e4 8c bb 3e
       -0.319861 -0.4144899 0.1989438 0.3663093
0000c0 14 36 a2 3e f5 f6 ac 3e 91 81 9f 3e df fa 43 3c
       0.31681883 0.33782163 0.3115354 0.011961668
0000d0 78 af cc 3e 65 96 a9 bd b5 02 7f 3e 38 38 2f 3d
       0.39977622 -0.082806386 0.24903376 0.042778224
0000e0 25 79 f3 3c 83 60 c4 be ac 03 72 be 54 54 47 3e
       0.029720852 -0.38354883 -0.23634213 0.19465762
0000f0 8c 4b 1c 3e 7b ec a5 be cb f1 56 3e 96 4d b8 be
       0.15263194 -0.32406983 0.20990674 -0.35996693
000100 e1 71 f9 be 02 85 bd 3e 49 00 92 be a7 60 00 3f
       -0.48719695 0.3701554 -0.28515843 0.5014748
000110 08 50 c6 3d 2b b9 f2 be 52 11 64 3e 8d 6e 21 3e
       0.096832335 -0.47406897 0.22272232 0.15764828
000120 63 61 5e be 67 a6 4a 3e 0f 6d f5 be dc e4 73 be
       -0.21716838 0.1979004 -0.47934768 -0.23817772
000130 d8 d5 ef bd 2d 8d 79 bd d1 d8 81 be 0b 41 01 3f
       -0.11710709 -0.06092565 -0.2536073 0.5048987
000140 ef 26 df bd 06 b7 d0 3c 2d 20 05 3f 2a 22 d7 bc
       -0.10896098 0.025477897 0.5200222 -0.026261408
000150 eb 06 be 3e c5 23 98 be dd 0a e9 be 5b 3a b9 3d
       0.37114653 -0.2971479 -0.455161 0.090443335
000160 3a cb d7 be cc 98 f7 be a3 2e 06 bf 18 7d 20 3e
       -0.42147237 -0.48358762 -0.5241491 0.1567272
000170 79 b5 ec be 04 3b 0b bf 48 78 ff be 3e 06 b0 be
       -0.46232203 -0.54386926 -0.49896455 -0.34379762
000180 8a 28 18 3e a5 32 16 3e 33 4f c2 be 29 14 ec 3c
       0.14859214 0.14667757 -0.3795105 0.028818207
000190 5a b4 be 3e ef 4b 27 3e b7 93 f4 3e 27 93 af 3e
       0.37246972 0.1633756 0.47768947 0.34291956
0001a0 9c 78 2f 3e 8f df 7a 3e 91 96 09 bf e8 0e e7 be
       0.17135853 0.24499343 -0.5374537 -0.4512856
0001b0 24 2a 8e bd 47 b4 a5 be 15 f3 fd bd e5 c8 ce 3e
       -0.069416314 -0.32364103 -0.1239988 0.40387645
0001c0 67 82 f2 3e 61 8e ed be af df c6 3d d4 06 bb 3d
       0.47365114 -0.4639769 0.09710633 0.09132162
0001d0 f7 09 9e 3c 23 66 e3 3e a4 c7 b9 3e 7c 66 d2 bd
       0.019291861 0.44413862 0.36285126 -0.102734536
0001e0 16 05 30 be e3 8b 9e be 18 3e 29 3c d5 c0 fa 3e
       -0.1718944 -0.309661 0.010329746 0.48975244
0001f0 bd 16 d2 be be ca e7 be 59 74 9e be 21 9d 65 be
       -0.41032973 -0.45271868 -0.3094814 -0.22423221

net3.1.weight f4 [128]
000000 00 00 80 3f 00 00 80 3f 00 00 80 3f 00 00 80 3f
       1.0 1.0 1.0 1.0
000010 00 00 80 3f 00 00 80 3f 00 00 80 3f 00 00 80 3f
       1.0 1.0 1.0 1.0
000020 00 00 80 3f 00 00 80 3f 00 00 80 3f 00 00 80 3f
       1.0 1.0 1.0 1.0
000030 00 00 80 3f 00 00 80 3f 00 00 80 3f 00 00 80 3f
       1.0 1.0 1.0 1.0
000040 00 00 80 3f 00 00 80 3f 00 00 80 3f 00 00 80 3f
       1.0 1.0 1.0 1.0
000050 00 00 80 3f 00 00 80 3f 00 00 80 3f 00 00 80 3f
       1.0 1.0 1.0 1.0
000060 00 00 80 3f 00 00 80 3f 00 00 80 3f 00 00 80 3f
       1.0 1.0 1.0 1.0
000070 00 00 80 3f 00 00 80 3f 00 00 80 3f 00 00 80 3f
       1.0 1.0 1.0 1.0
000080 00 00 80 3f 00 00 80 3f 00 00 80 3f 00 00 80 3f
       1.0 1.0 1.0 1.0
000090 00 00 80 3f 00 00 80 3f 00 00 80 3f 00 00 80 3f
       1.0 1.0 1.0 1.0
0000a0 00 00 80 3f 00 00 80 3f 00 00 80 3f 00 00 80 3f
       1.0 1.0 1.0 1.0
0000b0 00 00 80 3f 00 00 80 3f 00 00 80 3f 00 00 80 3f
       1.0 1.0 1.0 1.0
0000c0 00 00 80 3f 00 00 80 3f 00 00 80 3f 00 00 80 3f
       1.0 1.0 1.0 1.0
0000d0 00 00 80 3f 00 00 80 3f 00 00 80 3f 00 00 80 3f
       1.0 1.0 1.0 1.0
0000e0 00 00 80 3f 00 00 80 3f 00 00 80 3f 00 00 80 3f
       1.0 1.0 1.0 1.0
0000f0 00 00 80 3f 00 00 80 3f 00 00 80 3f 00 00 80 3f
       1.0 1.0 1.0 1.0
000100 00 00 80 3f 00 00 80 3f 00 00 80 3f 00 00 80 3f
       1.0 1.0 1.0 1.0
000110 00 00 80 3f 00 00 80 3f 00 00 80 3f 00 00 80 3f
       1.0 1.0 1.0 1.0
000120 00 00 80 3f 00 00 80 3f 00 00 80 3f 00 00 80 3f
       1.0 1.0 1.0 1.0
000130 00 00 80 3f 00 00 80 3f 00 00 80 3f 00 00 80 3f
       1.0 1.0 1.0 1.0
000140 00 00 80 3f 00 00 80 3f 00 00 80 3f 00 00 80 3f
       1.0 1.0 1.0 1.0
000150 00 00 80 3f 00 00 80 3f 00 00 80 3f 00 00 80 3f
       1.0 1.0 1.0 1.0
000160 00 00 80 3f 00 00 80 3f 00 00 80 3f 00 00 80 3f
       1.0 1.0 1.0 1.0
000170 00 00 80 3f 00 00 80 3f 00 00 80 3f 00 00 80 3f
       1.0 1.0 1.0 1.0
000180 00 00 80 3f 00 00 80 3f 00 00 80 3f 00 00 80 3f
       1.0 1.0 1.0 1.0
000190 00 00 80 3f 00 00 80 3f 00 00 80 3f 00 00 80 3f
       1.0 1.0 1.0 1.0
0001a0 00 00 80 3f 00 00 80 3f 00 00 80 3f 00 00 80 3f
       1.0 1.0 1.0 1.0
0001b0 00 00 80 3f 00 00 80 3f 00 00 80 3f 00 00 80 3f
       1.0 1.0 1.0 1.0
0001c0 00 00 80 3f 00 00 80 3f 00 00 80 3f 00 00 80 3f
       1.0 1.0 1.0 1.0
0001d0 00 00 80 3f 00 00 80 3f 00 00 80 3f 00 00 80 3f
       1.0 1.0 1.0 1.0
0001e0 00 00 80 3f 00 00 80 3f 00 00 80 3f 00 00 80 3f
       1.0 1.0 1.0 1.0
0001f0 00 00 80 3f 00 00 80 3f 00 00 80 3f 00 00 80 3f
       1.0 1.0 1.0 1.0

net3.1.bias f4 [128]
000000 00 00 00 00 00 00 00 00 00 00 00 00 00 00 00 00
       0.0 0.0 0.0 0.0
000010 00 00 00 00 00 00 00 00 00 00 00 00 00 00 00 00
       0.0 0.0 0.0 0.0
000020 00 00 00 00 00 00 00 00 00 00 00 00 00 00 00 00
       0.0 0.0 0.0 0.0
000030 00 00 00 00 00 00 00 00 00 00 00 00 00 00 00 00
       0.0 0.0 0.0 0.0
000040 00 00 00 00 00 00 00 00 00 00 00 00 00 00 00 00
       0.0 0.0 0.0 0.0
000050 00 00 00 00 00 00 00 00 00 00 00 00 00 00 00 00
       0.0 0.0 0.0 0.0
000060 00 00 00 00 00 00 00 00 00 00 00 00 00 00 00 00
       0.0 0.0 0.0 0.0
000070 00 00 00 00 00 00 00 00 00 00 00 00 00 00 00 00
       0.0 0.0 0.0 0.0
000080 00 00 00 00 00 00 00 00 00 00 00 00 00 00 00 00
       0.0 0.0 0.0 0.0
000090 00 00 00 00 00 00 00 00 00 00 00 00 00 00 00 00
       0.0 0.0 0.0 0.0
0000a0 00 00 00 00 00 00 00 00 00 00 00 00 00 00 00 00
       0.0 0.0 0.0 0.0
0000b0 00 00 00 00 00 00 00 00 00 00 00 00 00 00 00 00
       0.0 0.0 0.0 0.0
0000c0 00 00 00 00 00 00 00 00 00 00 00 00 00 00 00 00
       0.0 0.0 0.0 0.0
0000d0 00 00 00 00 00 00 00 00 00 00 00 00 00 00 00 00
       0.0 0.0 0.0 0.0
0000e0 00 00 00 00 00 00 00 00 00 00 00 00 00 00 00 00
       0.0 0.0 0.0 0.0
0000f0 00 00 00 00 00 00 00 00 00 00 00 00 00 00 00 00
       0.0 0.0 0.0 0.0
000100 00 00 00 00 00 00 00 00 00 00 00 00 00 00 00 00
       0.0 0.0 0.0 0.0
000110 00 00 00 00 00 00 00 00 00 00 00 00 00 00 00 00
       0.0 0.0 0.0 0.0
000120 00 00 00 00 00 00 00 00 00 00 00 00 00 00 00 00
       0.0 0.0 0.0 0.0
000130 00 00 00 00 00 00 00 00 00 00 00 00 00 00 00 00
       0.0 0.0 0.0 0.0
000140 00 00 00 00 00 00 00 00 00 00 00 00 00 00 00 00
       0.0 0.0 0.0 0.0
000150 00 00 00 00 00 00 00 00 00 00 00 00 00 00 00 00
       0.0 0.0 0.0 0.0
000160 00 00 00 00 00 00 00 00 00 00 00 00 00 00 00 00
       0.0 0.0 0.0 0.0
000170 00 00 00 00 00 00 00 00 00 00 00 00 00 00 00 00
       0.0 0.0 0.0 0.0
000180 00 00 00 00 00 00 00 00 00 00 00 00 00 00 00 00
       0.0 0.0 0.0 0.0
000190 00 00 00 00 00 00 00 00 00 00 00 00 00 00 00 00
       0.0 0.0 0.0 0.0
0001a0 00 00 00 00 00 00 00 00 00 00 00 00 00 00 00 00
       0.0 0.0 0.0 0.0
0001b0 00 00 00 00 00 00 00 00 00 00 00 00 00 00 00 00
       0.0 0.0 0.0 0.0
0001c0 00 00 00 00 00 00 00 00 00 00 00 00 00 00 00 00
       0.0 0.0 0.0 0.0
0001d0 00 00 00 00 00 00 00 00 00 00 00 00 00 00 00 00
       0.0 0.0 0.0 0.0
0001e0 00 00 00 00 00 00 00 00 00 00 00 00 00 00 00 00
       0.0 0.0 0.0 0.0
0001f0 00 00 00 00 00 00 00 00 00 00 00 00 00 00 00 00
       0.0 0.0 0.0 0.0

net3.1.running_mean f4 [128]
000000 00 00 00 00 00 00 00 00 00 00 00 00 00 00 00 00
       0.0 0.0 0.0 0.0
000010 00 00 00 00 00 00 00 00 00 00 00 00 00 00 00 00
       0.0 0.0 0.0 0.0
000020 00 00 00 00 00 00 00 00 00 00 00 00 00 00 00 00
       0.0 0.0 0.0 0.0
000030 00 00 00 00 00 00 00 00 00 00 00 00 00 00 00 00
       0.0 0.0 0.0 0.0
000040 00 00 00 00 00 00 00 00 00 00 00 00 00 00 00 00
       0.0 0.0 0.0 0.0
000050 00 00 00 00 00 00 00 00 00 00 00 00 00 00 00 00
       0.0 0.0 0.0 0.0
000060 00 00 00 00 00 00 00 00 00 00 00 00 00 00 00 00
       0.0 0.0 0.0 0.0
000070 00 00 00 00 00 00 00 00 00 00 00 00 00 00 00 00
       0.0 0.0 0.0 0.0
000080 00 00 00 00 00 00 00 00 00 00 00 00 00 00 00 00
       0.0 0.0 0.0 0.0
000090 00 00 00 00 00 00 00 00 00 00 00 00 00 00 00 00
       0.0 0.0 0.0 0.0
0000a0 00 00 00 00 00 00 00 00 00 00 00 00 00 00 00 00
       0.0 0.0 0.0 0.0
0000b0 00 00 00 00 00 00 00 00 00 00 00 00 00 00 00 00
       0.0 0.0 0.0 0.0
0000c0 00 00 00 00 00 00 00 00 00 00 00 00 00 00 00 00
       0.0 0.0 0.0 0.0
0000d0 00 00 00 00 00 00 00 00 00 00 00 00 00 00 00 00
       0.0 0.0 0.0 0.0
0000e0 00 00 00 00 00 00 00 00 00 00 00 00 00 00 00 00
       0.0 0.0 0.0 0.0
0000f0 00 00 00 00 00 00 00 00 00 00 00 00 00 00 00 00
       0.0 0.0 0.0 0.0
000100 00 00 00 00 00 00 00 00 00 00 00 00 00 00 00 00
       0.0 0.0 0.0 0.0
000110 00 00 00 00 00 00 00 00 00 00 00 00 00 00 00 00
       0.0 0.0 0.0 0.0
000120 00 00 00 00 00 00 00 00 00 00 00 00 00 00 00 00
       0.0 0.0 0.0 0.0
000130 00 00 00 00 00 00 00 00 00 00 00 00 00 00 00 00
       0.0 0.0 0.0 0.0
000140 00 00 00 00 00 00 00 00 00 00 00 00 00 00 00 00
       0.0 0.0 0.0 0.0
000150 00 00 00 00 00 00 00 00 00 00 00 00 00 00 00 00
       0.0 0.0 0.0 0.0
000160 00 00 00 00 00 00 00 00 00 00 00 00 00 00 00 00
       0.0 0.0 0.0 0.0
000170 00 00 00 00 00 00 00 00 00 00 00 00 00 00 00 00
       0.0 0.0 0.0 0.0
000180 00 00 00 00 00 00 00 00 00 00 00 00 00 00 00 00
       0.0 0.0 0.0 0.0
000190 00 00 00 00 00 00 00 00 00 00 00 00 00 00 00 00
       0.0 0.0 0.0 0.0
0001a0 00 00 00 00 00 00 00 00 00 00 00 00 00 00 00 00
       0.0 0.0 0.0 0.0
0001b0 00 00 00 00 00 00 00 00 00 00 00 00 00 00 00 00
       0.0 0.0 0.0 0.0
0001c0 00 00 00 00 00 00 00 00 00 00 00 00 00 00 00 00
       0.0 0.0 0.0 0.0
0001d0 00 00 00 00 00 00 00 00 00 00 00 00 00 00 00 00
       0.0 0.0 0.0 0.0
0001e0 00 00 00 00 00 00 00 00 00 00 00 00 00 00 00 00
       0.0 0.0 0.0 0.0
0001f0 00 00 00 00 00 00 00 00 00 00 00 00 00 00 00 00
       0.0 0.0 0.0 0.0

net3.1.running_var f4 [128]
000000 00 00 80 3f 00 00 80 3f 00 00 80 3f 00 00 80 3f
       1.0 1.0 1.0 1.0
000010 00 00 80 3f 00 00 80 3f 00 00 80 3f 00 00 80 3f
       1.0 1.0 1.0 1.0
000020 00 00 80 3f 00 00 80 3f 00 00 80 3f 00 00 80 3f
       1.0 1.0 1.0 1.0
000030 00 00 80 3f 00 00 80 3f 00 00 80 3f 00 00 80 3f
       1.0 1.0 1.0 1.0
000040 00 00 80 3f 00 00 80 3f 00 00 80 3f 00 00 80 3f
       1.0 1.0 1.0 1.0
000050 00 00 80 3f 00 00 80 3f 00 00 80 3f 00 00 80 3f
       1.0 1.0 1.0 1.0
000060 00 00 80 3f 00 00 80 3f 00 00 80 3f 00 00 80 3f
       1.0 1.0 1.0 1.0
000070 00 00 80 3f 00 00 80 3f 00 00 80 3f 00 00 80 3f
       1.0 1.0 1.0 1.0
000080 00 00 80 3f 00 00 80 3f 00 00 80 3f 00 00 80 3f
       1.0 1.0 1.0 1.0
000090 00 00 80 3f 00 00 80 3f 00 00 80 3f 00 00 80 3f
       1.0 1.0 1.0 1.0
0000a0 00 00 80 3f 00 00 80 3f 00 00 80 3f 00 00 80 3f
       1.0 1.0 1.0 1.0
0000b0 00 00 80 3f 00 00 80 3f 00 00 80 3f 00 00 80 3f
       1.0 1.0 1.0 1.0
0000c0 00 00 80 3f 00 00 80 3f 00 00 80 3f 00 00 80 3f
       1.0 1.0 1.0 1.0
0000d0 00 00 80 3f 00 00 80 3f 00 00 80 3f 00 00 80 3f
       1.0 1.0 1.0 1.0
0000e0 00 00 80 3f 00 00 80 3f 00 00 80 3f 00 00 80 3f
       1.0 1.0 1.0 1.0
0000f0 00 00 80 3f 00 00 80 3f 00 00 80 3f 00 00 80 3f
       1.0 1.0 1.0 1.0
000100 00 00 80 3f 00 00 80 3f 00 00 80 3f 00 00 80 3f
       1.0 1.0 1.0 1.0
000110 00 00 80 3f 00 00 80 3f 00 00 80 3f 00 00 80 3f
       1.0 1.0 1.0 1.0
000120 00 00 80 3f 00 00 80 3f 00 00 80 3f 00 00 80 3f
       1.0 1.0 1.0 1.0
000130 00 00 80 3f 00 00 80 3f 00 00 80 3f 00 00 80 3f
       1.0 1.0 1.0 1.0
000140 00 00 80 3f 00 00 80 3f 00 00 80 3f 00 00 80 3f
       1.0 1.0 1.0 1.0
000150 00 00 80 3f 00 00 80 3f 00 00 80 3f 00 00 80 3f
       1.0 1.0 1.0 1.0
000160 00 00 80 3f 00 00 80 3f 00 00 80 3f 00 00 80 3f
       1.0 1.0 1.0 1.0
000170 00 00 80 3f 00 00 80 3f 00 00 80 3f 00 00 80 3f
       1.0 1.0 1.0 1.0
000180 00 00 80 3f 00 00 80 3f 00 00 80 3f 00 00 80 3f
       1.0 1.0 1.0 1.0
000190 00 00 80 3f 00 00 80 3f 00 00 80 3f 00 00 80 3f
       1.0 1.0 1.0 1.0
0001a0 00 00 80 3f 00 00 80 3f 00 00 80 3f 00 00 80 3f
       1.0 1.0 1.0 1.0
0001b0 00 00 80 3f 00 00 80 3f 00 00 80 3f 00 00 80 3f
       1.0 1.0 1.0 1.0
0001c0 00 00 80 3f 00 00 80 3f 00 00 80 3f 00 00 80 3f
       1.0 1.0 1.0 1.0
0001d0 00 00 80 3f 00 00 80 3f 00 00 80 3f 00 00 80 3f
       1.0 1.0 1.0 1.0
0001e0 00 00 80 3f 00 00 80 3f 00 00 80 3f 00 00 80 3f
       1.0 1.0 1.0 1.0
0001f0 00 00 80 3f 00 00 80 3f 00 00 80 3f 00 00 80 3f
       1.0 1.0 1.0 1.0

net3.4.weight f4 [64, 128]
000000 ce a3 b1 bc 27 c6 05 bd e2 97 c4 bc 4a f2 88 3d
       -0.021684553 -0.032659676 -0.023998205 0.06686838
000010 1d 82 89 bd 83 a1 54 bd 66 4f 96 bd c0 d8 4a 3d
       -0.0671427 -0.051911842 -0.07339363 0.049523115
000020 f8 32 85 3d f6 63 99 3c 0a 81 e9 ba b4 83 30 3d
       0.06503862 0.018724423 -0.0017814946 0.043094352
000030 c1 5f b8 bc 54 c0 5c bb 03 b9 ae 3b a5 62 ac 3c
       -0.022506597 -0.0033683972 0.0053321137 0.021043131
000040 d8 53 ea bb 1e 5d 67 bc 89 1d 95 bd dd c1 a7 3b
       -0.0071511082 -0.014121322 -0.07281024 0.005119546
000050 43 dd 5e 3d 56 c9 9e 3c 73 c8 25 3d dd 85 86 3d
       0.05441023 0.019383114 0.040474366 0.06568501
000060 37 cf 4c 3c ad 33 56 3d d8 96 c8 bc b6 09 cc bc
       0.012500576 0.052295376 -0.02448599 -0.024906974
000070 67 be bb 3c 18 d0 6d 3d 5b b1 a0 bd b3 0a 6f 3d
       0.02291794 0.05805978 -0.07846328 0.058359813
000080 ae 4a 15 3c 45 ca c7 bc 7d 39 15 3d 67 d9 50 3c
       0.009112043 -0.024388442 0.03643178 0.012747145
000090 60 65 99 3c 47 5a c4 bc 20 28 a9 3c 5b 06 54 bc
       0.018725097 -0.023968829 0.020649016 -0.012940968
0000a0 61 06 b4 3d 65 24 00 3d 9f 78 60 bb 41 cf c9 3b
       0.08790279 0.03128471 -0.0034251583 0.00615874
0000b0 ff 09 c0 3c 77 ff 78 3c 45 dc 6f bb 63 3c dc bc
       0.023442267 0.015197626 -0.0036599797 -0.026884263
0000c0 5e eb 76 3d 0e a0 b4 3c 82 80 78 bd 32 86 28 3d
       0.060283057 0.022048976 -0.06066943 0.041143604
0000d0 e8 05 b3 bd 17 0f 82 3d 57 02 a0 ba 4e 45 42 3d
       -0.08741361 0.063505344 -0.0012207729 0.047429375
0000e0 9b 0b 0c bd 78 0b 20 bd 8c 12 7b bd f9 ef 6c 3b
       -0.034190755 -0.039073437 -0.061296985 0.0036153777
0000f0 ac ac 23 bd 5e af 5e bd 7e aa d8 3c 50 d0 ef 3c
       -0.039959595 -0.054366462 0.026448485 0.029274136
000100 f2 72 a7 3d 54 e4 70 3d 77 d2 3b bc 83 73 1a 3d
       0.08176221 0.0588115 -0.011463753 0.037707817
000110 75 2b 43 ba 5d 59 9e bd 19 72 af bc 17 5c 4c bd
       -0.0007445135 -0.077318884 -0.02141671 -0.04989251
000120 2b 05 48 3d 4f d4 5f 3c fc 09 51 3d 06 d1 98 3d
       0.048833054 0.013661458 0.051034912 0.07461743
000130 0d 89 8a 3c 88 2b 90 bd b9 70 cd 3c 4a 3c 01 bb
       0.016911054 -0.07039553 0.025078164 -0.0019719773
000140 cc f8 80 bd 7e 86 89 3a 86 8b 86 3a 17 dc 97 3d
       -0.06297454 0.0010492352 0.001026497 0.07415026
000150 e8 f3 6c 3d f2 42 3f bd c5 4c 0e 3c a7 20 c7 3c
       0.057849795 -0.046694703 0.0086852955 0.024307562
000160 c0 eb b0 3d 15 a0 28 3d 6a da 64 3d c8 1a 31 bd
       0.08638716 0.04116829 0.05587236 -0.04323843
000170 15 2f 0c 39 20 b9 3a bd 09 fa bc 3c 08 55 52 bc
       0.0001336898 -0.045586705 0.023068445 -0.012837656
000180 30 af 28 3c 24 6e 48 bc 41 0f 99 3d e8 c4 33 3d
       0.010295674 -0.012233291 0.074736126 0.043888956
000190 dd 78 1d 3c 97 d5 13 bc c2 39 79 bc 0c 81 20 bc
       0.009611336 -0.009023092 -0.015211524 -0.009796392
0001a0 60 0f 73 bd 1d 4f 66 bd 3d c4 9a bd 01 11 e1 bc
       -0.059340835 -0.056227792 -0.07556961 -0.027473928
0001b0 f5 a8 6f 3d 82 1c 13 bb 7f f3 3c 3d b6 3d b4 3d
       0.05851074 -0.0022447412 0.046130653 0.08800833
0001c0 28 dc 9b bd f8 50 0e bc 14 d9 86 3d e2 a3 b3 3d
       -0.07610351 -0.008686297 0.06584373 0.087714925
0001d0 81 cc fd 3b c4 39 8d 3d 8b 93 ac bc 84 e1 82 3d
       0.007745326 0.068957835 -0.021066448 0.0639067
0001e0 dc 5a 6a 3d 60 1a 88 bc 4b e5 d4 3c aa 7b 01 bc
       0.057215557 -0.01661414 0.025988242 -0.007903019
0001f0 bd ed 0e 3d 31 94 40 bc c9 b9 49 bd ec 63 ad b9
       0.034894694 -0.011754082 -0.049249444 -0.0003307158
000200 da 24 32 ba 5a bf 2a 3d 3c 3a 2f bc be 8b 61 bd
       -0.00067956524 0.041686393 -0.0106950365 -0.05506491
000210 e1 f2 89 bd f0 de 31 3d 36 0f b2 bd 38 c6 c0 3c
       -0.067357786 0.0434255 -0.086943075 0.023532018
000220 4b 54 54 bd c8 b3 85 bd 3c b1 c7 3c ef 97 b2 bc
       -0.0518382 -0.06528431 0.024376504 -0.021800963
000230 4b e4 7d bd bb 49 1b 3d 42 c7 1e bd 62 5e 25 bd
       -0.061985295 0.03791211 -0.038764246 -0.040373214
000240 4e 35 b8 3c 64 ce 4b bd f3 db 81 3d 13 25 4f bd
       0.022486355 -0.049757376 0.0634078 -0.050572466
000250 d4 57 88 3d d4 88 2e 3d d6 c1 3b 3d b7 28 26 3c
       0.06657377 0.04261096 0.045839153 0.010141543
000260 89 40 9e bd 15 eb 41 3d 46 b5 59 3c 28 cd de 3c
       -0.07727153 0.047343332 0.013287848 0.027197435
000270 ac b7 b9 bc ba a3 46 3d 5b 36 ec 3b b0 c8 7a bd
       -0.02267059 0.048495986 0.007208628 -0.061226547
000280 1a 77 35 3d 23 35 4d bd 68 67 96 3d a9 d8 7f bd
       0.044303037 -0.050099503 0.07343942 -0.062462483
000290 db b5 e4 bc 9c 87 f8 3c 4e 5e 1b bd 9f 54 2a bb
       -0.027918747 0.030338101 -0.037931733 -0.002599038
0002a0 4e fe 8b bd c8 8c 9f bd d1 9e 84 bd 0a 49 f7 bc
       -0.06835614 -0.07790524 -0.06475604 -0.030186195
0002b0 ed f8 19 3d be 47 87 bd 7f 4e 95 bd 7f 91 68 bd
       0.03759091 -0.066054806 -0.072903626 -0.05677938
0002c0 95 09 89 bd d0 33 9d 3d 63 2c 8d bd 67 37 da 3c
       -0.06691281 0.07675898 -0.06893232 0.026637746
0002d0 e1 af ac bd 9f e8 a3 3d a1 81 e6 bc df f4 ae 3c
       -0.08431984 0.08003353 -0.028137984 0.021356998
0002e0 48 2f 6d bd a4 69 0c 3d 32 87 6f bc 0b 0c 8c 3d
       -0.05790642 0.034280434 -0.014619635 0.068382345
0002f0 88 7e 67 3d 36 43 ab 3d ec 82 92 3d f0 d5 41 3d
       0.056517154 0.08362429 0.071538776 0.047323167
000300 00 b9 6f bd 57 be 42 3c d4 02 2f bd 7a 8e 10 3c
       -0.05852604 0.011886201 -0.042727306 0.008823032
000310 71 9e 10 3d 2d 7f 12 bc a5 01 01 3d 4d e9 9f bd
       0.03530735 -0.008941454 0.03149571 -0.078081705
000320 4d 9c 1e 3d 95 da 98 ba dd 73 27 bc 09 1e a7 3d
       0.03872328 -0.0011661822 -0.010220495 0.081600256
000330 d5 cb 03 3d 1b ec 9f bd 70 d9 a4 3d ee 9d 6d bd
       0.03217681 -0.078087054 0.080492854 -0.05801194
000340 33 ec 1b bd dc 35 9d 3d 67 94 6e 3d da 1c 84 bc
       -0.038067054 0.076762885 0.058246996 -0.016127039
000350 b9 50 97 39 96 55 56 3d ae 0c 4b bd 6e a6 a4 3d
       0.00028861107 0.052327715 -0.04957264 0.080395564
000360 89 8d 8a 3d 09 d6 15 3d d9 18 a7 bd 7e 01 91 bc
       0.06765277 0.036581073 -0.08159036 -0.017700907
000370 db 70 8a 3c ca fd ac bd 7b ef 45 3d b1 1d 6b bd
       0.016899517 -0.08446844 0.04832409 -0.057401363
000380 d2 91 d2 3c 40 c3 8b 3d 23 28 27 3d 1d f1 e9 bc
       0.025704298 0.0682435 0.04080976 -0.028557355
000390 da 16 58 3d 59 f2 a9 3d 34 e2 83 bc 2e c2 96 bd
       0.052756168 0.08298177 -0.016099073 -0.073612556
0003a0 bc d9 97 3d ad 57 0c 3d b9 60 58 3d 69 a9 a6 bd
       0.074145764 0.0342633 0.052826617 -0.08137781
0003b0 a6 03 d6 bc 3f 42 2f bd 76 e7 b6 bb 7c c6 27 bd
       -0.026124787 -0.042787787 -0.0055817915 -0.040960774
0003c0 75 a1 1b 3d d6 b2 17 bc 9a b0 2a 3d af 7e d6 bc
       0.037995774 -0.009258946 0.041672327 -0.026183454
0003d0 74 aa f5 3c c6 b2 07 3d 70 3b 2f bd 55 e2 3d bd
       0.029988505 0.033129476 -0.042781293 -0.046358425
0003e0 57 3a 17 3d 3d 66 01 3d 1a 5c 84 3d 34 fc 09 3d
       0.03692087 0.031591643 0.064628795 0.033687785
0003f0 82 78 8d bc d4 78 15 3d 23 21 65 bd 23 12 71 bd
       -0.017269377 0.036492184 -0.055939805 -0.058855187

net3.4.bias f4 [64]
000000 e4 93 0c bc 60 2d 84 bd e6 21 b9 bc 52 85 aa bd
       -0.008580182 -0.06453967 -0.022599172 -0.0832621
000010 13 ef 5e bd 86 af e2 3c d0 32 95 bc 77 ed 0d bd
       -0.054427218 0.027671587 -0.018212706 -0.034650292
000020 77 78 32 bd 07 48 02 3d 3a 4f 05 3c 88 93 91 bd
       -0.043571915 0.031806972 0.008136565 -0.071082175
000030 67 34 af bc 2c de 16 bc de 67 76 3d 5a 76 b0 3d
       -0.021387292 -0.009208243 0.06015765 0.08616324
000040 d6 0e 59 3c 0a 7e 31 bd e9 5b 6e bd ee fc 27 3d
       0.013248166 -0.04333309 -0.05819312 0.041012697
000050 0f c8 69 3d 44 5e 1a bd 59 f9 08 3d df 35 96 bd
       0.057075556 -0.037687555 0.03344092 -0.07334494
000060 d1 fc 8b bd 2b 46 35 bd 23 d5 d9 bc 46 73 21 bd
       -0.0683533 -0.04425637 -0.02659089 -0.039416574
000070 04 13 a8 bd 7b 96 57 3d 93 7b a8 3d 21 a0 fe bc
       -0.08206752 0.052633744 0.08226695 -0.031082215
000080 77 08 81 bd 4e 4d 7b bd 36 83 31 3d cc 8e 51 bd
       -0.06300443 -0.06135302 0.043338023 -0.051161572
000090 f3 18 63 3c 96 6e 97 bd df e9 4b 3d 12 c9 8c bd
       0.013860929 -0.073941395 0.049783584 -0.068742886
0000a0 28 c6 5f 3d 99 d9 88 3d 08 53 fe bb d8 11 a5 3d
       0.054632336 0.066821285 -0.007761363 0.08060044
0000b0 93 7e 3d bd 0e 58 51 bd 6b 85 64 bd 75 82 a5 bb
       -0.04626329 -0.051109366 -0.0557913 -0.005050952
0000c0 c0 63 15 bd 8d e3 3c bd fd 32 9e bc 6b 10 6e bd
       -0.036472082 -0.046115447 -0.019311422 -0.058121126
0000d0 fc c7 a2 3d ff ea 90 3c d1 b6 29 bd 22 a3 5d bc
       0.079483 0.01769018 -0.041434113 -0.013527663
0000e0 17 72 6d 3d 35 7c 24 ba 26 73 a8 bc e8 3a 18 bc
       0.057970133 -0.0006274612 -0.02056272 -0.009291388
0000f0 77 c4 65 bd cc 9c e0 3c 28 62 76 bd af 24 82 bd
       -0.056095567 0.027418517 -0.060152203 -0.06354653

net3.5.weight f4 [64]
000000 00 00 80 3f 00 00 80 3f 00 00 80 3f 00 00 80 3f
       1.0 1.0 1.0 1.0
000010 00 00 80 3f 00 00 80 3f 00 00 80 3f 00 00 80 3f
       1.0 1.0 1.0 1.0
000020 00 00 80 3f 00 00 80 3f 00 00 80 3f 00 00 80 3f
       1.0 1.0 1.0 1.0
000030 00 00 80 3f 00 00 80 3f 00 00 80 3f 00 00 80 3f
       1.0 1.0 1.0 1.0
000040 00 00 80 3f 00 00 80 3f 00 00 80 3f 00 00 80 3f
       1.0 1.0 1.0 1.0
000050 00 00 80 3f 00 00 80 3f 00 00 80 3f 00 00 80 3f
       1.0 1.0 1.0 1.0
000060 00 00 80 3f 00 00 80 3f 00 00 80 3f 00 00 80 3f
       1.0 1.0 1.0 1.0
000070 00 00 80 3f 00 00 80 3f 00 00 80 3f 00 00 80 3f
       1.0 1.0 1.0 1.0
000080 00 00 80 3f 00 00 80 3f 00 00 80 3f 00 00 80 3f
       1.0 1.0 1.0 1.0
000090 00 00 80 3f 00 00 80 3f 00 00 80 3f 00 00 80 3f
       1.0 1.0 1.0 1.0
0000a0 00 00 80 3f 00 00 80 3f 00 00 80 3f 00 00 80 3f
       1.0 1.0 1.0 1.0
0000b0 00 00 80 3f 00 00 80 3f 00 00 80 3f 00 00 80 3f
       1.0 1.0 1.0 1.0
0000c0 00 00 80 3f 00 00 80 3f 00 00 80 3f 00 00 80 3f
       1.0 1.0 1.0 1.0
0000d0 00 00 80 3f 00 00 80 3f 00 00 80 3f 00 00 80 3f
       1.0 1.0 1.0 1.0
0000e0 00 00 80 3f 00 00 80 3f 00 00 80 3f 00 00 80 3f
       1.0 1.0 1.0 1.0
0000f0 00 00 80 3f 00 00 80 3f 00 00 80 3f 00 00 80 3f
       1.0 1.0 1.0 1.0

net3.5.bias f4 [64]
000000 00 00 00 00 00 00 00 00 00 00 00 00 00 00 00 00
       0.0 0.0 0.0 0.0
000010 00 00 00 00 00 00 00 00 00 00 00 00 00 00 00 00
       0.0 0.0 0.0 0.0
000020 00 00 00 00 00 00 00 00 00 00 00 00 00 00 00 00
       0.0 0.0 0.0 0.0
000030 00 00 00 00 00 00 00 00 00 00 00 00 00 00 00 00
       0.0 0.0 0.0 0.0
000040 00 00 00 00 00 00 00 00 00 00 00 00 00 00 00 00
       0.0 0.0 0.0 0.0
000050 00 00 00 00 00 00 00 00 00 00 00 00 00 00 00 00
       0.0 0.0 0.0 0.0
000060 00 00 00 00 00 00 00 00 00 00 00 00 00 00 00 00
       0.0 0.0 0.0 0.0
000070 00 00 00 00 00 00 00 00 00 00 00 00 00 00 00 00
       0.0 0.0 0.0 0.0
000080 00 00 00 00 00 00 00 00 00 00 00 00 00 00 00 00
       0.0 0.0 0.0 0.0
000090 00 00 00 00 00 00 00 00 00 00 00 00 00 00 00 00
       0.0 0.0 0.0 0.0
0000a0 00 00 00 00 00 00 00 00 00 00 00 00 00 00 00 00
       0.0 0.0 0.0 0.0
0000b0 00 00 00 00 00 00 00 00 00 00 00 00 00 00 00 00
       0.0 0.0 0.0 0.0
0000c0 00 00 00 00 00 00 00 00 00 00 00 00 00 00 00 00
       0.0 0.0 0.0 0.0
0000d0 00 00 00 00 00 00 00 00 00 00 00 00 00 00 00 00
       0.0 0.0 0.0 0.0
0000e0 00 00 00 00 00 00 00 00 00 00 00 00 00 00 00 00
       0.0 0.0 0.0 0.0
0000f0 00 00 00 00 00 00 00 00 00 00 00 00 00 00 00 00
       0.0 0.0 0.0 0.0

net3.5.running_mean f4 [64]
000000 00 00 00 00 00 00 00 00 00 00 00 00 00 00 00 00
       0.0 0.0 0.0 0.0
000010 00 00 00 00 00 00 00 00 00 00 00 00 00 00 00 00
       0.0 0.0 0.0 0.0
000020 00 00 00 00 00 00 00 00 00 00 00 00 00 00 00 00
       0.0 0.0 0.0 0.0
000030 00 00 00 00 00 00 00 00 00 00 00 00 00 00 00 00
       0.0 0.0 0.0 0.0
000040 00 00 00 00 00 00 00 00 00 00 00 00 00 00 00 00
       0.0 0.0 0.0 0.0
000050 00 00 00 00 00 00 00 00 00 00 00 00 00 00 00 00
       0.0 0.0 0.0 0.0
000060 00 00 00 00 00 00 00 00 00 00 00 00 00 00 00 00
       0.0 0.0 0.0 0.0
000070 00 00 00 00 00 00 00 00 00 00 00 00 00 00 00 00
       0.0 0.0 0.0 0.0
000080 00 00 00 00 00 00 00 00 00 00 00 00 00 00 00 00
       0.0 0.0 0.0 0.0
000090 00 00 00 00 00 00 00 00 00 00 00 00 00 00 00 00
       0.0 0.0 0.0 0.0
0000a0 00 00 00 00 00 00 00 00 00 00 00 00 00 00 00 00
       0.0 0.0 0.0 0.0
0000b0 00 00 00 00 00 00 00 00 00 00 00 00 00 00 00 00
       0.0 0.0 0.0 0.0
0000c0 00 00 00 00 00 00 00 00 00 00 00 00 00 00 00 00
       0.0 0.0 0.0 0.0
0000d0 00 00 00 00 00 00 00 00 00 00 00 00 00 00 00 00
       0.0 0.0 0.0 0.0
0000e0 00 00 00 00 00 00 00 00 00 00 00 00 00 00 00 00
       0.0 0.0 0.0 0.0
0000f0 00 00 00 00 00 00 00 00 00 00 00 00 00 00 00 00
       0.0 0.0 0.0 0.0

net3.5.running_var f4 [64]
000000 00 00 80 3f 00 00 80 3f 00 00 80 3f 00 00 80 3f
       1.0 1.0 1.0 1.0
000010 00 00 80 3f 00 00 80 3f 00 00 80 3f 00 00 80 3f
       1.0 1.0 1.0 1.0
000020 00 00 80 3f 00 00 80 3f 00 00 80 3f 00 00 80 3f
       1.0 1.0 1.0 1.0
000030 00 00 80 3f 00 00 80 3f 00 00 80 3f 00 00 80 3f
       1.0 1.0 1.0 1.0
000040 00 00 80 3f 00 00 80 3f 00 00 80 3f 00 00 80 3f
       1.0 1.0 1.0 1.0
000050 00 00 80 3f 00 00 80 3f 00 00 80 3f 00 00 80 3f
       1.0 1.0 1.0 1.0
000060 00 00 80 3f 00 00 80 3f 00 00 80 3f 00 00 80 3f
       1.0 1.0 1.0 1.0
000070 00 00 80 3f 00 00 80 3f 00 00 80 3f 00 00 80 3f
       1.0 1.0 1.0 1.0
000080 00 00 80 3f 00 00 80 3f 00 00 80 3f 00 00 80 3f
       1.0 1.0 1.0 1.0
000090 00 00 80 3f 00 00 80 3f 00 00 80 3f 00 00 80 3f
       1.0 1.0 1.0 1.0
0000a0 00 00 80 3f 00 00 80 3f 00 00 80 3f 00 00 80 3f
       1.0 1.0 1.0 1.0
0000b0 00 00 80 3f 00 00 80 3f 00 00 80 3f 00 00 80 3f
       1.0 1.0 1.0 1.0
0000c0 00 00 80 3f 00 00 80 3f 00 00 80 3f 00 00 80 3f
       1.0 1.0 1.0 1.0
0000d0 00 00 80 3f 00 00 80 3f 00 00 80 3f 00 00 80 3f
       1.0 1.0 1.0 1.0
0000e0 00 00 80 3f 00 00 80 3f 00 00 80 3f 00 00 80 3f
       1.0 1.0 1.0 1.0
0000f0 00 00 80 3f 00 00 80 3f 00 00 80 3f 00 00 80 3f
       1.0 1.0 1.0 1.0
